twig/TWIG-I/checkpoints/chkpt-ID_7914638617113617_e5.pt (torch, 6362 bytes, 5 tensors)

weight f4 [10, 22]
0	0xbe92d183	-0.2867547
1	0xbe9265f7	-0.28593418
2	0xbd807072	-0.06271447
3	0xbe8ab158	-0.27088428
4	0x3cd9368a	0.026515264
5	0xbe8798a3	-0.2648364
6	0xbd1c61c6	-0.03817918
7	0xbde62b33	-0.11238708
8	0xbda55688	-0.08073145
9	0xbe0a488e	-0.1350424
10	0xbe05ec34	-0.13078386
11	0xbd5a773e	-0.053336374
12	0x3d95d714	0.073164135
13	0xbe596f47	-0.21233855
14	0xbdc41dbc	-0.09575984
15	0xbe8fdc9f	-0.28098008
16	0x3e0d1947	0.13779174
17	0xbddfed7a	-0.10933967
18	0x3e1ed375	0.15510352
19	0xbe54509f	-0.2073388
20	0xbd6a010d	-0.05712991
21	0xbebb8ff7	-0.36633274
22	0x3d196db9	0.037458155
23	0xbea7bc6c	-0.32760942
24	0xbdce907b	-0.10086151
25	0x3d5855ec	0.052816316
26	0xbe38a965	-0.18033369
27	0xbe8c44ad	-0.27396145
28	0xbe13c1cc	-0.14429396
29	0x3e944d83	0.28965387
30	0xbd276e6c	-0.04087679
31	0x3e347a18	0.176247
32	0xbe8cf154	-0.2752787
33	0x3e133a4a	0.14377704
34	0x3d0523f1	0.03250498
35	0x3e19ed30	0.15031886
36	0x3df13efe	0.11779593
37	0x3e288d77	0.16460215
38	0x3e3076c4	0.17232805
39	0xbe7057fc	-0.23471063
40	0xbd3f6c4b	-0.046734136
41	0xbd60579e	-0.05477106
42	0x3c8c09be	0.01709449
43	0xbe89f39d	-0.26943675
44	0x3e19dde5	0.15026052
45	0x3ee076c1	0.43840602
46	0x3d0cb28c	0.034349963
47	0x3b38a321	0.0028173404
48	0x3e307569	0.17232288
49	0x3dc0d1ad	0.094149925
50	0x3dc25fc2	0.094909206
51	0x3ddc5c19	0.10759754
52	0xbe728b2f	-0.23685907
53	0xbdaab2f4	-0.08334914
54	0xbe1c2baa	-0.15251032
55	0xbe8f28a0	-0.27960682
56	0x3e9db9b2	0.30805737
57	0xbd0b8c97	-0.034069624
58	0x3e8d802b	0.27636847
59	0xbe652e3a	-0.22380915
60	0x3edae0a3	0.4274951
61	0xbe05245c	-0.13002151
62	0x3d8f798c	0.07005605
63	0x3c84baa4	0.016202278
64	0xbe9c338e	-0.30508083
65	0xbe0f7f02	-0.14013293
66	0xbd3ed47d	-0.046589363
67	0xbe544a5e	-0.20731494
68	0x3c72d579	0.014821404
69	0x3d08ce10	0.03339964
70	0x3e792240	0.24329472
71	0x3e26a46d	0.16273661
72	0xbd01e02f	-0.03170794
73	0xbe7c2ee5	-0.24627264
74	0xbdf0736c	-0.11740765
75	0xbd01012d	-0.031495262
76	0x3e577ee0	0.21044493
77	0x3dbdf496	0.09275167
78	0xbea3f47f	-0.32022473
79	0xbd7ac27b	-0.061220627
80	0x3cd078a6	0.025448155
81	0x3d4aa3cb	0.04947261
82	0x3cd59abc	0.02607476
83	0xbe19a150	-0.15002942
84	0x3e6d491b	0.23172419
85	0xbe87bf53	-0.26513156
86	0x3eb51c7b	0.3537329
87	0x3f0d6531	0.5523253
88	0xbdaf7f6c	-0.08569226
89	0x3d280bb7	0.041026797
90	0xbce3b56e	-0.027796473
91	0x3d91763a	0.07102628
92	0x3d908e07	0.070583396
93	0x3d91a3ec	0.07111344
94	0xbe3f1822	-0.1866155
95	0xbe6ffcf1	-0.23436333
96	0x3e98c6c2	0.2983914
97	0x3c128871	0.008943663
98	0x3d7eba6f	0.062189516
99	0x3dbe887e	0.093033776
100	0xbdb41fd0	-0.0879513
101	0x3db570df	0.08859419
102	0x3e17f5e2	0.1483989
103	0xbec2dc21	-0.3805857
104	0x3eb9fd7c	0.36326206
105	0x3e641ea5	0.22277315
106	0x3e5436b3	0.20723991
107	0x3d992675	0.07478038
108	0xbe9d20b3	-0.3068901
109	0xbde8db79	-0.11369986
110	0xbeaeccf9	-0.34140757
111	0xbe3b7793	-0.18307333
112	0xbeacf17d	-0.3377799
113	0xbdb6236e	-0.088934764
114	0xbf0124f8	-0.50447035
115	0xbda98bcc	-0.08278617
116	0x3d965994	0.073413044
117	0xbbc219c7	-0.005923483
118	0xbd17986c	-0.037010595
119	0xbe81ca63	-0.2534972
120	0xbe09297d	-0.13394733
121	0x3d185b14	0.037196234
122	0xbd92c725	-0.0716689
123	0xbe3085a7	-0.17238484
124	0x3d60bf8d	0.054870177
125	0x3b2fffa8	0.0026855264
126	0xbd27b218	-0.040941328
127	0xbe6d90f4	-0.23199826
128	0xbee50a12	-0.44734246
129	0x3d1e6ca7	0.038677838
130	0xbe373b43	-0.178937
131	0x3dc9ccb7	0.098534994
132	0x3d93ecfd	0.07222936
133	0xbe1a2b7b	-0.15055649
134	0x3c29d9da	0.010366881
135	0x3e151905	0.14560325
136	0x3bebdaa6	0.007197696
137	0x3e26952c	0.16267842
138	0x3e64132b	0.22272937
139	0x3ce542ff	0.027986048
140	0xbe9fa147	-0.31177732
141	0xbea3ec51	-0.32016233
142	0x3d2a0ee8	0.041518122
143	0xbe195a6e	-0.14975902
144	0x3da73c49	0.08165795
145	0x3e06a6be	0.13149545
146	0x3e252077	0.16125666
147	0xbdd81cb5	-0.105523504
148	0xbeec7dcf	-0.46189734
149	0xbe423a84	-0.18967634
150	0x3e53c734	0.20681459
151	0xbccb1f84	-0.024795301
152	0xbdbe9388	-0.09305483
153	0xbd83353f	-0.0640664
154	0x3c81ceed	0.01584574
155	0x3d964e0e	0.073391065
156	0x3d6a977e	0.05727338
157	0x3d355870	0.044273794
158	0xbe18acf2	-0.14909723
159	0x3d2acb9e	0.04169809
160	0x3c89b25b	0.01680868
161	0xbe81004a	-0.25195533
162	0x3eacc49c	0.3374375
163	0x3f017a63	0.5057737
164	0xbe0cf510	-0.13765359
165	0xbd9c7b0f	-0.07640659
166	0x3d469f40	0.048491716
167	0xbe63cccb	-0.22246091
168	0xbeb00673	-0.3437992
169	0xbe956fc6	-0.2918684
170	0x3ea9d4d6	0.33170193
171	0x3d273b2c	0.040827915
172	0xbe70f85a	-0.23532239
173	0x3cbd75f9	0.023127543
174	0xbd5b003a	-0.053467013
175	0xbe84c4e5	-0.2593147
176	0x3db33684	0.087506324
177	0x3de7e5c3	0.113231204
178	0x3d9eaa52	0.0774733
179	0x3d085c89	0.033291373
180	0xbeaeb90e	-0.3412556
181	0x3cdbff69	0.026855187
182	0x3da067f6	0.07832329
183	0x3e9d779b	0.30755314
184	0x3ddc1919	0.107469745
185	0x3dba534d	0.090979196
186	0xbe9a817d	-0.30176917
187	0x3d10b97e	0.03533315
188	0xbd016446	-0.03158977
189	0x3d0d0a38	0.034433573
190	0xbba1e50e	-0.0049406355
191	0x3f0cbeea	0.5497881
192	0x3e0553ca	0.13020244
193	0x3d851ca5	0.06499604
194	0xbe9ccbcb	-0.30624232
195	0x3ed548d1	0.41657117
196	0xbdeb02f3	-0.11475172
197	0x3e33e85e	0.1756911
198	0x3e274b18	0.1633724
199	0xbd98264f	-0.07429182
200	0xbd17f061	-0.037094478
201	0xbe21ff47	-0.15820037
202	0x3e69f072	0.22845629
203	0x3e090daf	0.13384126
204	0x3e03432a	0.1281859
205	0xbe1ac134	-0.15112764
206	0x3e930c13	0.2872015
207	0x3e6e4b76	0.23270974
208	0x3d62f2f2	0.055407472
209	0xbd4fb07a	-0.05070541
210	0xbe35cffe	-0.17755124
211	0xbd191274	-0.037371114
212	0x3e9b8b45	0.30379692
213	0x3d8463c2	0.0646434
214	0xbe6cb07a	-0.23114195
215	0xbda11cb9	-0.078668065
216	0x3c5f1b68	0.013617374
217	0x3e031e5a	0.12804547
218	0x3e4c80fc	0.19971079
219	0x3df9f231	0.122043975

bias f4 [10]
0	0xbf3ab380	-0.72930145
1	0xbd62c378	-0.055362195
2	0xbdfd6c08	-0.12374121
3	0x3e967ede	0.29393667
4	0x3d92bf96	0.07165448
5	0xbe77439c	-0.24146885
6	0x3e5279e2	0.20554307
7	0x3d5ed695	0.05440386
8	0x3e8ee639	0.2791002
9	0xbe6301a2	-0.22168592

weight f4 [10, 10]
0	0xbe111941	-0.1416979
1	0xbe81a212	-0.25318962
2	0xbc3c8259	-0.011505687
3	0x3c49451e	0.012284545
4	0x3ef4e433	0.47830352
5	0xbe422241	-0.1895838
6	0xbdfb837a	-0.122809365
7	0x3edb1068	0.42785954
8	0xbe2b4440	-0.16725254
9	0x3df42e8e	0.11922942
10	0xbe3a5116	-0.18194994
11	0xbbe809c3	-0.007081242
12	0x3ede0859	0.43365744
13	0xbe7df294	-0.24799567
14	0xbe1bd833	-0.15219192
15	0xbe4a5efc	-0.19762796
16	0x3ee6fb06	0.4511339
17	0x3eedc4eb	0.464393
18	0xbd4969e5	-0.049173255
19	0xbdcc36db	-0.099714
20	0xbe8c189d	-0.27362528
21	0xbc7ee856	-0.015558323
22	0x3e1844de	0.14870021
23	0x3ca13326	0.01967771
24	0xbe01cacb	-0.12675016
25	0xbd0a561d	-0.03377353
26	0x3eb1890c	0.3467487
27	0x3c3f201e	0.011665372
28	0xbe630103	-0.22168355
29	0x3e299c4d	0.1656353
30	0x3ec8fe6c	0.39256608
31	0x3e869146	0.2628271
32	0xbea9e7e8	-0.33184743
33	0xbcd21214	-0.025643386
34	0xbdff7905	-0.124742545
35	0x3ea4316e	0.32068962
36	0x3e39ad23	0.18132453
37	0x3e303714	0.1720851
38	0x3c3a4139	0.011368089
39	0x3e527d24	0.2055555
40	0xbe8603ea	-0.2617486
41	0xbe906784	-0.28203976
42	0x3ee34834	0.44391024
43	0x3ea238e0	0.31684017
44	0x3d7d5e27	0.06185737
45	0xbc624900	-0.01381135
46	0x3d6c8f56	0.057753883
47	0x3f0da564	0.5533049
48	0xbce297b6	-0.027660232
49	0x3e392aaa	0.18082681
50	0xbe1a25bf	-0.15053461
51	0x3eb2eb9b	0.34945378
52	0x3cc61993	0.024182117
53	0xbcb4dda9	-0.022078352
54	0xbe786617	-0.24257694
55	0x3e390848	0.18069565
56	0xbeb08ebb	-0.34483895
57	0x3c1111f8	0.008854382
58	0x3f02c8dc	0.5108774
59	0xbe213d1d	-0.15745969
60	0x3bacf87c	0.005278645
61	0x3dcb2ee0	0.0992105
62	0x3e105bc7	0.1409751
63	0x3d8e7558	0.06955975
64	0x3e8d005d	0.2753934
65	0xbe8b44c4	-0.27200902
66	0xbe8b2000	-0.27172852
67	0x3ed4dae1	0.4157324
68	0xbea39693	-0.31950817
69	0x3e7f0b0a	0.24906555
70	0xbe9e14bf	-0.30875203
71	0xbe89cc09	-0.2691348
72	0x3e3fbe6b	0.18724982
73	0x3ed19e84	0.4094125
74	0x3db24d04	0.08706096
75	0xbe953c08	-0.29147363
76	0x3eab8d75	0.3350636
77	0x3df2c5a6	0.11854105
78	0x3c8a327e	0.01686978
79	0x3e2612c1	0.16218092
80	0xbe62dc85	-0.22154434
81	0x3dc65911	0.09684957
82	0x3eb7e978	0.3592031
83	0x3db949ff	0.09047317
84	0x3ebc5cce	0.36789554
85	0xbd9d3247	-0.07675605
86	0x3ec168e8	0.3777535
87	0x3e5c179a	0.21493378
88	0xbcec19af	-0.02882084
89	0x3ede8de9	0.43467644
90	0xbeb90472	-0.36136204
91	0xbe1b95ba	-0.15193835
92	0x3e44bb73	0.19212131
93	0x3ed83ba9	0.42233017
94	0xbd8b438e	-0.067999944
95	0x3e548615	0.20754273
96	0x3e7ef795	0.24899133
97	0x3db27e2c	0.087154716
98	0xbe1f7217	-0.15570866
99	0x3dc748b5	0.09730665

bias f4 [10]
0	0x3e83288a	0.25616866
1	0x3d459e14	0.04824646
2	0x3e6d6451	0.23182799
3	0xbe8489c2	-0.2588635
4	0x3d62b142	0.055344827
5	0x3e6b7e4c	0.22997397
6	0x3eaa9cc3	0.33322725
7	0x3ecd8ac8	0.40144944
8	0x3d80f185	0.06296066
9	0x3da8ab2d	0.08235774

weight f4 [1, 10]
0	0xbebed1e6	-0.37269515
1	0xbf13cc94	-0.57734036
2	0xbef19642	-0.4718495
3	0x3e8e3aa0	0.27779102
4	0xbe636a6f	-0.2220857
5	0x3ee82a57	0.45344803
6	0xbe9da213	-0.30787715
7	0xbe93788e	-0.28802913
8	0xbe4bb587	-0.19893466
9	0xbebe04bb	-0.37112984
