twig/TWIG-I/checkpoints/chkpt-ID_9952599022334208_e10.pt (torch, 6244 bytes, 5 tensors)

weight f4 [10, 20]
000000 af 15 b1 3e f3 d8 de bd 55 7a 5f bd 07 28 d8 3d
       0.34586856 -0.108812235 -0.054560024 0.105545096
000010 50 81 0f 3e 1f b2 40 3e a0 cb be 3b 2b 72 4c bc
       0.14014173 0.18817948 0.005822614 -0.012478392
000020 ca 9a 40 bd f4 05 9f be 64 e9 74 3e fe 25 c9 3b
       -0.04702262 -0.3105923 0.23917156 0.006138562
000030 18 7b d1 3e 20 22 8a 3c 2b 74 f8 3d 36 63 05 bf
       0.40914226 0.016861975 0.12131532 -0.5210451
000040 39 c5 11 3e ba 19 aa be c9 dd 93 3e a7 25 3c bf
       0.1423539 -0.33222753 0.28880146 -0.7349495
000050 f8 b1 bf bd 1f 9a 16 3e 63 0a 53 3c e6 98 37 be
       -0.09360117 0.1470723 0.012880894 -0.1792942
000060 23 06 4c 3e 5a fe 01 3e 1e dc c4 bc 1c f7 b9 bc
       0.19924216 0.12694684 -0.024030741 -0.022700839
000070 67 8c 1e be d9 dd 0f 3e 5e 6e e1 be e8 d1 8e 3e
       -0.15483247 0.14049472 -0.44029516 0.2789452
000080 6e ed 33 bf 13 60 1f 3d ca 44 2e be 73 e4 9e be
       -0.70284164 0.038909983 -0.17018428 -0.31033668
000090 34 5f 9c be d7 a8 d7 3e 9e cc 8b be 05 69 1c 3f
       -0.30541384 0.42121002 -0.27304548 0.6109775
0000a0 01 44 68 3e d7 44 ba 3e 1b e3 80 3e 67 16 15 3d
       0.22682191 0.36380646 0.25173268 0.036398318
0000b0 45 2e 96 3e f0 b4 29 3e 4d 19 63 3e 80 f9 7d 3d
       0.29332176 0.16572928 0.2217762 0.06200552
0000c0 85 56 8e be 6a 9b 1c 3e 2e ca f3 3e ee 96 c6 3e
       -0.27800384 0.15293661 0.47615188 0.38787025
0000d0 9d 1c bb 3d ab 27 35 3d 94 0e b8 bd d7 4d 5b bf
       0.09136317 0.044227283 -0.089871556 -0.8566565
0000e0 33 84 d7 bd 31 16 cf be 3f 55 0f 3d 51 7c 2e 3e
       -0.10523262 -0.40446618 0.034993406 0.1703961
0000f0 9f e7 47 3e d3 28 5c be d8 bd 43 3e b8 18 03 be
       0.1952195 -0.21499948 0.19115388 -0.12802398
000100 3d 72 36 bd fb 08 8e be f6 75 02 3e 1c b8 88 3d
       -0.04454254 -0.27741227 0.12740311 0.06675741
000110 5c 9d 3e 3e 9c 6c 30 be 01 f9 f3 3d 89 3b 06 bd
       0.18614715 -0.17228931 0.11912728 -0.03277162
000120 a3 43 79 bd e7 a1 68 be 4a 7a 33 bc 2d 19 55 bd
       -0.06085552 -0.22718011 -0.010954449 -0.052025963
000130 c1 a3 1a 3e 58 17 81 3e 05 fb 2a be ea f4 56 3e
       0.1510153 0.25213122 -0.16697319 0.20991865
000140 93 80 1c be 76 21 c4 bd 00 e0 4b be df ed 4f bc
       -0.15283422 -0.09576695 -0.19909668 -0.01269099
000150 3e 5d 65 bd 37 18 37 be 2d dd b2 bc 8e b7 aa bc
       -0.055997126 -0.17880331 -0.02183398 -0.020839479
000160 b3 69 89 bc 81 6e 6c 3e 6e b8 de be f8 0c 73 3d
       -0.016774034 0.23089029 -0.43500084 0.05933854
000170 37 f8 1a be ef 33 00 3d 61 2a aa bc e4 e3 22 3e
       -0.15133749 0.031299528 -0.020772161 0.15907246
000180 b3 63 9c 3e d3 24 36 be a1 91 d7 3d 3e 30 09 3c
       0.30544814 -0.17787485 0.105258234 0.008373318
000190 b3 90 76 3e ac 7e b9 3e 9b 98 8f bd 2c cb 84 bc
       0.24078636 0.36229455 -0.07011529 -0.016210161
0001a0 a4 65 36 3f d2 9e b4 3e 0e c4 81 3c 40 8a c8 bc
       0.7124884 0.3527742 0.015840556 -0.024479985
0001b0 de 37 44 be d3 4a 13 be 36 49 61 be ee 6f 31 be
       -0.19161937 -0.14384012 -0.22000584 -0.17327854
0001c0 fa cf 6e bd 21 4e 6a 3d bc 61 36 be 30 36 8f bf
       -0.05830381 0.057203416 -0.1781072 -1.1188412
0001d0 f8 6d 52 3e 88 7d 1c 3e 40 3d b7 3d 5a a6 38 3d
       0.20549762 0.15282261 0.089472294 0.04508052
0001e0 07 60 95 3e 00 d0 c3 3e dc 6d 70 bd 45 0a 0f bd
       0.29174826 0.3824463 -0.05869852 -0.034921903
0001f0 e0 01 96 3e 44 71 91 3e 89 02 07 3b 3f e5 7c bd
       0.29298306 0.28406727 0.0020600876 -0.061742064
000200 5d 86 31 be d3 51 58 be 92 88 ae bc b6 3a 2f be
       -0.17336412 -0.21124963 -0.021305356 -0.1711224
000210 c5 5b 60 3e e4 a5 78 bc 7d fa c9 3d 68 9c 15 bf
       0.21910007 -0.01517627 0.0986223 -0.5844178
000220 20 4e 01 3c 44 34 46 bd 71 25 a5 3e 4b ae c0 be
       0.007892162 -0.048389688 0.32255128 -0.37632975
000230 f9 2f 8b bd b9 ed 23 3d 95 98 6a 3d d6 69 00 bd
       -0.067962594 0.040021632 0.05727442 -0.031350933
000240 57 51 23 3d 1a 20 63 3e 6d 2c 50 be fe 07 25 be
       0.039872494 0.22180215 -0.20329447 -0.1611633
000250 6e 4b ac be 6e a2 10 bd f5 17 88 3e 1c ec 08 3e
       -0.33651298 -0.035311155 0.26580778 0.13371319
000260 cc da 85 3e 7e 30 42 be e3 ee 13 be a3 5b 7d be
       0.2614349 -0.18963811 -0.14446597 -0.24741988
000270 71 74 c1 3d 48 89 a0 3d 48 af c9 bd 18 90 16 3e
       0.094460376 0.07838684 -0.09847885 0.14703405
000280 08 e7 1a 3e 70 3f 6a be 48 de 60 3e 93 d6 ad 3e
       0.15127194 -0.22875762 0.21959794 0.3395277
000290 2c b8 0d be f8 aa af 3e 5b 84 1e be 3c 4b 9f be
       -0.13839787 0.34310126 -0.15480177 -0.31112087
0002a0 da ad 87 be f5 20 af bd 8a d0 9d 3e 71 3b 01 3e
       -0.26499826 -0.08551208 0.30823165 0.12620331
0002b0 34 67 07 be d9 17 5a bd 15 73 f5 bd 2b 4f a4 be
       -0.13222963 -0.0532454 -0.11984841 -0.3209165
0002c0 43 b4 b7 3c 3f 0b 04 bf e3 5a c8 bb e6 2d e2 ba
       0.022424823 -0.5157966 -0.00611435 -0.001725611
0002d0 57 4d 6f bd f7 3b 8e be 5a 06 68 3e 96 18 93 3d
       -0.058423366 -0.27780125 0.22658673 0.07182424
0002e0 a2 e6 17 3e a0 15 15 3d a1 72 39 bb a6 b6 ba bd
       0.14834073 0.036397576 -0.0028297084 -0.09116869
0002f0 1c 3b d6 3e 99 8a e8 3d 1a 62 e5 bd 77 82 e1 39
       0.41841972 0.113545604 -0.11200352 0.00043012548
000300 28 3e 9c 3e 7a ce b7 bd 7a d5 c2 bc 8c b8 b1 3c
       0.3051617 -0.08974929 -0.023783434 0.021694444
000310 f0 b3 0f bc cd d9 83 3d 18 91 84 3d 7b 46 03 3f
       -0.008770928 0.064380266 0.06472987 0.5127942

bias f4 [10]
000000 46 4d 64 bd 79 be 13 be 52 ca 56 3e 8d 5a a3 3c
       -0.055737756 -0.14428128 0.20975617 0.019940639
000010 78 27 65 3d c8 32 4d 3e ec c2 52 3e 8b e4 81 3e
       0.055945843 0.20038903 0.2058217 0.25369677
000020 d1 2c 7d 3e a4 5f d9 bd
       0.24724127 -0.10613945

weight f4 [10, 10]
000000 6c a0 d7 bd 9d 4c 19 be dd 57 27 bd b6 d6 87 3e
       -0.10528645 -0.14970632 -0.040855277 0.26531
000010 fb 64 b6 bb f9 0c 09 3e 1c 65 3e 3e a2 de 66 3e
       -0.005566237 0.13383855 0.18593258 0.22545865
000020 7d bf 4c 3d 15 b9 4e 3e 05 7c 15 be 14 62 02 be
       0.049987305 0.2018779 -0.14598091 -0.12732726
000030 b9 c4 a5 be cf 4f 5c 3e c1 07 c2 3d e6 e3 16 bf
       -0.3237665 0.2151482 0.09474135 -0.58941495
000040 1e ee 90 bd 26 db 5c be 2e f7 e2 3c ff 7e 85 be
       -0.07076667 -0.21567973 0.027705755 -0.26073453
000050 c0 ea 24 3f 7f 01 74 3f ab 07 d6 3e 93 19 c9 be
       0.644207 0.9531478 0.41802725 -0.39277324
000060 7c 1f 84 be 93 1c 28 40 4c 9b 19 3f 9a da a7 3e
       -0.2580527 2.626744 0.6000259 0.32783967
000070 0d ef 86 3d ce f2 94 be 05 4f 88 3e 91 46 4b 40
       0.06588564 -0.29091495 0.26622787 3.176182
000080 c5 09 2f 3f f9 81 92 be 34 35 c1 be ed 94 45 3f
       0.6837428 -0.28614786 -0.37735903 0.7718037
000090 53 08 d6 3e fa 26 c5 3e 8e 7a 3f 3e 4e cf e2 be
       0.41803226 0.385063 0.18699095 -0.44298786
0000a0 a0 38 f5 bd 96 36 27 be 97 f1 8c be 3d 15 0f be
       -0.11973691 -0.16329417 -0.27528068 -0.13972946
0000b0 67 2c bc be 71 eb c2 be a1 0d 06 3e 62 61 45 be
       -0.36752626 -0.38070253 0.13091137 -0.1927543
0000c0 54 2a 54 be f6 59 38 bd 82 15 c0 3e 0e 6d 81 3e
       -0.20719272 -0.04500767 0.3751641 0.25278515
0000d0 90 23 2a be 5e f9 4d bc cf 7e f0 bd c0 dd d9 3e
       -0.16615129 -0.012571661 -0.11742937 0.42551994
0000e0 ba c7 b3 3e 31 23 ae 3e 95 3a 4d bd 22 87 4e 3e
       0.35113317 0.34011224 -0.050104696 0.20168737
0000f0 de bc e8 bd 76 43 28 bd 9c bb b0 3e 66 3f 7a 3d
       -0.113641486 -0.04107996 0.34518135 0.061095618
000100 8c 11 64 be fc 4d 08 3f 13 69 55 bd c6 cb c5 3e
       -0.22272319 0.53243995 -0.05210216 0.3863203
000110 a1 ef a0 3e 81 17 4a bd d5 3f b0 be a4 b7 7d 3d
       0.31432822 -0.04933882 -0.344237 0.06194271
000120 9e 71 4c 3d b0 d3 59 3e f2 28 36 bd 78 2a 7e be
       0.04991304 0.21272159 -0.044472642 -0.24820888
000130 2f a1 4f be db f7 52 3d 21 6d 25 3e 72 4a 9f 3c
       -0.2027633 0.051505905 0.1615491 0.019444678
000140 55 5f 53 3c 54 5b 04 3e ae 1b 24 be b4 19 06 bd
       0.012901147 0.12925464 -0.16026184 -0.032739356
000150 f5 9f 60 3e 9d 7e b4 be 90 e9 b2 be c1 ed 10 3e
       0.21936019 -0.35252848 -0.3494382 0.14153196
000160 f2 1c ac be eb 31 17 3e 4f 0f e7 be c8 69 f5 be
       -0.33615834 0.14765136 -0.45128867 -0.47932267
000170 13 cd 44 be f0 1e c5 3e 98 ce 3d 3e 28 7e a3 bf
       -0.19218855 0.38500166 0.1853584 -1.2772875
000180 a0 e1 91 bd 95 2a 21 be 37 84 f4 3d 95 25 c9 3e
       -0.07123113 -0.157389 0.119392805 0.39286485

bias f4 [10]
000000 d2 64 95 be d5 68 cf 3e d2 f1 35 3e 61 e7 ef bc
       -0.29178482 0.40509668 0.17768028 -0.029285135
000010 16 1f 4a 3e dc 7d 84 3e bd b3 10 3f f7 05 af 3d
       0.19738421 0.25877273 0.5652426 0.085460596
000020 68 b2 97 3e 73 f6 be 3f
       0.296283 1.491896

weight f4 [1, 10]
000000 2b 16 5d be 0e 84 a5 be 2c fb 0e 3f ac d4 48 3f
       -0.21590488 -0.32327312 0.5585201 0.7844951
000010 be 3e 2f be 3d 15 4c 3e 15 e1 84 3e 4b 16 1c be
       -0.17113778 0.19929977 0.25952974 -0.15242879
000020 68 d2 bd be 45 d3 d4 bd
       -0.3707459 -0.10391859
