twig/TWIG-I/checkpoints/chkpt-ID_8313298577741459_e20.pt (torch, 6244 bytes, 5 tensors)

weight f4 [10, 20]
00000000: ae36 223f 2222 db3f 78fb 72be ce68 103d
00000010: bd8a d83d 749d 353e aee7 203c 7edb acbd
00000020: 8885 84bf e086 debc bc06 23bd 5d7f 503c
00000030: 323a 9a3d 4662 8e3e 74a3 7abf e322 c0bf
00000040: e6a5 9abd f816 7ebd fb6b 073e 3baa 7fbe
00000050: eb3c ffbe 12a2 61bd 69da 52bf e11a c63d
00000060: ae8a 08bf 88cd f13e f257 23bd 1729 efbe
00000070: 3946 b33c c377 483e d271 8c3d 1bff 9ebe
00000080: 2f90 4abe 09b9 10be a86f 1a3e f21a 99bd
00000090: d9ad 6d3e 93fd 123f 602c 233e 96f9 033c
000000a0: f936 403f ef09 3b3f 3184 9b3d 1a3c 83be
000000b0: 331b fb3f 857d a43e 99fb 003b 073f bb3b
000000c0: 0aa2 11bf 727e 223d 81e3 8fbb 882a c6ba
000000d0: cd9f 20bc 141c f6bc d2cb 753c c8a3 31c0
000000e0: 6175 89bd d9dc e93c 1738 303d c068 a83b
000000f0: 291f 0cbe 8803 abbf 22b9 42be 96bf 2ebf
00000100: 2e88 95be 4159 57bf bedf 803d aabd 43bd
00000110: e8c4 3d3c 748f fabd 0527 63bd b98a 9e3d
00000120: 970b ee3d 4f2f 9d3e fbf3 9b3e 87dd c63f
00000130: f7cc 5d3d cb81 073f 4ad0 5e3c 4df1 083f
00000140: 1411 1ebe 531b bebf 165e f73d 5528 75bf
00000150: 0a9b fb3a 4ab7 54bf 8766 203c fe79 20bd
00000160: f5a6 913e 9bb3 fc3c 4873 d93b c04e ac3a
00000170: 3678 1e3c 0c78 95bd 1e60 9d3d 6a48 c33f
00000180: 40f7 683e 9728 fc3d d57b 5abe dfa5 c63d
00000190: 9291 febc e0fe d63d 2ade 49bf 5c52 60be
000001a0: 126c 873e adc9 383d 39c3 7ebd 6da1 513e
000001b0: 911e dbbd 61ee 433c 831b da3c 078f 1abe
000001c0: 96f0 643e 0937 b5bd 7533 02bf 2b57 07be
000001d0: 681e bf3e ce4e 8fbe 3609 953c 4fb7 dabe
000001e0: bcef 043f acf6 c93f 9ddf babe c028 49be
000001f0: 9bb1 2d3e 3859 143f 057e 8dbb 0d09 16bd
00000200: da29 94be d645 323b 65ae d2bd 69e9 a6bd
00000210: 4f97 47be 173f 3e3d 2267 263d 7cbb bcbf
00000220: 803f febe 4f2f 0d3e 1510 393e c4dd 6d3d
00000230: a4d0 7b3f cb0c 873f c1a0 c5be 323b 183c
00000240: a659 993f 16d1 dc3d e70a 503d 7dec acbc
00000250: 7888 c8bf 858a 9cbc 1fef ef3c 7def 3e3d
00000260: 3f88 983d 3496 d1bb bf37 5e3d 456b 13c0
00000270: f0e5 c83c 00b8 853d 22e5 0a3e 58d2 a23d
00000280: c8f4 463f 329e ab3a 6a08 033b 3e67 b03e
00000290: 3cfc 7a3f e35e 713e 9432 0f3d 2295 22be
000002a0: dc75 a7bf 0670 eabd 8a33 203c 08d1 aabc
000002b0: 71d2 183b ee64 7a3c c69c 15bd 63ec eebf
000002c0: 9189 f1bd 2df1 8a3d 9e3c 393e 4db2 7c3d
000002d0: c190 00c0 3fc2 05c0 18b3 65be 2f5f f139
000002e0: d540 18be 4db4 7a3e 5fae 23bd 1b62 6bbd
000002f0: 43f6 713f aa87 bc3c 03c8 083d 73c8 3f3d
00000300: 4a3b 443d 4171 7dba b5db e1bd b8af f03f
00000310: 7926 48bd 3af3 c93d d5b1 c83d 9801 cc3b
0.63364685 1.7119792 -0.2372874 0.0352562 0.10573337 0.17735845 0.009820862 -0.08440302
-1.035325 -0.027163923 -0.039801344 0.012725678 0.07530631 0.27809352 -0.9790566 -1.5010647
-0.07551174 -0.062033623 0.13224785 -0.24967282 -0.49851164 -0.055086203 -0.8236452 0.096730955
-0.5333661 0.4722712 -0.039878793 -0.46711037 0.02188407 0.19576935 0.06857647 -0.31054005
-0.19781564 -0.14133085 0.15081656 -0.074758425 0.23210849 0.57418174 0.15934896 0.008055111
0.7508388 0.7306203 0.07593573 -0.2563179 1.9617676 0.32127014 0.0019681214 0.0057143006
-0.56887877 0.03967137 -0.0043911343 -0.0015118876 -0.0098037245 -0.030042686 0.015002208 -2.7756214
-0.067118414 0.028547691 0.04302224 0.0051394403 -0.13683762 -1.3360453 -0.19015935 -0.68261087
-0.2920546 -0.84120566 0.062926754 -0.0477883 0.011582591 -0.12234393 -0.055457134 0.07741303
0.11623304 0.30700156 0.3045958 1.5536355 0.054150548 0.52932423 0.013599465 0.53493196
-0.15436202 -1.4852089 0.12078492 -0.95764667 0.0019195986 -0.83092177 0.009790069 -0.03917884
0.2844769 0.030847361 0.006636057 0.0013146028 0.009672215 -0.07298288 0.076843485 1.5256474
0.22750568 0.123124294 -0.213363 0.09699606 -0.031075273 0.10497832 -0.7885462 -0.21906418
0.2644964 0.045114208 -0.062197898 0.20471735 -0.106991895 0.011958689 0.026624447 -0.15093623
0.22357401 -0.08848388 -0.5085977 -0.13216846 0.37327886 -0.2798981 0.018192869 -0.42717978
0.51928306 1.5778403 -0.36498728 -0.19644451 0.16962282 0.57948637 -0.004318001 -0.036629725
-0.2893818 0.002720227 -0.10287169 -0.08149988 -0.19491313 0.046446886 0.0406257 -1.4744716
-0.49657822 0.13787578 0.18072541 0.05807282 0.98365235 1.0550779 -0.38599208 0.009291457
1.1980484 0.107820675 0.050791647 -0.02110886 -1.5666647 -0.01910902 0.029288827 0.046615113
0.07447862 -0.0063960794 0.054252382 -2.3034222 0.024523705 0.06529236 0.1356397 0.07950276
0.77717257 0.001309341 0.001999403 0.34453768 0.9804113 0.23571353 0.034960344 -0.15877202
-1.3082843 -0.11447148 0.009777913 -0.020851627 0.0023318792 0.015282853 -0.036526464 -1.866589
-0.11793817 0.06784282 0.1808953 0.06169348 -2.008835 -2.0899808 -0.224316 0.0004603802
-0.14868481 0.24482842 -0.039961215 -0.057466608 0.9451639 0.023013908 0.03339387 0.046822023
0.047908105 -0.000966806 -0.11028234 1.8803625 -0.048864815 0.09860845 0.09799544 0.006225776

bias f4 [10]
00000000: 3281 353e 902e 38bf 61f6 383e 4377 1abe
00000010: 419a 56bd a579 15be 50f1 533e 86b9 983e
00000020: 381a 903c ca09 ecbe
0.17725065 -0.7194605 0.18062736 -0.15084557 -0.0523932 -0.14597185 0.20697522 0.29829043
0.017590627 -0.46101218

weight f4 [10, 10]
00000000: 46e6 afbe 013c d5be 1c17 b9be c3a7 ea3e
00000010: 1081 a83e a7e9 543e 24f0 44be 251a c1be
00000020: 3e83 57bf 93e3 b03e 53e3 87bf 7151 9bbe
00000030: ec5a a2be 28bd 9b3e 9d12 423e 09ec f6be
00000040: 4bcf 94be d02a 40bf aec5 13be 7762 44be
00000050: c6a4 b4be 14e9 1cbe 7b33 563f a076 c4be
00000060: ed10 9fbd 1859 70be d7df 10bf c790 1940
00000070: 45b7 913e 8a75 fabf 2d92 a93e 9fd5 21bc
00000080: c367 403f 672c c9bd 8824 70be 9010 24be
00000090: 624e 1f3e fc13 f53f 0929 093e a3ab 17c0
000000a0: 76cf 21bf ee70 c3be e425 69bf 8a2e 98be
000000b0: 680d 863e 39d6 0fbd 2ede aabe 6abd fabe
000000c0: 780f b03c 5a9a 983f 9684 4c3f f080 13bc
000000d0: ed41 09be 7ae1 c3bd 365e a5be 24bd ab3e
000000e0: b9f3 a33d 9477 393f a07e 15bd c5b7 25bf
000000f0: 4d27 943f 266b 9cbe c000 613f d43e 6abb
00000100: a867 08bf 0b47 e13d 277a 52be 16b3 703f
00000110: bbe0 d73e 6792 08c0 9e4e 46bf f151 b4be
00000120: 95b9 f2be 10cc 713e 6299 8f3e 0878 d5be
00000130: d2cd 41be 6271 39bf 69ee 79bd 135f 013f
00000140: 48e4 ce3d b45c d53d cfe6 6bbf 111e 37be
00000150: d1dc 9d3e ff24 0f3e 396c 86bf bb37 743e
00000160: 96cf 2bbd bb77 823f 5baf 91bf a84c bebe
00000170: 0e63 b8be 5e05 183f fbb5 123f 2675 d7be
00000180: 2621 b8be 921b 75bf 9809 64bf 488e 883f
-0.34355372 -0.41647342 -0.36150444 0.45831117 0.32910967 0.20792256 -0.19232231 -0.3771526
-0.84184635 0.34548625 -1.0616249 -0.30335572 -0.31709993 0.30417752 0.18952413 -0.48226956
-0.29064402 -0.75065327 -0.14430878 -0.19178186 -0.35281962 -0.15323287 0.836723 -0.38371754
-0.077669 -0.23471487 -0.5659155 2.3994615 0.28460136 -1.956712 0.33119336 -0.009877591
0.7515833 -0.09822922 -0.23451436 -0.16021943 0.15557244 1.9146724 0.1339456 -2.3698509
-0.63207185 -0.38172096 -0.9107344 -0.29723006 0.26182103 -0.035116408 -0.33372635 -0.48972636
0.021491751 1.1922104 0.7988981 -0.009002909 -0.13404055 -0.095644906 -0.3229844 0.3354274
0.08005471 0.72448087 -0.036497712 -0.64733535 1.1574494 -0.30550498 0.8789177 -0.0035743015
-0.53283167 0.109998785 -0.2055441 0.94023263 0.42163643 -2.1339357 -0.7746371 -0.35218766
-0.47407213 0.23613 0.2804671 -0.4169314 -0.1892617 -0.72438633 -0.06101838 0.50535697
0.10102135 0.10418072 -0.9214906 -0.17882563 0.30832532 0.13978957 -1.0501777 0.23849384
-0.041946016 1.0192789 -1.1381639 -0.3716786 -0.36013073 0.5938319 0.5730893 -0.42081565
-0.3596279 -0.95745194 -0.8907714 1.0668421

bias f4 [10]
00000000: 3e72 a5be 815e 353f 912a 20bf 5cc3 e9bd
00000010: 2211 6b3f 2ea6 03bf 94d8 7dbe 7408 0d3f
00000020: 4e05 743e ac4e 1f3f
-0.32313722 0.70847327 -0.6256495 -0.11414215 0.9182302 -0.51425445 -0.24789649 0.55091023
0.23830149 0.6222942

weight f4 [1, 10]
00000000: a97f d4be 24ff a1be 9138 d53f 0a83 083f
00000010: 75b7 3fbf c723 8f3d f799 203f 3a13 1abe
00000020: a256 6bbf befd a8be
-0.41503647 -0.3163997 1.6657888 0.5332495 -0.7488931 0.06989246 0.6273493 -0.15046397
-0.91929066 -0.3300609
