twig/TWIG-I/checkpoints/chkpt-ID_6386335561435301_e15.pt (torch, 5732 bytes, 5 tensors)

weight f4 [10, 6]
-0.0813096 0.21740122 0.02078663 -1.021533 -0.31156456 0.07492001 -0.019778473 -0.006217437
0.040763117 -1.7936678 -0.1432651 -0.23379762 -0.042005513 -0.18960047 0.36025187 0.06696334
-1.6820021 -0.40513828 0.03331683 0.04738904 -0.04119854 -1.802229 0.036335178 -0.43561882
0.13975462 0.5762027 0.07269648 -0.11782216 -1.7600912 0.1800109 -2.127361 0.07337172
-0.38409242 1.187133 0.07281951 -0.07138096 0.006536003 0.09318697 0.026142482 -0.054473937
-1.4401376 -0.36527094 -0.09175392 -0.24008907 -0.11207466 0.012498768 0.29884312 -0.48665404
-0.59086025 -0.22118153 0.6147514 0.24380806 0.22716507 -0.039911054 -0.0734101 -0.102180116
0.4006432 -0.30389896 0.48840952 -0.25301984
00000000: a685 a6bd 6d9e 5e3e b948 aa3c 98c1 82bf
00000010: 6485 9fbe aa6f 993d 7706 a2bc a4bb cbbb
00000020: 3af7 263d e896 e5bf 16b4 12be a568 6fbe
00000030: f90d 2cbd a026 42be ef72 b83e 1324 893d
00000040: d84b d7bf 496e cfbe 3a77 083d 031b 423d
00000050: cdbf 28bd 71af e6bf 32d4 143d 6e09 dfbe
00000060: d61b 0f3e 0582 133f e4e1 943d bf4c f1bd
00000070: ab4a e1bf c754 383e af26 08c0 ea43 963d
00000080: c3a7 c4be f9f3 973f 6522 953d 2e30 92bd
00000090: f82b d63b cfd8 be3d c228 d63c 1020 5fbd
000000a0: 6e56 b8bf cb04 bbbe 7be9 bbbd e9d9 75be
000000b0: 6687 e5bd a2c7 4c3c f701 993e b82a f9be
000000c0: 9e42 17bf 697d 62be 5960 1d3f d2a8 793e
000000d0: f69d 683e c679 23bd 0958 96bd cf43 d1bd
000000e0: 1b21 cd3e a598 9bbe d010 fa3e d18b 81be

bias f4 [10]
-0.4470448 -0.74036616 0.38931984 -0.861665 -0.8013665 -0.68064606 -0.9628763 -0.582438
-0.37259105 0.09158916
00000000: 0ee3 e4be a388 3dbf ee54 c73e 1496 5cbf
00000010: 5b26 4dbf d23e 2ebf 107f 76bf a81a 15bf
00000020: 41c4 bebe 1993 bb3d

weight f4 [10, 10]
-0.030426396 0.10702359 -0.30505902 -0.086008966 -0.25380924 -0.33697313 0.105715066 -0.25041044
-0.25915125 -0.64557207 -0.29645935 0.36118722 0.10889637 0.29284078 -0.059421416 -0.30887112
0.3092597 0.27529436 -0.1877651 0.22937961 -0.19252275 -0.14111364 -0.24319313 -0.008547219
-0.82260656 -0.43662447 0.4108427 -0.18070692 -0.23748796 -0.09387527 -0.16554435 0.016058955
0.021352382 -1.6361215 -0.2524215 0.9061328 -1.5855854 -0.16096044 -0.019205669 0.014789072
-0.20529275 -0.34163475 -0.06963643 -0.21294338 -0.3148454 0.095813796 0.12821677 -0.17484063
-0.18312919 -0.31105524 0.61753845 3.3005226 -0.28845587 1.8346739 -0.2499069 0.06061421
0.3677887 0.66802835 -0.70069665 -0.5718018 -0.4439584 -0.5929953 0.056904566 -0.0811861
0.07667577 -0.050542675 1.06308 0.58476776 -0.10768689 0.12976323 -0.26683208 1.1129564
0.60283846 0.9068253 0.28878593 0.088696815 0.66847885 0.3477634 -0.81221235 -0.47630826
0.067458294 0.5695642 0.5694626 0.24396288 0.1302215 0.30060235 0.68385315 0.5174659
-0.047878854 0.4254587 -0.09761757 -0.031906594 0.31509537 -0.36183053 -1.5956995 1.1589832
-0.50392205 -0.52619016 0.22467393 0.008974641
00000000: c740 f9bc 2f2f db3d b230 9cbe 7825 b0bd
00000010: 49f3 81be be87 acbe 2481 d83d cc35 80be
00000020: 79af 84be 3644 25bf 85c9 97be 88ed b83e
00000030: 0f05 df3d 3aef 953e df63 73bd 5b24 9ebe
00000040: 4a57 9e3e 62f3 8c3e 7f45 40be 7de2 6a3e
00000050: af24 45be 1880 10be 9f07 79be a309 0cbc
00000060: 5896 52bf 3e8d dfbe f959 d23e 3c0b 39be
00000070: 0b30 73be ad41 c0bd 7584 29be 128e 833c
00000080: 31eb ae3c 6e6c d1bf 643d 81be 52f8 673f
00000090: 76f4 cabf d0d2 24be 3555 9dbc dd4d 723c
000000a0: 4338 52be c0ea aebe 8b9d 8ebd d40d 5abe
000000b0: 6b33 a1be 063a c43d 424b 033e 6c09 33be
000000c0: 3886 3bbe a242 9fbe 0017 1e3f c33b 5340
000000d0: 7db0 93be 98d6 ea3f 98e7 7fbe 9b46 783d
000000e0: cd4e bc3e e803 2b3f db60 33bf 9a61 12bf
000000f0: 844e e3be 8ace 17bf c314 693d e644 a6bd
00000100: 3008 9d3d d605 4fbd 0113 883f 57b3 153f
00000110: f28a dcbd a7e0 043e 379e 88be 5b75 8e3f
00000120: 9f53 1a3f b425 683f c0db 933e ada6 b53d
00000130: 6e21 2b3f 0b0e b23e 26ed 4fbf adde f3be
00000140: 9327 8a3d f6ce 113f 4dc8 113f 68d1 793e
00000150: c958 053e 8de8 993e 0011 2f3f a578 043f
00000160: 9e1c 44bd b9d5 d93e b8eb c7bd 7db0 02bd
00000170: 2e54 a13e da41 b9be e23f ccbf 9059 943f
00000180: 0901 01bf 66b4 06bf ec10 663e 5f0a 133c

bias f4 [10]
0.03516457 0.10421185 -0.19640918 0.72488046 -0.26002377 -0.7091532 -0.07158522 -0.53799665
-0.15388419 0.25089806
00000000: b908 103d 066d d53d 7d1f 49be c491 393f
00000010: d621 85be 108b 35bf 469b 92bd 26ba 09bf
00000020: d193 1dbe b675 803e

weight f4 [1, 10]
-0.119386554 -0.37943733 0.30125183 0.77692944 0.18901761 -1.2113496 -0.11870828 -0.5083057
-0.10936527 0.70605475
00000000: f080 f4bd 9c45 c2be ae3d 9a3e d9e4 463f
00000010: d58d 413e 810d 9bbf 541d f3bd 5320 02bf
00000020: e6fa dfbd 01c0 343f
