twig/TWIG-I/checkpoints/chkpt-ID_2785757685374194_e10.pt (torch, 6308 bytes, 5 tensors)

weight f4 [10, 21]
-0.23732401 0.098665275 0.42402387 -0.23732324 -0.1339356 0.21681559 0.76535046 0.30555338
0.18111 0.12598099 0.06519525 0.52490133 -0.27608523 -0.082279205 0.21923047 0.06373551
0.5069925 -0.086663984 0.2545794 0.13409105 0.010579987 0.42737275 0.27220464 -0.014756433
0.8166721 -0.017571345 -0.19616769 -0.07272924 -0.155621 -0.14596862 -0.7664056 0.79158574
-0.6034149 1.1173589 -0.00814223 0.19629478 0.16437052 -0.9802809 0.50664747 -0.43527296
0.47950554 -1.301232 -0.01040197 0.4147773 0.1906411 0.2777 0.032921318 -0.02029726
0.0018657492 -0.01942832 -0.21005057 0.7098474 -0.78147876 0.551421 -1.0817943 -0.13330294
-0.06287268 -0.15953419 -0.8507827 -0.59794015 0.6333293 -0.38902926 0.7852766 -0.43007764
-0.36807558 0.12414287 -0.42334786 -0.19091655 0.018226104 0.18761691 0.20626424 0.071150556
0.019129224 -0.0037508567 0.2082907 -0.6223691 0.061267592 -0.07707243 -0.18724395 -0.4253631
-0.16569969 0.40040308 0.15525176 0.30673704 -0.090766914 -0.45628333 0.5074457 0.1833315
-0.7431596 0.24009672 0.0075755054 0.0034476905 -0.15295117 -0.36577243 0.025349503 -0.318748
0.2298935 0.010754958 -0.28865853 -0.007146402 0.38105068 -0.025395898 -0.22529677 -0.16107719
-0.13105725 -0.16351728 -0.19670697 1.0010159 -0.21695895 -0.052614942 -0.1355019 0.23343511
0.048828684 0.20798182 -0.054826017 -0.14953141 0.11453663 0.2339389 -0.12355444 -0.38301647
0.064854525 -0.275932 0.06868916 0.10599695 0.14148998 0.615194 -0.019774994 -0.5968957
-0.13109937 -0.11268592 -0.38100073 -0.03548706 -0.2081276 -0.20802794 0.7061511 -0.07726433
-0.030424047 0.10613643 0.20737666 0.39141703 0.16321638 0.29272822 0.7322721 0.034859087
-0.39997104 0.10027351 -0.14879827 -0.64042985 -0.6499286 -0.101297565 0.37016842 -0.6922654
-0.022024294 -0.58729464 -0.105895676 0.31377688 0.110319175 0.27377167 -0.10252327 -0.09425014
0.14082585 -0.054885544 -0.20516345 0.9340798 0.23953281 0.14219518 0.140541 -0.26246414
-0.14786018 -0.7085614 -0.012580911 -0.03503514 -0.3309933 -0.12858278 -0.0661593 -0.07965208
0.76452196 -0.2005818 0.2777523 -0.105506346 -0.09990718 -0.12234743 0.28994748 0.18392117
0.8532908 0.023473337 -0.026569165 -0.097138844 -0.08919744 0.2553699 -0.2854057 -0.06245039
0.06754166 -0.16713664 0.12138123 0.07885747 0.0543874 0.61240643 0.23148534 0.33190963
0.1916581 -0.17242782 0.3271371 0.31621334 0.3399828 0.5213071 0.19043446 0.24258652
0.18832424 -0.03761882
00000000: 1105 73be 0511 ca3d a819 d93e dd04 73be
00000010: 6a26 09be e804 5e3e 02ee 433f 7e71 9c3e
00000020: e674 393e 2901 013e 1685 853d ef5f 063f
00000030: 0b5b 8dbe 0082 a8bd f47d 603e c387 823d
00000040: 43ca 013f e37c b1bd 3b58 823e 2a4f 093e
00000050: af57 2d3c 9ad0 da3e 685e 8b3e f7c4 71bc
00000060: 6c11 513f c8f1 8fbc 2fe0 48be 11f3 94bd
00000070: 1d5b 1fbe cc78 15be 2833 44bf 5da5 4a3f
00000080: 6679 1abf 9e05 8f3f fd66 05bc 8001 493e
00000090: bf50 283e b0f3 7abf a6b3 013f 19dc debe
000000a0: c081 f53e c58e a6bf 066d 2abc b15d d43e
000000b0: 6c37 433e b22e 8e3e 81d8 063d 7046 a6bc
000000c0: 288c f43a 2428 9fbc 7f17 57be 8fb8 353f
000000d0: fe0e 48bf ed29 0d3f 3c78 8abf 9180 08be
000000e0: 64c3 80bd ee5c 23be e5cc 59bf 9b12 19bf
000000f0: de21 223f d82e c7be e307 493f 2333 dcbe
00000100: 6774 bcbe 9e3e fe3d 0dc1 d8be a17f 43be
00000110: e94e 953c a61e 403e ef36 533e 62b7 913d
00000120: e4b4 9c3c efd0 75bb 284a 553e 9553 1fbf
00000130: baf3 7a3d 26d8 9dbd e1bc 3fbe 31c9 d9be
00000140: 2ead 29be a201 cd3e 51fa 1e3e a30c 9d3e
00000150: 01e4 b9bd f89d e9be f6e7 013f 41bb 3b3e
00000160: b53f 3ebf eadb 753e f23b f83b a6f2 613b
00000170: 3b9f 1cbe 8646 bbbe c3a9 cf3c f032 a3be
00000180: 3469 6b3e 9035 303c 0dcb 93be 5d2c eabb
00000190: 1319 c33e 0f0b d0bc 32b4 66be 6bf1 24be
000001a0: df33 06be 1371 27be 8d6d 49be 4a21 803f
000001b0: 7d2a 5ebe c482 57bd 03c1 0abe 9d09 6f3e
000001c0: 9600 483d 30f9 543e 3f91 60bd c31e 19be
000001d0: 2e92 ea3d ae8d 6f3e 1c0a fdbd bc1a c4be
000001e0: 73d2 843d f646 8dbe e7ac 8c3d ee14 d93d
000001f0: c0e2 103e 5b7d 1d3f 2bff a1bc 28ce 18bf
00000200: ea3e 06be e0c7 e6bd 8712 c3be e15a 11bd
00000210: 671f 55be 4705 55be 52c6 343f c33c 9ebd
00000220: da3b f9bc 0e5e d93d 8c5a 543e d067 c83e
00000230: 3222 273e 79e0 953e 2f76 3b3f 67c8 0e3d
00000240: 01c9 ccbe 335c cd3d 935e 18be 36f3 23bf
00000250: b961 26bf 1975 cfbd b786 bd3e 4e38 31bf
00000260: 4b6c b4bc f158 16bf d5df d8bd 5da7 a03e
00000270: 05ef e13d cd2b 8c3e b8f7 d1bd 3806 c1bd
00000280: a734 103e aacf 60bd 5e16 52be db1f 6f3f
00000290: 1748 753e 9d9b 113e fbe9 0f3e b361 86be
000002a0: a968 17be 4864 35bf 2a20 4ebc 0281 0fbd
000002b0: f477 a9be 34ab 03be 877e 87bd a120 a3bd
000002c0: b6b7 433f 5165 4dbe 8d35 8e3e b613 d8bd
000002d0: 239c ccbd 4a91 fabd ff73 943e d555 3c3e
000002e0: 4471 5a3f 284b c03c 94a7 d9bc bbf0 c6bd
000002f0: 26ad b6bd d8bf 823e b220 92be fbcb 7fbd
00000300: 4853 8a3d de25 2bbe b996 f83d 0680 a13d
00000310: 53c5 5e3d abc6 1c3f 7e0a 6d3e 0ff0 a93e
00000320: 0542 443e eb90 30be 847e a73e b7e6 a13e
00000330: 3a12 ae3e 6274 053f 4001 433e 9a68 783e
00000340: 12d8 403e 3116 1abd

bias f4 [10]
-0.06370893 0.097244635 0.0010452692 0.0994407 -0.6255178 -0.26501226 -0.13326876 0.11410013
0.14497134 0.0147585645
00000000: d479 82bd 3228 c73d 6a01 893a 91a7 cb3d
00000010: ef21 20bf b0af 87be 9b77 08be 54ad e93d
00000020: 5e73 143e e8cd 713c

weight f4 [10, 10]
-0.20349686 -0.15410966 -0.22373419 0.084724315 -0.056664113 -0.33732054 -0.06906724 -0.14642245
0.07146316 -0.34743717 0.12326682 -0.54648286 -1.7454808 -0.104247026 0.21537463 -0.21694185
0.14161746 0.8230315 0.4509085 -0.10300286 -0.24120338 1.2855458 2.9352343 -0.51873815
-0.12692638 -0.07813496 -0.40204737 -0.384988 -1.0981115 -0.63797504 0.40005237 -0.36960712
-1.1825122 -0.037279975 0.5712767 0.25290346 0.047988668 -0.059272848 0.5214269 -0.1064734
0.14426582 -0.26607364 -0.9302066 0.045318045 0.10118643 0.20963934 0.30989692 0.6487615
-0.04910486 0.43497455 -0.6332222 0.714104 1.3301691 0.569454 -0.18055241 0.05604379
-0.46370375 -0.13891144 -0.50952095 -0.4053286 -0.5632379 0.7386249 1.148801 0.1557071
-0.08528758 -0.04103899 -0.081490874 -0.38519874 0.070841804 -0.026822377 0.36002457 0.7615747
0.21503657 -0.1789532 -0.11376743 0.02226274 -0.42363617 -0.4965619 -0.6076985 -0.25125456
0.024460558 -0.16353786 -1.4646254 0.28558505 0.06259017 -0.35688025 0.26056215 1.014318
0.33008605 0.051148288 -0.10729369 0.03345445 -0.37158176 -0.08576548 0.2786372 0.19899476
0.2699122 -0.016049778 0.24037424 0.11737033
00000000: 7b61 50be ecce 1dbe 931a 65be f183 ad3d
00000010: a118 68bd 47b5 acbe 2073 8dbd c4ef 15be
00000020: 475b 923d 49e3 b1be 5173 fc3d 4de6 0bbf
00000030: ea6b dfbf 777f d5bd 2b8b 5c3e 0126 5ebe
00000040: 2b04 113e 31b2 523f 7bdd e63e 2af3 d2bd
00000050: 05fe 76be c48c a43f e1da 3b40 06cc 04bf
00000060: fdf8 01be 3905 a0bd 27d9 cdbe 261d c5be
00000070: eb8e 8cbf 5552 23bf aad3 cc3e 253d bdbe
00000080: 8f5c 97bf e3b2 18bd 313f 123f 907c 813e
00000090: c48f 443d 16c8 72bd 3c7c 053f ba0e dabd
000000a0: 6bba 133e ce3a 88be 0522 6ebf 6a9f 393d
000000b0: d53a cf3d b2ab 563e cfaa 9e3e 3c15 263f
000000c0: 2d22 49bd fcb4 de3e da1a 22bf 85cf 363f
000000d0: fb42 aa3f bdc7 113f bbe2 38be 2c8e 653d
000000e0: 946a edbe cd3e 0ebe f76f 02bf 3b87 cfbe
000000f0: 5c30 10bf 8516 3d3f e90b 933f af71 1f3e
00000100: 41ab aebd 8018 28bd b0e4 a6bd c538 c5be
00000110: 8215 913d 9aba dbbc 2455 b83e 8ff6 423f
00000120: 8c32 5c3e 823f 37be e6fe e8bd 5a60 b63c
00000130: d7e6 d8be 5d3d febe 2192 1bbf 70a4 80be
00000140: 8261 c83c 7876 27be d878 bbbf 3438 923e
00000150: 462f 803d 02b9 b6be 6768 853e 2cd5 813f
00000160: 0a01 a93e de80 513d cbbc dbbd 8907 093d
00000170: f73f bebe d0a5 afbd 89a9 8e3e 48c5 4b3e
00000180: ef31 8a3e d37a 83bc aa24 763e db5f f03d

bias f4 [10]
-0.17367645 -0.2604268 0.23871444 0.1786917 -0.1331326 0.38403133 0.16524997 0.28035286
-0.38169727 -0.3152318
00000000: 3dd8 31be a956 85be 8f71 743e f5fa 363e
00000010: ea53 08be c19f c43e 4a37 293e 698a 8f3e
00000020: d36d c3be 1066 a1be

weight f4 [1, 10]
0.13357583 -0.67281586 0.7781757 -0.19548011 -0.040656082 0.39419702 0.52876383 0.6399114
-0.2203267 0.02898825
00000000: 1ac8 083e a93d 2cbf 8636 473f f02b 48be
00000010: fe86 26bd 31d4 c93e 115d 073f 3cd1 233f
00000020: 539d 61be c478 ed3c
