twig/TWIG-I/checkpoints/chkpt-ID_6389570187240703_e5.pt (torch, 6298 bytes, 5 tensors)

weight f4 [10, 21]
00000000: 8875 41bc 29a0 14bd b484 163d 3ee6 06be
00000010: eb2f dbbe 2a0e 9cbc ac39 febd 26e8 8e3d
00000020: cb88 843d 6dc7 d7bd 72e6 9fbc 774a b93d
00000030: 9e52 23bd cf72 25bd e925 ce3b eb36 21bd
00000040: 465c 9f3e b89c 46bd 3668 8b3d 3d8c a63d
00000050: b0ca 45be b4da c1bc 4bb6 d9bd 14e6 dbbd
00000060: be39 65be 6ee6 cb3e cdef b2bd b23e 00be
00000070: 58b8 a1be a2b9 2c3e b0c0 a2be 75ce b13d
00000080: c199 69be 2665 ee3d 0347 103e aefb 113e
00000090: 07dd d23d 2182 cebc b413 69be 3671 16be
000000a0: 6471 73be bf3e 39be f30c 743d 1310 95bc
000000b0: 0187 d33d 4314 1b3e 65e8 b13e f659 80bb
000000c0: 32f0 3f3d fb42 1f3e dca2 983d cd0f 763e
000000d0: ca0d 6c3d c011 9cbd 8511 f8bd ebb9 93bd
000000e0: 17e9 ff3d f7b6 1cbe dccc 78be 6946 a5be
000000f0: 1ed4 733e 1620 f2bd 71f6 c93d ed44 06bf
00000100: c284 e3bd ce50 0dbf e917 55be 0a7c 98be
00000110: 94e0 41bd 9d7d df3c 1752 203e 003b 88be
00000120: c585 02be 59ff 8fbd bedb b6bb 1e1f b3bd
00000130: fa93 2f3e fc79 873c d06e 6fbd 46c1 08be
00000140: 8f1b 70bd ffec 083e 08b1 f53c 57f3 df3d
00000150: 9159 ee3d c579 c5be eff4 2c3d 7d6a b9bd
00000160: 1028 efbe 4dcd b13c 00f1 48be f26d 95bc
00000170: 46d4 2dbd bc46 9f3c 600e 2a3d 8f17 d93c
00000180: f4b4 1c3d 5717 14be ff20 5c3b f3e4 5a3d
00000190: e6e6 2c3f 79a3 8b3c 8344 8ebd 4428 2ebd
000001a0: 0ad3 54bc 6443 8dbc 39f5 4d3e 2f86 5e3e
000001b0: 9b66 28be 8be7 983d 4ab2 aebc 8386 0cbe
000001c0: 8db1 483c 11fb 89be dfe6 0fbe 9f45 973d
000001d0: f066 2d3e d3b7 46be ba73 f9bd a5ad 80be
000001e0: 9600 ac3d 442c f5bc d947 5b3d c909 00bb
000001f0: dce7 293e a4dc db3d 1768 82bd f496 83be
00000200: a4a5 9ebe d4bb 18be 3e3f b6be 17e8 8a3c
00000210: b1f3 f13d fba0 50bd 4d55 363e f263 b53c
00000220: efd3 65bd 07bf 133e 3b58 633c d745 093d
00000230: 57c8 70bd e4e3 49b5 d42a d93e b075 863c
00000240: 3017 2bbd aea0 513d 5d73 aabd e9f5 71be
00000250: 302e 82be b57c 143e 0f40 063e d677 863e
00000260: fa48 b23d 37d1 75be b4bc d4bd 55c6 95be
00000270: 67bc 393e 6139 b73d df3e 80bd fa87 89bd
00000280: 02e5 aebd 596c 8bbe 7a69 de3d e151 56bd
00000290: b5fa e4bd b736 003e dc6c 183d a743 c3be
000002a0: 1e96 28be d877 8fbe 6a77 513e 7f80 c1bc
000002b0: a0ed abbe 39ad fabd 37c9 0bbe ed03 1dbe
000002c0: 46b7 3a3e 2a7e 4dbe c662 233e 6c29 30bd
000002d0: 0718 733d 9270 4fbe c419 903d 7f3e 9bbd
000002e0: 0a11 8a3e cb96 883d f79d 7dbe 6bc2 f3bd
000002f0: e948 02be 7b87 973c 7b8a 9fbd c843 c73b
00000300: 945f 033e d6aa 82be dc61 143d ef60 0abd
00000310: f54c 51bd a9f4 183e 173d c93d 49b0 30bd
00000320: fd1c dd3c 07b0 70be 0c44 113e c795 a03d
00000330: 2798 213e 9e07 0e3e c07a 743d 8942 773c
00000340: 8595 b63d 3bf7 74bd
-0.011807807 -0.036285553 0.03674765 -0.13173768 -0.42809996 -0.019049723 -0.12413344 0.069778726
0.06471404 -0.10536084 -0.019519065 0.09047406 -0.03987371 -0.040392693 0.0062911403 -0.039359014
0.31125087 -0.048489302 0.06806986 0.08132217 -0.193156 -0.023663856 -0.10630473 -0.10737243
-0.22385308 0.3982424 -0.087371446 -0.12523916 -0.31585956 0.16867688 -0.31787634 0.08681957
-0.22812559 0.11640386 0.14089589 0.14256164 0.10296064 -0.025208535 -0.22761422 -0.14691624
-0.23773724 -0.18090342 0.05958266 -0.018196141 0.10328484 0.15144448 0.34747615 -0.003916974
0.046859927 0.15552895 0.07452938 0.24029465 0.057630338 -0.07620573 -0.121127166 -0.072131954
0.1249563 -0.1530417 -0.24296898 -0.3228028 0.23811385 -0.11822526 0.09861458 -0.5244892
-0.11109306 -0.55201423 -0.20809902 -0.29782134 -0.047333315 0.027281577 0.15656315 -0.26607513
-0.12746342 -0.070311256 -0.0055803945 -0.087461695 0.17146292 0.016537659 -0.05845529 -0.13354978
-0.058620032 0.13371657 0.029991642 0.10935085 0.11638177 -0.38569465 0.042225774 -0.09053514
-0.46710253 0.02170434 -0.19623184 -0.018240903 -0.042438768 0.019442908 0.041517615 0.026500491
0.038258508 -0.14462028 0.0033589003 0.053441 0.67539823 0.017045723 -0.06946661 -0.04251887
-0.012989769 -0.017244048 0.20113076 0.21730874 -0.16445391 0.07466038 -0.02132525 -0.13723187
0.012249363 -0.2694936 -0.14052914 0.07386326 0.16933799 -0.19406061 -0.12180276 -0.2513248
0.08398549 -0.029928334 0.053535316 -0.0019537082 0.16592354 0.10735443 -0.0636751 -0.25701106
-0.3098575 -0.149154 -0.35595125 0.016956372 0.118140586 -0.050934773 0.17805977 0.022142384
-0.05611032 0.1442834 0.013876016 0.03351387 -0.05878481 -7.520996e-07 0.42415488 0.01641354
-0.04177016 0.051178627 -0.08322785 -0.23628964 -0.25425863 0.14500697 0.13110374 0.26263303
0.087053254 -0.2400559 -0.10387555 -0.29252878 0.18138276 0.08946491 -0.06261992 -0.067153886
-0.085397735 -0.272311 0.10859962 -0.05232418 -0.11180631 0.12520872 0.03721319 -0.38137552
-0.16463515 -0.2802112 0.20455709 -0.023620842 -0.3357973 -0.12240071 -0.13650976 -0.15333529
0.18233976 -0.20067659 0.15955648 -0.043008253 0.059349086 -0.20257786 0.070361644 -0.075802796
0.26966125 0.066693865 -0.2476729 -0.11902317 -0.12723126 0.01849722 -0.07790085 0.006081078
0.12829429 -0.25520962 0.03622614 -0.03378385 -0.051098783 0.1493708 0.09826105 -0.04313687
0.026991362 -0.23504649 0.14186114 0.07841068 0.15780698 0.13870093 0.059687376 0.015091547
0.08915237 -0.05980609

bias f4 [10]
00000000: 405e 6bbd 2c02 ae3d 99ea 3e3e 84d3 443e
00000010: f387 9fbd bc33 773e 4595 403d 00bb bf3e
00000020: 24b7 4d3e 9bea fd3d
-0.05746293 0.08496508 0.1864418 0.19221312 -0.07789602 0.24140829 0.047017355 0.37447357
0.20089394 0.12398263

weight f4 [10, 10]
00000000: fbf6 63be 731a a5bd 1bd2 81be fdcf 893d
00000010: 45d3 8ebd 2ee5 b7be 7903 b0bd c4ef 15be
00000020: 2b5e 4b3d 316e b2be 153b b93e bdd5 67be
00000030: 8ee4 1abe 273c 823e cc69 323f c06d bebc
00000040: 9cae 1a3f 566f 0d3e f79c 693e 16a9 7b3d
00000050: 6260 8abc 40e7 debd 87d3 063d c62e 6fbe
00000060: 24ae d3be 35d3 8b3c 2fcc 833e fdb1 e53e
00000070: 99ca e93c 278e 4dbe 21c7 b53d 982b 53be
00000080: 6121 79be ac3d 833d e348 8cbb 006d 5bbe
00000090: 1b98 b93e 6149 8ebe f47f 08bb 5f2e b53d
000000a0: 1538 c53e 60c5 383d b4cb acbe 2fab 4f3e
000000b0: 35ad 043e d211 3a3e 84a2 d33e 7f4e 033e
000000c0: 5518 e93c 9720 c03e 1f33 cbbe 245f f5bd
000000d0: 170e b43e d9c3 393d 261b aebe 53a0 a53e
000000e0: 28dd 5fbe a5d7 e33e 6a6e 003e ddaf 1a3d
000000f0: f45b aebe 1cdf 933e c9c3 8c3e 5e6f 3e3d
00000100: 260c 8cbe 8a2a 0f3e dfde 5bbe f888 8a3e
00000110: e439 1a3e c114 d93a ce08 ff3d 7bcf 7b3e
00000120: 9e98 bf3d 4fb3 e7bd 2e35 63bd e0ec 7a3d
00000130: 5b2a 80be e5f7 b03e fd38 57be f00c d63d
00000140: 0521 493d a02a 17be a475 e33b 92d1 e33e
00000150: 5d47 0f3e 4e4c 0cbe 79bc c13e 87c0 0dbe
00000160: f010 d23e 7b7b f63d e09f 033e 517e 223e
00000170: 543e 1fbc 25eb 003e c6ea c93e 5077 c6bb
00000180: 5c9e cf3e 025c e4bd 6dd5 d93e 8a0c b63e
-0.22262184 -0.080616854 -0.2535561 0.06729124 -0.0697389 -0.35917038 -0.08594412 -0.14642245
0.049650352 -0.34849694 0.3617789 -0.22640128 -0.15126249 0.25436518 0.69692683 -0.023245692
0.6042268 0.13812003 0.22813784 0.06144055 -0.016891662 -0.10883951 0.032916572 -0.23357686
-0.41343796 0.017068485 0.25741717 0.44862357 0.028538989 -0.20073758 0.088758714 -0.20622098
-0.2432914 0.06408247 -0.0042811497 -0.21428299 0.3624886 -0.2779036 -0.002082822 0.08846735
0.3851935 0.045110106 -0.33749163 0.20280145 0.12956698 0.1817086 0.41334927 0.12822913
0.028453985 0.37524864 -0.3968744 -0.11981037 0.35167 0.04535279 -0.34005088 0.3234888
-0.21861708 0.4450046 0.1254212 0.037765373 -0.3405453 0.28881156 0.27493122 0.046492927
-0.2735302 0.13981071 -0.21471737 0.27057624 0.15061146 0.0016561971 0.12452851 0.24590866
0.09355281 -0.11313497 -0.055470638 0.061261058 -0.25032315 0.3456413 -0.21017833 0.104516864
0.049103756 -0.14762354 0.006941514 0.44495827 0.13992067 -0.13700983 0.37839106 -0.13842975
0.41028547 0.12035271 0.12853956 0.15868498 -0.00971945 0.125897 0.3943693 -0.0060567036
0.40550506 -0.111503616 0.42545643 0.35556442

bias f4 [10]
00000000: 5a9c 44be 80bb 87be 6fa3 3f3e fa90 6f3e
00000010: d9ef a3bd b2d7 cd3e f3f3 9e3e 9e77 de3d
00000020: d631 44be ce4f abbe
-0.19200268 -0.2651024 0.18714689 0.23395148 -0.08004732 0.40203625 0.31045493 0.10862659
-0.19159636 -0.33459324

weight f4 [1, 10]
00000000: 7bf9 fa3d 341f 97bf 300d 063e 0f61 99be
00000010: 76d7 83be 4043 533e a4a2 8c3e b7f8 933e
00000020: e7c7 6bbe 9f15 79be
0.12254616 -1.1806397 0.13090968 -0.29956862 -0.2575032 0.20631123 0.27467835 0.28900692
-0.23025475 -0.24324654
