twig/TWIG-I/checkpoints/chkpt-ID_4986404997167316_e20.pt (torch, 6372 bytes, 5 tensors)

weight f4 [10, 22]
0	0x3d95cb74	0.07314196
1	0xbd476306	-0.04867842
2	0xbe29f239	-0.16596307
3	0xbce76fa5	-0.028251478
4	0xbe4ce7bf	-0.20010279
5	0x3e9e0dd0	0.30869913
6	0xbe60aede	-0.21941707
7	0xbdccf14d	-0.10006962
8	0xbda1082c	-0.07862887
9	0xbe831d3b	-0.2560824
10	0xbe83c120	-0.2573328
11	0xbe38fc92	-0.18065098
12	0xbe7adf5b	-0.24499266
13	0xbdeff79b	-0.11717149
14	0x3cbec3ff	0.023286818
15	0xbe7b52b5	-0.24543269
16	0xbe2b26cf	-0.16714023
17	0xbecdbc78	-0.40182853
18	0x3c612140	0.013740838
19	0xbce433e0	-0.027856767
20	0xbe0b3a7a	-0.13596526
21	0xbeed0272	-0.46290928
22	0xbe21bb5e	-0.15794131
23	0xbee06049	-0.4382346
24	0xbe07e8fb	-0.13272469
25	0x3e2f0791	0.1709273
26	0x3cfba380	0.030717611
27	0xbf37e194	-0.7182858
28	0x3ca205b2	0.019778106
29	0x3ea3663a	0.3191393
30	0xbd98a400	-0.074531555
31	0x3e5674cf	0.20942996
32	0xbd1918ff	-0.037377354
33	0x3cb7dbb6	0.022443634
34	0x3e8312c3	0.25600252
35	0x3e3a12cf	0.18171237
36	0xbd42370b	-0.047415774
37	0x3e2340c7	0.1594268
38	0xbdd7b48f	-0.10532486
39	0x3e1ea519	0.15492667
40	0xbe191290	-0.14948487
41	0xbe513379	-0.20429792
42	0x3af54e7b	0.0018715406
43	0xbcb7d54c	-0.022440575
44	0x3d84db75	0.064871706
45	0xbe44734b	-0.19184606
46	0x3ec41dd0	0.38303995
47	0xbe1d8b7b	-0.15385239
48	0xbeabcc67	-0.33554384
49	0xbedb1c53	-0.42795047
50	0x3d3c94f1	0.04604048
51	0x3ef8336f	0.4847674
52	0x3db32714	0.08747688
53	0x3e47cd6e	0.19511959
54	0xbeabcd8c	-0.33555257
55	0xbdb226c2	-0.08698799
56	0xbd8536c3	-0.065045856
57	0x3e25e268	0.16199648
58	0x3e034517	0.12819324
59	0xbed4d682	-0.41569906
60	0x3decc718	0.115614116
61	0xbe802996	-0.25031728
62	0xbd77aee7	-0.060469534
63	0xbdc308a7	-0.09523135
64	0xbd377f5d	-0.044799197
65	0xbe80731c	-0.2508782
66	0xbe316da8	-0.17326987
67	0xbf4b54a7	-0.79426044
68	0xbc316ef3	-0.010829675
69	0xbf5d133e	-0.86357486
70	0xbe23eca9	-0.16008247
71	0xbe12451d	-0.14284177
72	0x3d938eae	0.07204948
73	0xbe94ee68	-0.2908814
74	0xbbea64b0	-0.007153116
75	0x3d9b0ace	0.0757042
76	0x3c96f047	0.01842512
77	0x3dd81e8a	0.105527
78	0xbd9c9735	-0.07646028
79	0xbbf6cbac	-0.007531604
80	0x3cf44754	0.029819168
81	0x3cd476cf	0.025935559
82	0xbb2ebb46	-0.0026661917
83	0x3fade772	1.3586257
84	0x3d13e155	0.036103565
85	0xbd863d87	-0.06554704
86	0x3e42a7d5	0.19009335
87	0x3d64c626	0.05585303
88	0xbec10aa7	-0.3770344
89	0xbedf00c7	-0.4355528
90	0xbd5cdfb4	-0.053924277
91	0x3df6a7b1	0.12043703
92	0xbe559fc5	-0.20861728
93	0xbf194d61	-0.59883696
94	0xbd6f1eb4	-0.05837889
95	0xbd4c7a93	-0.049921583
96	0x3cf79e5b	0.030226877
97	0x3d5fe4a4	0.054661408
98	0x3dd77b3a	0.105215505
99	0x3d921732	0.071333304
100	0xbb2b4bd9	-0.0026137738
101	0xbd9d83ab	-0.07691129
102	0x3dd620eb	0.10455497
103	0x3d7460ba	0.05966256
104	0x3baa42c1	0.005195946
105	0x3f5d4144	0.8642771
106	0xbd6bf898	-0.057610124
107	0x3dfc9149	0.123323984
108	0xbc66dba1	-0.01409045
109	0xbe90d5b6	-0.28288049
110	0x3e4dcb92	0.20097187
111	0xbd894d01	-0.067041405
112	0xbee04432	-0.4380203
113	0x3d34c7a7	0.044135716
114	0xbe9349c7	-0.28767225
115	0x3f2a4c3e	0.66522586
116	0x3dbd8791	0.09254373
117	0x3d47cdbb	0.048780184
118	0x3d4e9e88	0.050444156
119	0xbdbd85ea	-0.09254058
120	0xbdbc2971	-0.09187592
121	0xbe1942a8	-0.14966834
122	0xbea5ab67	-0.32357332
123	0x3cb2ff0f	0.021850137
124	0xbba2183e	-0.0049467376
125	0x3e565c2e	0.20933601
126	0xbe09b292	-0.13447025
127	0xbe1e5805	-0.15463264
128	0xbf204e84	-0.62619805
129	0xbdc833ac	-0.09775481
130	0xbe2daf75	-0.16961463
131	0xbef5cb1d	-0.48006526
132	0x3d88d1e4	0.066806585
133	0xbee14314	-0.4399649
134	0x3cd00f3d	0.025397891
135	0x3d68ef32	0.05686874
136	0xbe8d61b9	-0.2761362
137	0x3f152efd	0.58274823
138	0x3d077d82	0.033078678
139	0xbc1a93fc	-0.009434696
140	0xbd77de08	-0.06051448
141	0xbddba517	-0.10724848
142	0x3dc105fd	0.0942497
143	0x3d6c7880	0.057732105
144	0x3d848fb1	0.064727195
145	0x3ddea38e	0.10871039
146	0x3c7aa46c	0.01529799
147	0xbe5ac83b	-0.21365444
148	0x3d1db960	0.038506866
149	0xbea8bd6b	-0.32957014
150	0xbc21d28b	-0.0098768575
151	0x3db95195	0.09048764
152	0x3e4ca173	0.19983463
153	0xbf34d760	-0.70641136
154	0xbeb58fdd	-0.3546132
155	0xbee7d297	-0.45277855
156	0x3e4087b8	0.18801773
157	0x3de32603	0.110912345
158	0xbecfcfe0	-0.40588284
159	0x3ec83de6	0.39109725
160	0xbe93f858	-0.2890041
161	0xbee902bd	-0.45509902
162	0xbdf05e70	-0.117367625
163	0xbe6ca3f5	-0.2310942
164	0xbd61e644	-0.05515124
165	0x3d5a90eb	0.05336086
166	0x3c355557	0.01106771
167	0xbe6493be	-0.22321984
168	0x3ccd8c1d	0.025091225
169	0xbebdbda0	-0.37058735
170	0x3e5b76dc	0.2143206
171	0xbee04935	-0.43805853
172	0xbe21f075	-0.15814383
173	0x3df8c88c	0.12147626
174	0x3e55ac46	0.20866498
175	0xbe993737	-0.29924938
176	0xbd03213d	-0.03201412
177	0xbf195e59	-0.5990959
178	0x3d77b481	0.060474876
179	0xbe409f4d	-0.18810768
180	0xbe0ad541	-0.13557912
181	0xbf350cd8	-0.70722723
182	0x3bcae4eb	0.00619184
183	0xbd03996a	-0.03212873
184	0xbd457f60	-0.048217177
185	0xbd408938	-0.047005862
186	0xbd458a3a	-0.048227526
187	0xbdfb63ba	-0.12274881
188	0x3cd27ff5	0.02569578
189	0x3e1125c3	0.14174561
190	0xbe045d55	-0.12926228
191	0xbd4131cd	-0.047166634
192	0x3e035e8a	0.12829033
193	0x3f1f2fd3	0.6218235
194	0xbe17e693	-0.14834051
195	0xbe630f76	-0.22173867
196	0xbccaf3c5	-0.024774441
197	0xbe854566	-0.2602951
198	0x3c5fc933	0.0136588095
199	0x3f2afda9	0.66793305
200	0xbca03d80	-0.019560575
201	0x3d8346b4	0.0640997
202	0x3ea0b2e0	0.3138647
203	0x3e95ab48	0.2923224
204	0xbc88126e	-0.01661035
205	0x3e332bec	0.17497224
206	0x3e15ad5b	0.14616911
207	0xbdbccf01	-0.0921917
208	0x3e347eb3	0.17626457
209	0xbddd7082	-0.10812475
210	0xbd701497	-0.058613386
211	0xbd6443ab	-0.055728596
212	0xbc0b1f04	-0.008491281
213	0x3da31656	0.079632446
214	0xbe86942b	-0.26284918
215	0xbf911dc7	-1.1337212
216	0xbe476dbc	-0.19475454
217	0x3e8cb10d	0.2747883
218	0x3ccdf217	0.025139851
219	0x3d6cd338	0.05781862

bias f4 [10]
0	0x3e418eaa	0.18902078
1	0x3ee4a223	0.4465495
2	0xbe1e3e0a	-0.15453354
3	0xbe23b496	-0.15986857
4	0xbde21628	-0.11039382
5	0x3cded2f1	0.027200194
6	0x3e890ae6	0.26766127
7	0xbcada685	-0.021197567
8	0xbd5b247b	-0.053501587
9	0x3ecbbaa5	0.39790836

weight f4 [10, 10]
0	0xbe5c33e3	-0.21504168
1	0x3e6a1978	0.22861278
2	0xbc7fbe8b	-0.015609394
3	0x3f108765	0.56456596
4	0x3f32ec76	0.6989206
5	0xbf5d7089	-0.8649984
6	0xbef7f943	-0.4843236
7	0x3d596718	0.053076833
8	0x3f456168	0.77101755
9	0xbf055ce2	-0.5209485
10	0xbd899835	-0.06718484
11	0xbdea2426	-0.11432676
12	0xbd87e247	-0.06634956
13	0xbf02e3d5	-0.51128894
14	0xbf3bd0db	-0.73365563
15	0xbe2f1e5b	-0.17101423
16	0x3e81af86	0.25329226
17	0x3d3728b7	0.044716563
18	0x39ad1f9e	0.00033020688
19	0xbecc09c7	-0.3985121
20	0xbe2b15db	-0.16707556
21	0xbdea4c16	-0.114402935
22	0xbe40e107	-0.18835841
23	0xbe202954	-0.15640765
24	0xbe253053	-0.16131715
25	0xbe164bfe	-0.14677426
26	0x3e409d2d	0.18809958
27	0xbe6f3f12	-0.23363903
28	0x3d019a2b	0.031641167
29	0xbd84258e	-0.064524755
30	0x3ec60da8	0.38682294
31	0xbdbe0938	-0.09279102
32	0xbf437411	-0.7634898
33	0xbecf44a0	-0.40482044
34	0x3e6be5fb	0.2303695
35	0x3d533cef	0.051571783
36	0x3eb34d91	0.35020116
37	0x3efd9733	0.49529418
38	0xbeb5d5e5	-0.3551475
39	0x3eda7d6d	0.42673817
40	0xbe9f7602	-0.3114472
41	0x3e85564e	0.26042408
42	0x3e5def78	0.21673381
43	0x3f0c0ffc	0.5471189
44	0x3ea2abb5	0.31771627
45	0xbdb1433c	-0.08655402
46	0xbea140ed	-0.31494847
47	0x3e432d5f	0.19060276
48	0x3f11072a	0.56651556
49	0xbe32d0b6	-0.1746243
50	0xbe67a9cf	-0.2262337
51	0x3dd85492	0.105630055
52	0x3d1ce915	0.03830822
53	0x3dac96c6	0.08427195
54	0xbe87437e	-0.2641868
55	0x3e3f843d	0.18702789
56	0xbead4b84	-0.33846676
57	0x3e642532	0.22279814
58	0x3dc39e0e	0.09551631
59	0xbd2e4415	-0.042545397
60	0x3dfae0a2	0.122498766
61	0x3ec4a368	0.3840592
62	0x3dbd9ab2	0.092580214
63	0x3f244145	0.64162093
64	0x3f060f6a	0.5236727
65	0xbebbbc46	-0.3666708
66	0xbe5340b7	-0.20630156
67	0xbcddade8	-0.027060464
68	0x3d9b899f	0.075946085
69	0xbddf64fb	-0.10907932
70	0xbe3dd8a9	-0.1853968
71	0x3df95418	0.12174243
72	0x3e32d906	0.174656
73	0x3f3801c4	0.71877694
74	0x3e828d42	0.25498396
75	0xbefe6ec8	-0.49693894
76	0x3e41a3b9	0.18910111
77	0xbe74e454	-0.23915225
78	0x3f059214	0.5217602
79	0xbe2d5989	-0.16928686
80	0xbe1baad7	-0.15201889
81	0x3eca25ae	0.39481872
82	0x3e88b008	0.266968
83	0x3f05d23d	0.52273923
84	0x3f1402c4	0.5781672
85	0xbe55f6dc	-0.2089495
86	0xbca2ee49	-0.019889014
87	0xbeb3de76	-0.35130662
88	0x3f106168	0.5639863
89	0x3cdecfd9	0.027198719
90	0xbe119b0d	-0.14219303
91	0x3dbfb1bd	0.09360073
92	0xbd57837e	-0.052615635
93	0x3f10a2a9	0.564982
94	0x3e12a319	0.1432003
95	0xbb1dd23f	-0.0024081615
96	0x3cb6648c	0.022264741
97	0xbecd03ee	-0.4004206
98	0x3ef7ff2a	0.48436862
99	0x3dd34964	0.103167325

bias f4 [10]
0	0xb9d29428	-0.00040164706
1	0xbeb30303	-0.34963235
2	0xbcb50b1a	-0.02210002
3	0x3e359101	0.17731096
4	0x3de6dbaa	0.11272366
5	0xbe1b758e	-0.15181562
6	0x3b7d1641	0.0038618
7	0x3e2737f1	0.16329934
8	0xbd28fac2	-0.041254766
9	0xbd82d3ab	-0.06388029

weight f4 [1, 10]
0	0xbf194250	-0.5986681
1	0xbe11e3d9	-0.14247073
2	0xbe0fea84	-0.14054304
3	0x3edd6ef3	0.4324871
4	0xbe50f56e	-0.20406124
5	0x3dc1cb49	0.09462602
6	0xbed8e725	-0.4236385
7	0xbed749f7	-0.42048618
8	0xbe6671c7	-0.2250434
9	0xbe84a252	-0.2590509
