twig/TWIG-I/checkpoints/chkpt-ID_8744151394281401_e5.pt (torch, 6362 bytes, 5 tensors)

weight f4 [10, 22]
0	0x3f215a61	0.6302853
1	0x3f585d74	0.845176
2	0x3e64da14	0.22348815
3	0xbd051dea	-0.03249923
4	0x3f44eef8	0.7692714
5	0x3ca60814	0.020267524
6	0x3d2a8f51	0.041640583
7	0x3db56447	0.08857017
8	0xbd895aa9	-0.06706745
9	0xbf55aea8	-0.8346963
10	0xbdaa658a	-0.08320148
11	0xbd395605	-0.04524805
12	0xbd59bee2	-0.053160556
13	0x3bc73d1b	0.0060802824
14	0x3d2121dc	0.03933893
15	0x3d8a3f89	0.067503996
16	0xbdb7f2c8	-0.08981854
17	0xbfceff06	-1.6171577
18	0x3dfa7544	0.12229398
19	0x3d99e2e8	0.07513982
20	0xbe0376c4	-0.12838274
21	0xbd0a7f41	-0.033812765
22	0xbdd339d0	-0.10313761
23	0xbe7cbcfb	-0.24681465
24	0xbd946741	-0.072462566
25	0x3f109efc	0.5649259
26	0x3d7db137	0.061936583
27	0xbd0bcaaa	-0.034128822
28	0xbe0b8f74	-0.13628942
29	0x3e5c42a7	0.21509801
30	0xbe21128c	-0.15729731
31	0x3dc945c7	0.09827762
32	0xbe3ebfa3	-0.18627791
33	0xbe30b587	-0.17256747
34	0x3dbfbf91	0.0936271
35	0x3dc98d74	0.09841433
36	0x3e4235b7	0.18965803
37	0xbd19c2c9	-0.037539277
38	0xbdc35a50	-0.0953871
39	0x3e351f72	0.17687777
40	0x3e32e166	0.17468795
41	0xbe2b1dcc	-0.16710585
42	0x3ec7be7a	0.3901251
43	0xbe91b212	-0.2845617
44	0x3e2f1f84	0.17101866
45	0x3f44f0e6	0.7693008
46	0x3ea91195	0.33021227
47	0xbe470c05	-0.19438179
48	0xbe5e09ab	-0.21683376
49	0x3f290bcf	0.66033643
50	0x3bf4c954	0.0074702892
51	0xbdb0c37d	-0.086310364
52	0x3e0ce44e	0.13758966
53	0xbcae9d49	-0.021315234
54	0xbe8f5791	-0.27996495
55	0xbde5e860	-0.11225963
56	0xbdd57db5	-0.10424367
57	0xbe597f2b	-0.21239917
58	0x3e85f461	0.2616301
59	0xbe3c703c	-0.18402189
60	0x3eedaa87	0.46419165
61	0xbda4b8d5	-0.080430664
62	0xbe14515b	-0.1448416
63	0xbe846719	-0.25859907
64	0xbe1785dd	-0.14797159
65	0xbe87af5b	-0.26500973
66	0xbd99e889	-0.07515056
67	0xbf9ceacd	-1.2259156
68	0xbc06a76b	-0.0082186265
69	0xbec4dfac	-0.38451898
70	0xbe877eef	-0.2646403
71	0xbef2b6f0	-0.47405195
72	0xbaa8a688	-0.0012867013
73	0xbd0f2a3d	-0.03495239
74	0xbd4f0ec4	-0.05055119
75	0x3e18480e	0.14871237
76	0xbd9bcd7a	-0.07607551
77	0x3e3085c9	0.17238535
78	0xbd84e3e2	-0.06488778
79	0xbdf005c6	-0.11719851
80	0xbd266006	-0.04061892
81	0x3d543f41	0.051818136
82	0x3d7d3587	0.061818626
83	0x3fae1018	1.3598661
84	0xbc15a067	-0.009132481
85	0x3dd02e03	0.10165026
86	0x3d6ea07a	0.05825851
87	0x3e4070dd	0.18793054
88	0xbeda0875	-0.42584577
89	0xbf530eec	-0.82444644
90	0x3e242ed8	0.16033494
91	0x3e4f3605	0.2023545
92	0xbf18d71d	-0.59703237
93	0xbe960685	-0.2930185
94	0xbddf14c2	-0.10892631
95	0xbcb93c3f	-0.022611735
96	0x3dcfb8cd	0.1014267
97	0x3f053934	0.5204041
98	0xbd5a3f2a	-0.053282894
99	0x3dafc4ce	0.085824594
100	0xbc9e6c07	-0.01933862
101	0xbcf3591b	-0.029705575
102	0xbc3ab083	-0.011394623
103	0x3db7e9d7	0.08980148
104	0x3d7dcbaf	0.061961826
105	0x3f8c8c10	1.0980244
106	0x3d4dc23c	0.050234064
107	0x3dd84e7c	0.10561845
108	0xbe643ff0	-0.22290015
109	0xbe4b38a8	-0.19845831
110	0xbe2cb52d	-0.16865988
111	0xbc94d268	-0.018166736
112	0xbe3693fb	-0.17829888
113	0x3e1aa5e1	0.1510234
114	0x3dead4be	0.114663586
115	0x3edf3bd2	0.43600327
116	0x3e3b8fac	0.18316525
117	0x3e032b4b	0.12809484
118	0x3df74ec8	0.12075573
119	0xbf4e4d73	-0.8058693
120	0x3e480342	0.19532493
121	0x3d846705	0.06464962
122	0xbd0c8254	-0.034303978
123	0xbe231ba8	-0.15928519
124	0x3d9f917a	0.07791419
125	0x3e7826d8	0.24233568
126	0x3ebaef7e	0.36510843
127	0xbf2480d4	-0.64259076
128	0xbe0cb7a7	-0.13741933
129	0x3e4d74c7	0.20064078
130	0xbe0b992c	-0.13632649
131	0x3d6a7cc7	0.057247903
132	0x3e512b3b	0.20426647
133	0xbc6d2eae	-0.014476461
134	0x3ecfa630	0.40556479
135	0x3e71acd5	0.23601086
136	0x3e59f9d3	0.21286707
137	0x3dbf5a53	0.093434
138	0x3e2482bb	0.16065495
139	0x3d53275a	0.0515512
140	0xbdbd4d4d	-0.092432596
141	0xbe0b338a	-0.1359388
142	0x3d214271	0.039370004
143	0x3cb331e2	0.021874372
144	0x3d456600	0.048192978
145	0xbd6386ee	-0.0555486
146	0x3df160c2	0.11786033
147	0xbd97734d	-0.07395039
148	0x3d387088	0.045029193
149	0xbf4925f4	-0.78573537
150	0x3d931bc9	0.07183034
151	0x3dc3a7be	0.09553479
152	0x3d233dbb	0.039853793
153	0xbd8c5491	-0.06852067
154	0x3eafec12	0.34359795
155	0x3eb1ba06	0.34712237
156	0x3df901b0	0.12158525
157	0x3dc693d9	0.096961685
158	0x3f26a4ba	0.650951
159	0xbcdff363	-0.027337736
160	0xbd1e76fa	-0.038687684
161	0xbda0af9c	-0.07845995
162	0x3d7e93d1	0.062152687
163	0xbf043107	-0.5163731
164	0xbe2760c5	-0.16345508
165	0x3da6d5aa	0.08146222
166	0x3d0c521c	0.034257993
167	0xbdfd2f43	-0.1236253
168	0xbd174d9c	-0.03693925
169	0xbe392a43	-0.18082528
170	0x3e291c14	0.16514617
171	0xbfb49f29	-1.4111072
172	0xbd1e6d3e	-0.0386784
173	0x3c38fa46	0.011290139
174	0xbca7cf08	-0.020484462
175	0xbe79fd11	-0.24412943
176	0xbdce094f	-0.10060369
177	0xbf2d7da4	-0.6776984
178	0x3eae6a94	0.34065688
179	0xbeb644a1	-0.35599235
180	0xbe987d1b	-0.29782948
181	0xbee4cad9	-0.4468601
182	0x3c7aa032	0.015296983
183	0xbdcb8fa1	-0.099395044
184	0x3d6f9d3b	0.058499556
185	0x3b928ce6	0.004472363
186	0xbd9a2625	-0.07526807
187	0x3e35e8cf	0.1776459
188	0x3d943a23	0.07237651
189	0x3e15d954	0.14633685
190	0xbcb08647	-0.021548403
191	0xbcf1e10c	-0.029526256
192	0x3e20fdfd	0.15721889
193	0x3f3e8973	0.7442848
194	0x3c39c542	0.011338534
195	0x3e51c4f8	0.20485294
196	0x3a9fd1cc	0.0012193262
197	0x3d58fa74	0.052973226
198	0x3eca1040	0.39465523
199	0x3f36ddf7	0.7143244
200	0xbd2e5094	-0.042557314
201	0xbdea15f6	-0.1142997
202	0x3f46bfd7	0.77636474
203	0x3c0e89df	0.008699863
204	0x3d03ed11	0.032208506
205	0x3c64d39a	0.013966465
206	0xbdae7bc5	-0.08519701
207	0xbf5559dd	-0.83340245
208	0xbc010755	-0.007875283
209	0x3e38324c	0.17987937
210	0xbda189da	-0.07887621
211	0x3bd420b9	0.0064736274
212	0x3e3a945a	0.18220654
213	0x3d97be5c	0.07409355
214	0xbe46ac3f	-0.19401644
215	0xbfbb9243	-1.465401
216	0x3d8f4b26	0.06996755
217	0x3deaf557	0.11472576
218	0xbdb67f94	-0.08911052
219	0x3b576071	0.003286388

bias f4 [10]
0	0x3d375a98	0.04476413
1	0xbd6cad70	-0.05778259
2	0xbe9e7e56	-0.30955762
3	0x3dda6361	0.10663486
4	0x3e3bb395	0.18330224
5	0xbeac930e	-0.33705944
6	0xbe37c0b6	-0.17944607
7	0x3ea8a61d	0.32939234
8	0x3dee437a	0.11633964
9	0x3e82c74b	0.25542673

weight f4 [10, 10]
0	0xbf62d53e	-0.8860663
1	0x3e6427b3	0.22280769
2	0xbe8df886	-0.2772867
3	0x3f215371	0.63017946
4	0x3f5e7489	0.8689657
5	0xbeb0b0f3	-0.34510002
6	0xbea8a4a2	-0.32938105
7	0xbd876a2d	-0.06612048
8	0x3def929b	0.11697885
9	0xbf211822	-0.6292745
10	0xbcce5fe1	-0.025192203
11	0xbe53654a	-0.20644107
12	0xbc1f69ed	-0.0097298445
13	0xbec49179	-0.38392237
14	0xbe8064b3	-0.25076827
15	0xbe7b04be	-0.24513528
16	0x3dd5b5ab	0.10435041
17	0x3e2cca8e	0.16874143
18	0xbe5313e5	-0.20613058
19	0xbea47089	-0.32117108
20	0xbe1a1d1b	-0.15050165
21	0xbde11f1b	-0.10992261
22	0xbe3ca6aa	-0.18422952
23	0xbe10e1a1	-0.1414857
24	0xbe826142	-0.25464827
25	0xbdd0056c	-0.10157284
26	0x3e2cc6c4	0.16872698
27	0xbdaa99a7	-0.08330088
28	0xbe35de37	-0.1776055
29	0xbd5500de	-0.05200278
30	0x3f5b3967	0.85634464
31	0x3d6827f5	0.05667873
32	0xbedd6dd8	-0.43247867
33	0xbee6e38d	-0.45095482
34	0xbef97d14	-0.4872824
35	0x3e465d3f	0.19371508
36	0x3e94267e	0.28935617
37	0x3f19d267	0.60086673
38	0xbec1ebca	-0.37875205
39	0x3f263cdf	0.6493663
40	0xbf197655	-0.59946185
41	0x3d0f373b	0.03496478
42	0xbdf1a590	-0.11799157
43	0x3f1c9ef0	0.6118002
44	0x3eb31845	0.34979454
45	0xbe53e940	-0.20694447
46	0x3cdb6ca5	0.026785204
47	0x3e2783c5	0.1635886
48	0x3ed50389	0.4160426
49	0xbec2017d	-0.3789176
50	0xbe983d5a	-0.29734308
51	0x3dc33c7e	0.09533022
52	0x3e6e5153	0.2327321
53	0x3d12847d	0.035770882
54	0xbe780cd1	-0.24223639
55	0x3d8c70eb	0.06857475
56	0xbe7979eb	-0.24362914
57	0x3e5b820b	0.21436326
58	0x3e00212d	0.12512656
59	0xbeaa6912	-0.33283287
60	0x3f5d3529	0.8640924
61	0x3e8c2e38	0.27379012
62	0xbe0b729f	-0.13617943
63	0xbf3d0d17	-0.738481
64	0xbef8a330	-0.48562002
65	0xbeac02a9	-0.3359578
66	0xbe228b0d	-0.15873356
67	0x3f3a1f68	0.7270417
68	0xbe0c0022	-0.13671926
69	0x3f1d441b	0.61432046
70	0xbf0def85	-0.554436
71	0xbbe61b3c	-0.0070222896
72	0xbe009d84	-0.12560087
73	0x3f135012	0.5754405
74	0x3ea0b8dd	0.3139104
75	0xbee099fe	-0.43867487
76	0x3ddaf417	0.10691088
77	0xbe57b549	-0.21065249
78	0x3ec9fb7b	0.39449677
79	0xbedb1903	-0.4279252
80	0xbf090f19	-0.5353866
81	0x3eeec456	0.46634167
82	0xbd3eb87e	-0.046562664
83	0x3ebb9e11	0.36644033
84	0x3f23172c	0.6370723
85	0xbe0b1adc	-0.13584465
86	0x3db92bb2	0.09041537
87	0xbe002b6b	-0.12516563
88	0x3edb8619	0.42875746
89	0xbe2bcf2b	-0.16778247
90	0xbe43d5be	-0.19124505
91	0xbdf4f812	-0.11961378
92	0xbe8da28b	-0.27663073
93	0x3e9e59d1	0.309279
94	0xbe88e9f3	-0.2674099
95	0xbd45b5aa	-0.04826895
96	0xbd2a4d07	-0.041577365
97	0xbe1bfbc3	-0.15232758
98	0xbed3a328	-0.41335416
99	0x3ccfd056	0.025367897

bias f4 [10]
0	0x3e9769a0	0.29572773
1	0xbee142f3	-0.4399639
2	0xbc1fe77d	-0.009759781
3	0x3e2744e4	0.16334873
4	0x3cb6438f	0.022249011
5	0xbdc6364c	-0.09678325
6	0x3e6a1a2a	0.22861543
7	0x3eb299ec	0.34883058
8	0x3db3c99d	0.08778689
9	0xbe655ffd	-0.22399898

weight f4 [1, 10]
0	0xbf416c13	-0.75555533
1	0xbcf07c73	-0.029356217
2	0xbdff9ec6	-0.124814555
3	0x3f363a3e	0.7118262
4	0xbe95a847	-0.29229948
5	0x3d95a61b	0.07307073
6	0x3f01b8f4	0.5067284
7	0xbeb6e864	-0.35724175
8	0xbe781e37	-0.24230276
9	0xbe5a5b94	-0.21323997
