twig/TWIG-I/checkpoints/chkpt-ID_6736045572418162_e15.pt (torch, 6308 bytes, 5 tensors)

weight f4 [10, 21]
000000 79 35 b7 be 7f 61 43 bf 9f 9a d4 3e a8 70 2a be
       -0.35782984 -0.7632064 0.41524217 -0.16644537
000010 87 cd 88 bd 13 1e 9c bd f1 15 45 3e b5 19 1e bc
       -0.06679826 -0.07622924 0.19246651 -0.009649684
000020 33 32 81 3f 0f 08 69 be f8 7b 49 be 81 21 2c bb
       1.0093445 -0.2275698 -0.19676197 -0.0026265087
000030 31 a7 97 be 59 83 ac 3b 61 ee ae 3d 8b d1 2c 3d
       -0.29619744 0.0052646813 0.08541561 0.042192023
000040 49 c8 28 3f 6f ce cf be 1b 0d cc 3e d1 38 ae be
       0.6593061 -0.40587184 0.3985375 -0.34027722
000050 f5 28 03 3f 02 b2 43 bd 71 59 9a 3e cb 02 c7 bc
       0.5123437 -0.047777183 0.30146363 -0.024293324
000060 fa cb 2f bc ea 92 a0 3d 6c f8 93 be d5 cd 46 be
       -0.010729784 0.07840522 -0.28900468 -0.19414456
000070 7c b4 39 bd 17 b1 89 be 52 b8 ef be 63 a1 31 3f
       -0.04533814 -0.2689292 -0.46820313 0.6938688
000080 67 2a cc bd 19 b6 ea 3e 8c 2b 3f bb b9 90 a0 be
       -0.09969025 0.45842054 -0.0029170243 -0.31360415
000090 bb 55 25 bd ef 69 e7 be 3a d4 b0 3e a7 57 45 bf
       -0.040364962 -0.45198008 0.34536916 -0.7708687
0000a0 8b 94 0b 3d d4 38 94 bf 32 0d e8 3d f0 c0 4b 3f
       0.03407721 -1.1579843 0.11330642 0.79591274
0000b0 5a e2 3f 3d 62 67 28 bd b6 dc 0c bd 7e 74 2a bd
       0.046846725 -0.04111422 -0.034390174 -0.041615
0000c0 af 6d 12 3d 08 96 0d bd d5 c4 b1 bc 40 75 04 3f
       0.035749134 -0.03456691 -0.021700302 0.5174141
0000d0 c8 78 91 bf 64 79 01 3f a2 9f 90 bf d7 59 bf bc
       -1.1364985 0.5057585 -1.1298716 -0.023358269
0000e0 7d b3 37 3b 6d ff c8 bd 5b 0a 47 bf 8b 26 3c bf
       0.0028030567 -0.098143436 -0.77750176 -0.7349631
0000f0 c2 b7 86 3f eb a8 d4 be bb 56 6e 3f 54 ca c6 be
       1.0524828 -0.41535124 0.9310109 -0.3882624
000100 91 f8 56 be ab 66 30 3e ae 07 0c bf 32 8b b9 be
       -0.20993258 0.17226665 -0.5469922 -0.3623901
000110 c0 d1 9e bd 67 0a 17 be 5b 89 97 3d af 94 36 bc
       -0.077548504 -0.14750062 0.07399245 -0.011143847
000120 bd 0a 82 3d d2 fb 05 be 40 ed 1a 3e c3 86 82 be
       0.063497044 -0.13084343 0.15129566 -0.2549344
000130 df 48 da 3d d9 95 53 bc 7d 5b 3b be 70 8c fd bd
       0.1065843 -0.012914144 -0.18296619 -0.12380302
000140 81 4b 22 3d 2a 1f 68 3e d1 0d 49 3e b9 d6 64 3d
       0.039622787 0.22668138 0.19634177 0.055868838
000150 a1 de 52 3d 8c 7d c8 be 63 6a 38 3f 7f d4 fa bc
       0.051481847 -0.39158285 0.72037333 -0.030618904
000160 91 77 4e bf 2d 4e 2f be a5 66 34 3e 61 74 8b bd
       -0.80651194 -0.17119665 0.17617281 -0.06809307
000170 fe 0f ec bd aa 7b 6d 3e 9e f3 2f bf 62 a0 1b 3e
       -0.11526488 0.23191705 -0.68731105 0.151979
000180 28 29 65 3e 68 b3 05 3e 4f 14 34 be e7 aa c0 3d
       0.22378981 0.1305672 -0.17585872 0.09407597
000190 ec aa 93 3e 0d 90 69 3d fe 30 18 3e 9c d1 9a bd
       0.2884134 0.057022143 0.14862439 -0.07559511
0001a0 12 18 35 3f e5 04 05 3d 85 d1 21 bf 83 cb 9b 3e
       0.70739853 0.03247537 -0.63210326 0.30428705
0001b0 06 76 1b bd 8b 9e e7 be 06 88 90 be bb f9 25 3d
       -0.037954353 -0.45238146 -0.28228778 0.040521365
0001c0 18 c0 e5 bd 6e 82 f5 3e 8b 26 8e be d9 2e d2 3e
       -0.112182796 0.47951072 -0.2776378 0.41051367
0001d0 28 2f dd 3d 3a 41 5a bd 7b 9f 8f bd eb 87 2e be
       0.1080001 -0.05328486 -0.0701284 -0.17044036
0001e0 78 8f 5b 3e 72 56 33 3e fc 0f 06 be 82 f1 e8 3e
       0.21441448 0.17513445 -0.13092035 0.45496756
0001f0 3f 3e 1f bd af 7b 1a 3f fc c1 13 bf 69 cf a7 bf
       -0.038877722 0.60344976 -0.5771787 -1.3110172
000200 8d c9 17 be 9d 6f b9 be de f9 f2 be 34 9d 5d 3c
       -0.1482298 -0.36217967 -0.4745626 0.01352625
000210 43 08 12 be 92 21 09 bd 5b 21 cc 3e 6d d5 d7 3d
       -0.14260964 -0.03347928 0.39869198 0.105387546
000220 f1 f1 7f be 13 1c a8 3d 40 36 f9 bd 40 59 9d bd
       -0.24994637 0.0820848 -0.121685505 -0.07683039
000230 4f d6 00 bc 31 2e 33 be ca b2 be 3f ae 4d be 3a
       -0.007863595 -0.1749809 1.4898312 0.0014519
000240 54 c5 b8 bd a6 01 64 bd e4 77 d6 bd a1 a9 b6 bd
       -0.09022012 -0.055665635 -0.10472086 -0.08919073
000250 3c 03 9f 3d 04 bd a0 3e c0 35 f6 3d 61 c9 b5 be
       0.07764289 0.31394207 0.12021971 -0.35505202
000260 3a be 20 3b 9f 0d 95 bd b3 df 08 3e e2 7d 80 be
       0.0024527446 -0.07277989 0.13366584 -0.2509604
000270 77 e2 28 be 2f da c5 3e 1f cf 95 be 9f 14 8d 3f
       -0.1649264 0.38643023 -0.29259583 1.1021918
000280 ee 09 30 bd 58 ef 40 bb 34 0d b1 bd 40 c3 b9 3e
       -0.04297822 -0.0029439535 -0.086450964 0.36281776
000290 d5 bb ba 3e 9a b4 86 be 72 1a bf 3e 86 4e f9 be
       0.3647143 -0.26309663 0.37324864 -0.4869272
0002a0 fd 25 ed be 1c 75 99 bf 7c 13 d7 3e 64 09 fa bd
       -0.46318045 -1.1988864 0.42007053 -0.12208822
0002b0 5a 02 d3 be 0f 15 02 bd 65 fc 8a 3d 52 86 46 bd
       -0.41212732 -0.031758364 0.06786422 -0.04846794
0002c0 52 0c 8c 3e 71 51 69 3d 95 3d 29 be 54 73 8d 3d
       0.2735315 0.056962434 -0.16527398 0.06906763
0002d0 40 ea 59 be 12 f0 a6 3b ad 94 cc bd 4e 7e bf 3b
       -0.21280766 0.0050945366 -0.09989295 0.005843914
0002e0 d3 7e 92 3f 46 38 e9 bd 37 72 55 3d e4 f5 1c be
       1.1444954 -0.113876864 0.052110877 -0.15328175
0002f0 c4 19 fe bd e7 c2 3a be da bb 62 bf b7 00 c0 3d
       -0.12407258 -0.18238412 -0.8856789 0.09375136
000300 09 a2 13 be 84 76 bd be c8 69 e5 bc 2f 63 dd be
       -0.1441728 -0.37004483 -0.028004542 -0.43239734
000310 f9 22 fd ba 9d 47 62 3d 60 9a 89 3e 06 58 64 bd
       -0.0019312791 0.055244077 0.2687559 -0.05574801
000320 a5 d5 8e 3e 6a d8 85 3e 5c 5b 87 bd 8d c5 d9 3d
       0.27897373 0.26141673 -0.06609222 0.10633383
000330 37 da 17 be 71 d2 b8 3f 59 b0 ff 3c db fe 20 3e
       -0.14829336 1.4439222 0.031212019 0.1572222
000340 1a 73 22 3d d0 16 61 3e
       0.03966055 0.21981359

bias f4 [10]
000000 87 c5 ac be c5 29 f1 bd e8 c4 f2 3d e9 25 8b be
       -0.3374445 -0.11775545 0.11853963 -0.2717736
000010 80 cb 0f bf e3 1e 5e bd f4 fa c4 bd 33 af a0 3e
       -0.5616989 -0.054228675 -0.09618178 0.31383666
000020 d6 e6 10 be e5 ba 86 be
       -0.14150557 -0.26314464

weight f4 [10, 10]
000000 5a ad 4e be 23 79 a9 bd 93 1a 65 be 22 78 eb 3c
       -0.20183316 -0.08275058 -0.22373419 0.028743807
000010 cc 60 74 bd 12 60 b4 be 10 f7 96 bd c4 ef 15 be
       -0.059662625 -0.35229546 -0.07371342 -0.14642245
000020 41 73 39 3d dc 52 b3 be d5 14 ac be 2f 6f 34 bf
       0.04527593 -0.35024154 -0.33609644 -0.7048215
000030 45 59 2a bf 9e e8 bc 3d 9f 83 73 bd 81 4f eb 3b
       -0.66542464 0.09224056 -0.059451696 0.0071811085
000040 bc 4d 9d 3f a3 5b d8 3e a9 6b a9 3e 31 9e 7f 3e
       1.2289348 0.42257413 0.3308995 0.24962689
000050 15 d9 d2 be a8 f6 81 3e dc da 55 40 5b 6c d7 bd
       -0.41181245 0.25383496 3.341483 -0.10518714
000060 e0 29 c4 be 4c 34 c2 be 3d 11 bc bf 53 1e b7 3e
       -0.38313198 -0.37930524 -1.4692761 0.35765323
000070 73 eb 38 bf 2e dd 2a bf 85 c6 05 3f 0b 0d c9 be
       -0.72234267 -0.66743743 0.5225604 -0.39267763
000080 87 41 6d bf dd 49 86 be d7 37 8c be 5c 07 83 be
       -0.9267811 -0.26228228 -0.27386352 -0.25591552
000090 2c 5c 76 bd 0a 34 2f bf f3 a3 67 bd 49 1d b8 bd
       -0.060146496 -0.6843878 -0.05655284 -0.08989961
0000a0 ab bb 87 3e 2d 1c 27 be 34 98 87 bf 4e 57 27 3d
       0.26510367 -0.16319342 -1.0593324 0.040854745
0000b0 c7 e7 64 bd 91 0a 1b 3f 33 de 84 3f 3d 3e 97 3e
       -0.055885103 0.60563 1.038031 0.29539672
0000c0 2c e6 b0 3e 43 6c 0b 3f ec 2a 6a be 83 46 94 bd
       0.34550607 0.5446207 -0.22867936 -0.072400115
0000d0 b5 b8 c0 3f a4 eb 38 be 4f f4 8a be 9c 07 a2 bd
       1.5056368 -0.1805864 -0.27139518 -0.079116076
0000e0 90 4c ec bf 97 a3 3d 3f 5f 89 d7 bf 43 75 10 bf
       -1.8460865 0.74077743 -1.6838797 -0.5642893
0000f0 03 81 04 bf eb 70 f6 3e 22 65 96 3f 12 50 27 3e
       -0.51759356 0.48133025 1.1749613 0.16339138
000100 b9 87 86 be 21 74 40 be 1e 8f 81 bf 66 72 ff 3e
       -0.26275423 -0.187943 -1.0121801 0.49891967
000110 c2 ee e7 be d8 bf 46 bf 2a f7 c0 3d b9 a8 66 3e
       -0.45299345 -0.7763648 0.09422143 0.225253
000120 b9 14 00 be 5a 28 23 be 8f 84 2c bd 50 41 1e be
       -0.12507905 -0.15933362 -0.042118605 -0.15454602
000130 b3 30 ea bd ad 74 4a 3e 9d 8b 91 be 7f f7 47 3d
       -0.1143507 0.19771071 -0.2842683 0.048820015
000140 69 be 36 be 1f 4c a5 be fb e6 be be 66 f2 f9 3e
       -0.17846073 -0.32284638 -0.372856 0.48817748
000150 b2 5d 1c be 45 57 56 be a5 25 18 3f 02 73 ce 3e
       -0.15270117 -0.20931728 0.5943244 0.4032212
000160 20 8d 81 3e 56 c4 5c 3e 17 e3 85 3d e1 8d a2 bd
       0.25302982 0.21559271 0.065374546 -0.079372175
000170 67 1a 2a bf 24 a6 8f 3d 88 94 29 3e eb 0a 43 3f
       -0.66446537 0.07014111 0.16560566 0.76188534
000180 38 4e 56 3f 32 a7 94 3e e1 37 a9 3e c3 a4 de 3e
       0.837131 0.2903381 0.33050445 0.43485078

bias f4 [10]
000000 85 aa 83 be f2 9d 36 bf 2c cb d7 3e 8e d3 8a bd
       -0.25716034 -0.71334755 0.42147195 -0.06778632
000010 cd 99 b5 be 3a 1a 5c 3f 4f 2d a7 3e ff 78 1b be
       -0.35468903 0.8597752 0.32651755 -0.15182875
000020 77 6c ca be 5b 6e 65 be
       -0.39535877 -0.22405379

weight f4 [1, 10]
000000 5e 6a 06 3e d7 08 cf be c0 03 4a 3f c5 96 48 be
       0.13126513 -0.40436432 0.7891197 -0.19588764
000010 97 38 66 be 60 80 07 3f 5c e5 38 3f ea f6 a4 3c
       -0.22482525 0.5293026 0.72224975 0.020137269
000020 15 01 1d bd 1e 19 ec bd
       -0.03833111 -0.11528228
