twig/TWIG-I/checkpoints/chkpt-ID_2324076475146788_e15.pt (torch, 6372 bytes, 5 tensors)

weight f4 [10, 22]
000000 af 97 22 3f 33 23 80 3f 6d be 9c 3d 16 8e 2b be
       0.635127 1.0010742 0.07653508 -0.1675342
000010 f6 e6 af 3f bd 4a 90 3d 08 bc d8 bc 29 fc 02 3e
       1.3742359 0.07045505 -0.026456848 0.12791504
000020 2a fb 7d bd ba aa 4e bf 00 c2 8c 3d 95 48 93 3b
       -0.062007107 -0.8072926 0.0687294 0.0044947364
000030 26 43 00 3d 14 79 4e 3d 01 47 07 3d cb 63 a8 3d
       0.031314038 0.050408438 0.0330267 0.08222159
000040 f3 1b 66 be 13 20 10 c0 b2 bf 1f 3d 59 0a 00 bd
       -0.224716 -2.2519577 0.039001174 -0.03125987
000050 11 40 80 be 57 73 73 be 33 c7 05 be b5 0e d0 3d
       -0.2504888 -0.23774467 -0.1306427 0.10159055
000060 c0 af ca bd ef 90 96 bd 5a c6 b7 3d 2b 03 11 bd
       -0.09896803 -0.07351863 0.089733794 -0.03540341
000070 4f 40 96 3e 83 5e e9 3d 69 37 e5 3e e9 cf 6d 3e
       0.2934594 0.1139498 0.44768837 0.23223843
000080 b6 b7 46 3d 42 58 86 bd d8 bc 66 3e 72 37 4d 3e
       0.048515044 -0.065598026 0.22532976 0.20040682
000090 00 b9 c6 3e f8 e1 c3 bd 2b 0f 08 be 29 23 01 3e
       0.3881302 -0.095645845 -0.13287036 0.12611069
0000a0 e9 ce 7a 3d e5 3b 6e be 9f 09 9b 3e 79 e6 7a be
       0.06123248 -0.23265035 0.30280778 -0.24501981
0000b0 a4 b1 a1 3d 57 d8 7f 3f a0 6c 47 3d 07 09 ab be
       0.078952104 0.99939483 0.048687577 -0.33405325
0000c0 9d cf 57 bf 3a 53 96 3f ea 4a d3 bc f9 8c b8 bc
       -0.8430117 1.1744149 -0.025792558 -0.022528159
0000d0 f2 4c 9b be 70 3d 74 bd 4e fa 73 3e b1 22 b3 be
       -0.30332142 -0.059628904 0.23825952 -0.34987405
0000e0 fa eb 44 be 2a a3 69 be 0c 27 46 3e ec 34 6a be
       -0.19230643 -0.22816148 0.19350833 -0.2287175
0000f0 37 ac 98 be 1d 67 bf 3d 0f fb 46 3e 7a 64 a9 be
       -0.2981889 0.09345839 0.19431709 -0.3308447
000100 af 79 18 3d 1c 33 0e bf 0e ae 95 be 59 69 db bf
       0.03722542 -0.55546737 -0.29234356 -1.7141525
000110 f3 c4 e5 3d 1f 54 96 be 72 01 98 be c2 33 32 bf
       0.11219206 -0.29361054 -0.29688603 -0.69610226
000120 95 53 95 3c be 06 17 3c 3b ed 24 bd 0d 16 6c 3e
       0.018228332 0.009217916 -0.040265303 0.23055287
000130 35 23 ba bc 0d 32 d0 3c f1 a7 a8 3b 59 57 20 be
       -0.022721866 0.025414491 0.0051469733 -0.1565832
000140 03 a2 5d bd 62 95 c5 3d d3 b7 6b 3e 47 be e5 3f
       -0.054109585 0.09647633 0.23019342 1.7948693
000150 c1 2e 38 3d e4 d5 f5 3c 66 6e 47 bd 1d 4e 97 3e
       0.044966463 0.030009218 -0.04868927 0.29551783
000160 06 a1 0a bf 41 c7 8e bf 66 6f 43 3d 03 c8 24 3e
       -0.5415195 -1.1154557 0.04771366 0.16091923
000170 52 04 34 bf 51 8f 0a bf 74 8e 8e bc ab 01 87 3d
       -0.7031909 -0.54124933 -0.017401911 0.06592115
000180 3c fa 40 3d 1e ae f5 3e 89 d1 12 3d fd cb 0a 3e
       0.047113642 0.47984403 0.03584436 0.13554378
000190 01 4e 29 3a d5 4b a9 3d 46 2d 86 bd b2 54 02 be
       0.0006458462 0.08266417 -0.06551604 -0.12727621
0001a0 fc 11 3a bc 43 1a c9 3f 93 55 54 3e 6e 08 fb 3d
       -0.011356827 1.571114 0.20735769 0.12257467
0001b0 6b 39 d2 bd b6 2f aa be 26 c7 55 3e c1 a4 16 3f
       -0.10264858 -0.33239526 0.2087675 0.58845145
0001c0 21 ae 91 be 42 28 1a 3f 59 a9 0b 3f c5 a2 e9 3c
       -0.28453162 0.6021768 0.5455528 0.028519997
0001d0 2c 5f e1 bc 45 d0 3a 3e cd 66 ac bc d6 fc 8b bf
       -0.027511202 0.18243511 -0.021045113 -1.0936534
0001e0 cc b3 31 be 0a 7e 36 3d 45 b0 0d be 08 0b 7b be
       -0.17353743 0.044553794 -0.13836773 -0.24515927
0001f0 cd 05 aa 3d 2e ef 11 3e e2 99 99 3e 95 cd 71 bf
       0.08301888 0.14251396 0.30000216 -0.9445432
000200 67 15 39 be a1 5f 3a 3e 02 98 88 bd 4e c4 72 3d
       -0.1807457 0.18200542 -0.06669618 0.059269242
000210 b1 dd 91 3e 5c ab 36 3e 2a d4 cc 3e d7 87 51 be
       0.2848945 0.17838806 0.40005618 -0.20461975
000220 72 a2 72 3f 40 38 03 3e 46 8b 5b bd c1 67 1e 3e
       0.9477912 0.12814426 -0.05359962 0.15469266
000230 c7 13 6a be 55 ec 82 bf e0 5c 34 3d 31 86 6a be
       -0.22859107 -1.0228373 0.044033885 -0.22902752
000240 a0 16 48 3d d3 28 01 3e 7a 46 24 be c7 83 68 bd
       0.048849702 0.1261323 -0.1604251 -0.056766298
000250 c6 60 11 3e df 0d ef bf a3 86 84 bd 40 d9 aa 3c
       0.14197072 -1.8676108 -0.064709924 0.020855546
000260 36 b5 11 bd 15 a5 92 be fd 3a e4 3e c7 6e e6 3e
       -0.035573207 -0.28641573 0.44576254 0.4500639
000270 fc 78 4f 3e 61 f6 b3 bd 8b a8 93 3f ab d3 9b 3c
       0.20260996 -0.087872274 1.153581 0.01902183
000280 21 11 21 bd f1 7d e8 bd 4a a5 3e 3e 7b 3f 99 bd
       -0.039322976 -0.113521464 0.1861774 -0.07482811
000290 c8 0d a6 be b2 8f ea 3d 23 51 98 bd ea b0 2f be
       -0.3243239 0.11453189 -0.074373506 -0.17157331
0002a0 e6 02 2a be 39 1d 5c bd 79 d1 de 3e 08 58 e0 bf
       -0.16602668 -0.053738806 0.4351919 -1.7526865
0002b0 51 0d a1 bc 65 d1 5a be ad 14 96 3d e2 ef 10 bf
       -0.01965967 -0.2136894 0.07328162 -0.5661603
0002c0 cb 98 60 be 8d b5 86 bf 37 a2 45 3f ad a4 96 bc
       -0.21933286 -1.0524155 0.77200645 -0.01838907
0002d0 d9 75 03 bf df 1d 23 bf a3 e5 d9 3d 72 a0 a1 3c
       -0.51351696 -0.63717455 0.10639503 0.019729827
0002e0 df 00 e9 3d 87 02 a5 3e 65 0f 36 bd f6 43 59 bd
       0.11377119 0.3222849 -0.044448275 -0.05304333
0002f0 57 81 67 bc a1 e9 46 3e a3 34 e0 3d 16 c2 09 3e
       -0.014129958 0.1942506 0.1094754 0.13452944
000300 89 e1 c6 3e 00 cd bf 3f 54 02 00 3c ee 50 19 be
       0.38843945 1.4984436 0.007813055 -0.14972278
000310 c6 9f 9c be ae ed 91 3e 14 f4 32 3f 90 45 a2 3f
       -0.30590647 0.28501648 0.69903684 1.2677479
000320 27 d7 0a be af 1b 91 3d 2a 18 9a 3f 65 7b 2e 3d
       -0.13558637 0.07085358 1.2038624 0.042598147
000330 02 95 2a 3d a3 24 57 3d 2f f0 95 bb eb 2f 96 bf
       0.04164601 0.052525174 -0.0045757513 -1.1733373
000340 cd cd fa 3c 3f fe b1 3d 28 e0 1c 3c 33 1c 79 bc
       0.030615712 0.08691072 0.009574927 -0.015204477
000350 94 76 a8 3c 9e fa 35 bc 9c da b1 3d ed f0 23 c0
       0.020564355 -0.011107115 0.086842746 -2.56158
000360 8c b5 9b 3d c8 43 c6 3c c1 6c e9 3c 75 78 97 3d
       0.07602987 0.024202242 0.02849424 0.07396022

bias f4 [10]
000000 7f 53 f5 3d 8e cb 61 bf 60 f0 7b bf 99 89 61 3e
       0.11978816 -0.88201225 -0.9841366 0.22025146
000010 85 f2 7d 3e 93 24 fc be de 86 20 be 2d 2a ab 3d
       0.24799545 -0.49246654 -0.15676448 0.08357654
000020 2e bf 6a 3e fa cf a1 3e
       0.22924492 0.31603986

weight f4 [10, 10]
000000 97 9b 30 bf 5e 05 9f be d9 97 03 bf c9 ee 2a 3f
       -0.6898741 -0.31058782 -0.51403576 0.6677061
000010 39 5e 16 3f 6e eb bc be ae 77 5c be 5b 3a 44 be
       0.5873752 -0.3689837 -0.21530029 -0.19162886
000020 8c 75 62 be ea 7a be bf 38 ba d8 bd b7 cd 4c 3e
       -0.22115153 -1.488126 -0.105823934 0.20000349
000030 b6 40 4f bd c9 41 09 be be 6c ad be ce b4 d6 be
       -0.050598823 -0.13404001 -0.33872026 -0.41934818
000040 c5 5f 98 3e 66 f3 28 bd 6b 1d c9 bc 5a cc ae be
       0.29760566 -0.041247748 -0.02455016 -0.34140283
000050 69 d4 5f bd e6 d3 29 3e 9b e1 97 bd 40 e0 0c bf
       -0.05464593 0.16584739 -0.07416078 -0.5502968
000060 53 5a 35 3e 1f b0 b1 be 80 19 07 3d 95 69 73 3e
       0.17710237 -0.34704682 0.032983303 0.23770745
000070 1e 26 11 bf 04 80 d5 be 33 5f ac 3f 8f 20 4c be
       -0.5669879 -0.4169923 1.3466552 -0.19934295
000080 da 29 45 bf 0a 16 3e bf b1 63 cf be 0d 5b 2a 3d
       -0.77016985 -0.7425238 -0.40505746 0.04159074
000090 9a c9 91 3e 6f 64 e9 3e 2c 2f 2d bf b5 16 c8 3f
       0.28474122 0.45584437 -0.67650104 1.563193
0000a0 cb ae 0e bf 47 30 00 be 95 a3 d6 3e 31 d3 36 3f
       -0.5573546 -0.12518416 0.41921678 0.71416
0000b0 74 65 2d 3e ac 05 9c 3d 59 2f 97 be 04 20 45 be
       0.16933233 0.07618269 -0.2952831 -0.19250494
0000c0 9e 16 8b 3e 60 8a 4f bf b4 4c 27 3e 61 0b 4b 3e
       0.27165693 -0.8107052 0.16337854 0.1982856
0000d0 50 6e 63 be e2 96 d8 bd 89 1f 08 3c f8 0c 42 3e
       -0.2221005 -0.105756536 0.0083083 0.1895026
0000e0 15 3b b5 3d 43 17 f9 3e 31 d2 15 3e 77 4e 98 3f
       0.0884916 0.4865056 0.14630963 1.1898946
0000f0 86 20 a9 3d 9e ec 5d bd a8 b7 3b be cd 83 dc bd
       0.082581565 -0.054180734 -0.18331778 -0.107673265
000100 ea 66 88 3d 6a 5f 6d be f7 9b b2 be d5 ea ab bd
       0.06660254 -0.23180929 -0.34884617 -0.083944
000110 38 91 1b be db a8 88 be 27 a7 32 bf ba 11 ca bd
       -0.15192115 -0.26691326 -0.69786304 -0.09866662
000120 8a c9 1d bf 4d 28 18 3f c0 25 96 3e b0 7a 7c bd
       -0.6163565 0.59436494 0.29325676 -0.06164044
000130 9f cd 83 be 52 51 cb bd 49 0f 72 3e e7 fa 92 bf
       -0.25742814 -0.0992762 0.23638643 -1.1482819
000140 35 0a 0c bf 52 b9 b4 3e 05 88 eb be 1c c2 56 3f
       -0.54703075 0.35297638 -0.46002212 0.8388994
000150 e8 f0 25 3f dc 6d 81 be 89 08 83 be 94 c9 12 bf
       0.6482072 -0.2527913 -0.2559245 -0.57338834
000160 f4 e3 03 3f 32 4a 1b bf 2b b1 ef be 57 4f c5 3c
       0.51519704 -0.6066009 -0.46814856 0.024085684
000170 24 43 17 be ad 5a 15 3f 24 e4 23 3f f6 59 72 be
       -0.14771706 0.58341485 0.6401999 -0.2366713
000180 4e 20 f9 3d fd 9e 2c be 64 a4 a3 3d 74 85 99 bf
       0.12164365 -0.16857524 0.079903394 -1.1993852

bias f4 [10]
000000 a0 83 ef 3e 16 12 df be e6 80 34 be 02 4a d0 bc
       0.4678011 -0.43568486 -0.17627296 -0.025425915
000010 99 5d e3 3e 1d c6 5f 3c 23 77 07 be 07 9b 18 3f
       0.44407347 0.013658074 -0.13229041 0.5961155
000020 ba c2 48 3e 68 10 91 3e
       0.19605532 0.2833283

weight f4 [1, 10]
000000 c4 8f 10 bf c6 fc 0b 3b 33 bb 04 3d 2a 59 3f 3f
       -0.5646937 0.0021360382 0.03240509 0.7474543
000010 7d fb 14 be 61 f3 4a 3e 15 48 a7 3d 1e 4b 8e be
       -0.1454906 0.19819404 0.081680454 -0.27791685
000020 fc fc a5 be b1 df e6 be
       -0.32419574 -0.45092538
