twig/TWIG-I/checkpoints/chkpt-ID_2209806926186327_e20.pt (torch, 6372 bytes, 5 tensors)

weight f4 [10, 22]
000000 dd 0a 73 be ee d3 9f be 23 cb a9 3e 09 03 6d bd
       -0.23734613 -0.31216377 0.33162794 -0.057864223
000010 b8 08 a3 be 14 88 63 bf b5 0e ef 3b 1f da 9a bd
       -0.3184259 -0.88879514 0.0072954544 -0.075611345
000020 36 90 e3 3c 8d 29 50 3d 0c 59 c3 bc 37 25 a6 3c
       0.027778726 0.050820876 -0.023846172 0.020281417
000030 36 94 13 3d 46 cd 94 bc 61 16 7b bd f9 e6 ad 3d
       0.036030017 -0.018164288 -0.06130064 0.0849132
000040 be 7a 87 bd 36 0f 0d bd 87 28 ef bd e6 d6 ba bc
       -0.06615208 -0.034438334 -0.11677652 -0.02280755
000050 0a 69 ec 3c 73 98 39 be c3 fc 8a 3e 90 02 18 3f
       0.02885868 -0.18124561 0.27145967 0.5937891
000060 d1 68 ea 3c 9d 04 dc 3c 0e f9 07 3e be 43 16 3d
       0.028614433 0.026857669 0.132786 0.036685698
000070 e3 2e 57 3d b0 26 22 3d a5 7c ee bd fd 1c c7 be
       0.05253495 0.039587677 -0.11644868 -0.38889304
000080 3b 3b 04 be 39 46 4b 3b c5 c1 6c 3d 21 4e 19 bb
       -0.1291322 0.0031017198 0.05780198 -0.0023392516
000090 c7 f5 6f 3e 31 eb e8 bd 57 2c 1a 3e 0c 02 7e bf
       0.234336 -0.11372984 0.15055977 -0.99221873
0000a0 b5 4a 32 3c d6 42 7a 3e a3 1a a7 bc 45 08 08 3f
       0.010882069 0.24439558 -0.020398444 0.5313762
0000b0 28 85 63 be 3a fb 7e bd 3c f5 da 3d 05 3c 84 be
       -0.22218764 -0.062251307 0.10691306 -0.2582704
0000c0 c1 9b d8 be a8 a6 5a bf 44 54 80 3d 3c 96 63 3b
       -0.4230633 -0.8541055 0.062660724 0.0034726998
0000d0 22 90 ef bc a8 d2 4a 3e 79 ab 0b bc b3 15 e2 bd
       -0.029243533 0.19806921 -0.008524769 -0.11039295
0000e0 e4 2c cf 3d ea 94 45 3d 3c af bf 3c af 1e 07 be
       0.10115984 0.04823772 0.023398988 -0.13195299
0000f0 f9 21 26 3d c8 8b 2b 3e ba 48 8b bd 85 53 a1 bc
       0.040559743 0.16752541 -0.06800981 -0.019693146
000100 91 98 55 3e 04 ab 0c be c8 04 e9 be ca 95 3a bf
       0.2085898 -0.13737112 -0.4551146 -0.7288481
000110 d4 20 b2 3d bb 3e 0d bf 6c 09 59 be 77 cb 38 3e
       0.08697668 -0.55173844 -0.21195 0.18046366
000120 70 44 7a bd 51 79 e6 3c a6 b7 25 bd 10 47 c6 3d
       -0.061100423 0.02813402 -0.040458344 0.09681523
000130 70 36 10 3d c9 f6 ea 3d 09 3f 21 bc 10 c6 bd bd
       0.035208166 0.11472852 -0.009841689 -0.09266293
000140 75 61 0b 3e f6 46 af bc 1b 05 6d 3e 05 4f 1e 3f
       0.13611396 -0.021396141 0.23146479 0.61839324
000150 54 8b 89 3c 36 81 f5 bc 46 12 ce 3d 3e 52 cc 3e
       0.01679007 -0.02996884 0.10062079 0.39906496
000160 ab ab 1f bf 65 1c c3 be 54 07 f7 3b 70 d6 29 3d
       -0.6237132 -0.381076 0.0075387154 0.04146427
000170 b2 b4 c3 be 49 5d 8d be d0 fb 71 be af 2c d8 bd
       -0.38223797 -0.27610233 -0.23631215 -0.10555398
000180 96 03 08 3e 6c 52 64 3e fa 17 d0 bb 15 3d 81 3d
       0.13282618 0.22297066 -0.0063505145 0.063104786
000190 0e 6c c7 bd 99 56 09 be 1c aa b7 3c 55 81 5d be
       -0.09737407 -0.1341194 0.022419982 -0.21631368
0001a0 50 bb 4e 3e eb a9 da 3e 61 91 bc 3d b3 38 70 3d
       0.20188642 0.42707762 0.09207416 0.058647823
0001b0 61 4e ec bd 4f 5a 3e 3e cd 92 12 3f 08 a6 b8 3d
       -0.11538387 0.18589137 0.5725525 0.09016043
0001c0 cf 12 a7 bd cd 6c 07 3e 0c ff a2 3c c1 72 27 3e
       -0.08157884 0.13225098 0.019897006 0.16352369
0001d0 3c 48 0d 3f 6a a0 6f 3d b7 49 1c 3d d7 06 57 bf
       0.55188346 0.058502592 0.038156237 -0.8399481
0001e0 7b 59 9b be fc cf b3 3e 37 96 63 bc 67 05 a2 3e
       -0.30341706 0.35119617 -0.0138907945 0.31644747
0001f0 3b 76 5a 3d 60 ef ae 3d 18 0d 89 bd 1c 89 27 be
       0.05333541 0.08541751 -0.066919506 -0.16360897
000200 57 60 78 3c c0 bc fb 3d 37 37 90 bd 06 28 39 be
       0.015159688 0.122918606 -0.070417814 -0.18081674
000210 4d 1f e8 be 7f 21 b3 be f5 9b 91 3d 66 92 00 3d
       -0.4533638 -0.34986493 0.071098246 0.031389616
000220 fa 31 74 be a5 d2 8b 3d 72 81 a8 3e 19 c6 7f bc
       -0.2384719 0.06827287 0.3291126 -0.015611195
000230 fb 60 c8 bc d2 b2 16 3f e7 6b e2 bd 71 c3 22 3e
       -0.024460306 0.5886661 -0.11055737 0.15894867
000240 bd 6a 5e be 89 04 03 3f 40 7e 70 3c 95 91 0e bd
       -0.21720405 0.51178795 0.014678538 -0.034806807
000250 4c 90 76 bd cf e0 91 3e 9e 5e e3 bb bf 3c 50 bd
       -0.060196206 0.28491828 -0.0069387695 -0.050839182
000260 2d 01 82 3e 85 85 e2 3d b5 a0 e2 be b9 a6 e5 be
       0.25391522 0.11060623 -0.44263235 -0.44853762
000270 67 d0 99 3c d8 08 f1 3d fe 05 92 3b 23 6d fa 3d
       0.018776132 0.11769265 0.0044562807 0.122278474
000280 68 f2 e1 3d bd ba 6f be 69 86 ad 3e e5 75 20 3f
       0.110325634 -0.23411079 0.3389161 0.6267989
000290 35 c8 68 bd 14 fe e2 3d d7 13 80 bd 10 83 6e 3e
       -0.056831557 0.11083618 -0.06253784 0.23292184
0002a0 9a 90 13 3d 4b 2f 22 bd 76 f8 74 3e f5 67 e3 3e
       0.036026575 -0.039595883 0.23922905 0.4441525
0002b0 75 63 14 3c da 3a c7 bc 31 bc ea bc 72 86 d0 3d
       0.0090569155 -0.024320055 -0.02865419 0.101818934
0002c0 75 d7 85 be dd 52 c1 be ad 37 c4 bc c5 3d de bd
       -0.26140943 -0.37758532 -0.02395233 -0.10851625
0002d0 9a 24 2b bf 86 90 0c bf 45 dd d5 3c 60 12 8e bd
       -0.66852725 -0.54908025 0.026106486 -0.069370985
0002e0 2a 09 08 3e f2 4d c4 3e 8a 28 1c 3d bd 64 fc bd
       0.13284746 0.38340718 0.0381246 -0.12323902
0002f0 25 4c 8f 3d 43 ac 62 3e 4f 69 e7 bd 7a 9d c6 bd
       0.06996945 0.22136025 -0.11299383 -0.09698005
000300 0f 35 99 3d c2 08 20 3e 32 91 8b 3d 1c 21 80 bd
       0.07480823 0.15628341 0.06814803 -0.06256315
000310 f6 d7 b1 3d ca 96 c9 3e fe 13 20 be f7 b0 e0 be
       0.086837694 0.39372855 -0.15632626 -0.43885013
000320 19 0a e4 3d 23 8a 82 bd 0e 9f 1d 3e 1f db 31 3d
       0.111347385 -0.06374004 0.15392706 0.04342186
000330 c2 22 13 3d a5 d4 ba bd 15 8e 76 3d 78 c3 5a 3e
       0.03592182 -0.0912259 0.060194094 0.21363628
000340 a0 d7 3e bd dd be fe bc c9 79 14 3d 76 ef da 3c
       -0.046592355 -0.03109687 0.036248956 0.026725512
000350 48 d9 e9 3e 44 02 a6 be 51 b7 32 3d f9 df 90 3f
       0.45673585 -0.32423604 0.043631855 1.1318351
000360 c0 a5 a6 3e 3c 79 ec 3d 24 45 a9 be 3a cc 2d 3f
       0.32548332 0.11546561 -0.33060563 0.6788975

bias f4 [10]
000000 36 d1 4c bf a0 e8 7c 3c 5a ea 2e bf bb 58 83 3d
       -0.8000673 0.0154363215 -0.6832634 0.06413408
000010 66 20 4f be ca 7a 5c 3e 6e d6 67 be e2 60 0a 3d
       -0.20227203 0.21531215 -0.22640392 0.0337838
000020 1d c0 e9 be 91 d6 0c bf
       -0.45654383 -0.550149

weight f4 [10, 10]
000000 d5 07 8a 3e a4 71 0f bf 1a fc b7 3e ba c1 75 3e
       0.269591 -0.56032777 0.35934526 0.23999682
000010 55 ac b2 3e 5b bf d6 be dd f9 34 3e a3 59 1c 3f
       0.34897104 -0.41942868 0.1767344 0.61074275
000020 18 22 a1 3e 00 86 03 3f 74 43 54 3e 31 fd 8d bd
       0.31471324 0.5137634 0.20728856 -0.06933058
000030 09 b8 83 3e c7 d8 01 bf 72 da 84 3e 16 ea 49 be
       0.25726345 -0.507214 0.2594791 -0.19718203
000040 d0 b0 e7 3e ce e1 e4 3e e6 50 94 3e 94 ea 8a 3d
       0.45252085 0.44703525 0.2896797 0.067830235
000050 be 75 2c be 21 fd fe bd b8 89 c2 bd eb 06 08 be
       -0.1684179 -0.12450624 -0.09498924 -0.13283889
000060 4a 5d 52 be 35 c5 8e be 0a 90 27 3f 54 1a 66 3d
       -0.205434 -0.27884832 0.6545416 0.056177452
000070 ad a1 d2 be 6e 2d 78 3d 50 8c 6c 3e f8 b8 b1 3e
       -0.41138974 0.0605902 0.231004 0.34711432
000080 6e 5e 06 be 0c 45 a7 bc 72 54 5a be d1 a5 c5 3e
       -0.1312196 -0.020418666 -0.21321276 0.3860307
000090 8d 6c 44 3e 60 53 10 3e 97 dc 97 bd 31 05 15 3d
       0.19182034 0.14094305 -0.07415121 0.036381904
0000a0 f3 0d 4e 3c 6b bc e1 be 19 05 0d 3f 4a 66 bf 3e
       0.012576568 -0.44089064 0.55085903 0.37382728
0000b0 75 eb ac 3d 2d b5 cd bd b9 f9 f8 3d 6f b4 32 3f
       0.08443347 -0.10044322 0.12157006 0.6980657
0000c0 10 d7 0e 3f 5b 72 0a 3f 64 ac b1 be 4f ea 66 3f
       0.5579691 0.5408074 -0.34701836 0.90201277
0000d0 cc 10 a4 3d c5 4c 64 be 1e 6c a2 be be 85 18 3f
       0.08011016 -0.2229491 -0.31723112 0.59579074
0000e0 d7 84 75 be ac f7 94 be 4b 73 98 3d 9f fe 3c be
       -0.23976456 -0.2909521 0.074438654 -0.18456505
0000f0 30 40 de 3e 8f ba a2 bd 75 19 77 3e bd 4b 2f 3d
       0.43408346 -0.079457395 0.24130805 0.04279684
000100 c6 ae 89 3e 1e b3 ae be 0f f9 dc be c7 54 05 3f
       0.26891154 -0.3412103 -0.43158767 0.52082485
000110 ba 54 ba 3d d3 bd 19 3f bb 6d 05 3e 11 ed c7 be
       0.090981916 0.60055274 0.1303014 -0.39048055
000120 8a 93 93 3e 48 7b fe 3e 43 70 c3 3d 9f cb ae be
       0.288235 0.4970343 0.095428966 -0.34139726
000130 28 71 f0 3e ee 70 25 3e 33 44 09 3f 9a fd f4 3e
       0.4696133 0.1615636 0.5361969 0.47849733
000140 45 15 47 3e 84 68 b7 bd b6 c3 ce 3e f9 9c 22 3d
       0.19441707 -0.08955482 0.4038369 0.039700482
000150 ba 54 c4 3e dd fa 10 be df 4f 15 3f 45 89 82 3e
       0.3834589 -0.14158197 0.58325 0.25495353
000160 15 61 14 3f a2 4e 59 3f 2a 1e cd bc 14 1b 27 bf
       0.57960635 0.8488561 -0.025038797 -0.6527569
000170 88 32 1d 3e cd b8 f7 3e 29 ae 38 bd 0c b1 37 3d
       0.15351307 0.4838318 -0.045087967 0.04484658
000180 02 a7 dd 3e 8b d7 23 3e 4a e2 ce bc b3 e6 da 3e
       0.4329148 0.16000192 -0.025254387 0.42754135

bias f4 [10]
000000 b3 bf 69 3e 46 3b 23 be d6 17 9b bd 50 c2 40 bd
       0.22827034 -0.1594058 -0.07572906 -0.04706031
000010 e7 2f 9d bd dc d9 a7 3e 47 cd 35 be a9 1a 84 bd
       -0.07675152 0.327834 -0.17754088 -0.064503975
000020 ef d6 23 bf 83 37 9d bd
       -0.6399984 -0.07676604

weight f4 [1, 10]
000000 19 0c e7 be 96 87 fc be 89 45 1f bf 1a ea 41 3e
       -0.45126417 -0.49322194 -0.6221548 0.18936959
000010 0e ca ee be 98 b2 34 3f e3 5d 15 bf 66 33 0a bf
       -0.4663853 0.7058501 -0.58346385 -0.5398468
000020 da 77 09 bf f9 70 09 bf
       -0.53698504 -0.5368801
