twig/TWIG-I/checkpoints/chkpt-ID_1299112808494470_e15.pt (torch, 6308 bytes, 5 tensors)

weight f4 [10, 21]
000000 86 c2 18 bf f4 85 af bf 9f c1 12 3a 34 ac 7e be
       -0.5967182 -1.3712754 0.000559831 -0.24870378
000010 fa e1 8e bf 1b f0 8e 3b 61 42 44 b9 c9 63 48 bc
       -1.1162713 0.004362119 -0.00018716745 -0.012230822
000020 03 c9 e3 3e 76 2a 99 bc 83 ab 4d be d7 50 c6 bc
       0.44489297 -0.018697005 -0.20084958 -0.02420847
000030 54 ec 0f bb de cf 24 bd e4 0c 0b bc 6f de 4a 3d
       -0.002196093 -0.0402373 -0.00848696 0.049528535
000040 ed 37 1a 40 eb 95 c2 bc 08 71 86 bc 00 45 c7 3d
       2.4096634 -0.023753127 -0.01641132 0.097299576
000050 67 a2 4e bd 3f fa 22 c0 4a 47 f3 bf 80 bb 16 bc
       -0.050447848 -2.5465238 -1.9006131 -0.009199977
000060 15 87 72 bd bd 9e bd bd 4a 65 d9 bc 37 fa e2 bc
       -0.059210856 -0.092587925 -0.026537556 -0.027707202
000070 f2 6e 8d ba ab 72 e0 3f 5c 0d 44 3c 73 36 c5 bc
       -0.001079051 1.7534994 0.011966076 -0.024073815
000080 d7 1e 90 bc e9 9b 07 3c bf 6e 20 3d 80 b3 c3 bb
       -0.01759283 0.008276918 0.039168116 -0.005972326
000090 81 15 e5 3c fa c9 e5 3f 84 2b 90 bc 72 ed 3d bd
       0.027964355 1.7952263 -0.017598875 -0.046369024
0000a0 eb d3 cc 3d fa c1 17 3d 80 be 7f 3f 6d eb 96 3f
       0.10001358 0.037050225 0.99900055 1.1790596
0000b0 0a 08 4c be b7 0d 69 3d 49 eb 91 3f b6 d4 db 3c
       -0.19924942 0.056897845 1.1399928 0.026834827
0000c0 ac 34 ba 3b e6 50 9f bc 54 e3 d5 bf e3 22 ad bb
       0.0056825485 -0.019447755 -1.671 -0.0052837
0000d0 26 7a 1b bd 85 0d a1 3c 53 42 91 3c 10 6c 06 bd
       -0.037958287 0.019659767 0.017731821 -0.0328179
0000e0 0c 10 99 bd 60 e6 a3 3c 8c df 0a c0 4d e1 4e 3d
       -0.07473764 0.020007312 -2.1698942 0.050507832
0000f0 71 34 a4 3d e5 48 d4 bb 6a 5e a0 3d d5 30 82 be
       0.08017815 -0.0064784163 0.07830508 -0.2542788
000100 dd 47 ca bf a7 7d 1d bf 33 fc f4 3d a3 03 75 bf
       -1.5803181 -0.61519855 0.11962166 -0.95708674
000110 17 37 9b 3d 15 21 b0 3d c4 a9 82 3d 2e 4c 8c 3e
       0.07578867 0.0860006 0.063800365 0.2740187
000120 c5 49 b8 bd 74 3a 62 bf ce ad 8f bc 0f a8 28 bd
       -0.089984454 -0.8837044 -0.017538931 -0.0411759
000130 b6 40 3c bd 64 b5 bf 3d c6 17 bb be 7f 27 4e 3f
       -0.04596015 0.093607694 -0.36541575 0.80529016
000140 4b 83 76 3d ca 17 54 3f ce 0a 65 be f6 da 43 3d
       0.060183804 0.828488 -0.22367403 0.04781624
000150 ec de a5 be f8 29 83 bf 9b f7 8e 3f fe a5 46 bd
       -0.32396638 -1.0247183 1.1169313 -0.048498146
000160 e3 94 71 bf 1b b5 ae bd ce 92 ba bd 55 ac a0 3e
       -0.9436781 -0.08530637 -0.09110032 0.3138148
000170 6e d2 94 3e 66 0c c3 bc af b9 51 3a 40 9e 05 3d
       0.29066795 -0.023809623 0.00080003863 0.032621622
000180 d6 f9 03 3e 4b 7c 45 3d 3a ff df be 6b 02 51 3e
       0.12888274 0.048214238 -0.4374941 0.20411079
000190 d5 3c 89 3f 12 38 61 be 57 b1 f4 3e b4 02 61 bf
       1.072169 -0.21994045 0.4779155 -0.8789475
0001a0 f3 9f bf 3c a9 2e bb be cb 9a 07 bf 5b 98 39 3e
       0.0233917 -0.36559036 -0.5297057 0.18124525
0001b0 3b 13 5d c0 3a 7d b2 bd 8d 7c 6b bc 83 b0 71 bc
       -3.4542987 -0.08715291 -0.014372957 -0.014751556
0001c0 08 7e b3 3c 5f 1c b3 3e 2e 7f d8 3c 15 20 39 bd
       0.021910682 0.34982583 0.026427832 -0.04519661
0001d0 ff 97 7c 3b 3d da d0 3c 69 ce 96 3b b0 91 3e bc
       0.0038542745 0.02549469 0.0046022427 -0.011631414
0001e0 9e 44 a8 3d 5a d4 1d 3f b2 49 ed bd 4e fc 81 3c
       0.08216213 0.6165215 -0.11586322 0.015867379
0001f0 0a 5e f1 3c 10 2e 80 3d 30 a6 8f be c7 b6 c1 bf
       0.029463787 0.06258786 -0.28056479 -1.5133904
000200 47 ca 02 be 88 89 bd bd b1 5f b1 bf 4a 6c 4c bd
       -0.12772475 -0.09254748 -1.3857328 -0.04990796
000210 6f db c9 3d d6 15 14 3e ce 1c 4a 3e 97 55 8e be
       0.09856307 0.14461455 0.1973755 -0.27799675
000220 06 b9 7f be 55 47 89 3e 3e 75 11 3e 2a 6e 69 be
       -0.24972925 0.26812235 0.1420488 -0.2279593
000230 fb 6b 1a be cc 08 e4 bd 15 3b 96 3f 10 3c 2c 3f
       -0.15080254 -0.1113449 1.173678 0.6727915
000240 82 e8 2d 3e 5e 70 5e be 76 ac 6a bd 2b 04 83 3f
       0.16983226 -0.21722552 -0.057293378 1.0235647
000250 bf 28 59 3e 0e 82 01 3e b8 e4 57 3d 66 4c d3 3f
       0.2120695 0.12647268 0.052708358 1.650769
000260 cf 57 21 bd f4 fe 81 3d 80 a9 55 bc a5 d1 da bf
       -0.03939038 0.063474566 -0.0130409 -1.7095228
000270 c8 ad d5 3a a9 56 40 be 7c 4a 30 3d c5 14 3b 3d
       0.0016302401 -0.18783058 0.043039784 0.045674104
000280 e7 cf d2 3b 1b dd a5 3c 65 da 9b 3c 73 4e 11 c0
       0.0064334753 0.020247033 0.019025037 -2.2704132
000290 05 0e e4 bd 29 23 70 be 95 30 2c 3e b8 92 0b 3d
       -0.111354865 -0.23450913 0.16815408 0.03407547
0002a0 35 cc 11 bf 96 6b e4 bf d7 74 7e 3f 9f c6 08 3e
       -0.5695222 -1.7845333 0.99397033 0.13357018
0002b0 c6 b9 af be 5b e0 0b bd b1 f6 9a bc eb f6 5e 3c
       -0.3432142 -0.03414951 -0.01891646 0.0136086745
0002c0 ce 3a 13 3f 3e 57 a1 3b fc e6 af bc b1 55 cf 3c
       0.57511604 0.00492373 -0.021472447 0.025309416
0002d0 5f 7d 92 bb e3 a7 a7 3d b8 75 94 3d e5 05 32 bd
       -0.004470512 0.08186319 0.072490156 -0.043462653
0002e0 9d 26 00 40 ea f7 69 3e c3 c0 3e bf 85 cc cb be
       2.0023568 0.22848478 -0.7451288 -0.39804474
0002f0 b0 b8 90 bd cb 67 bf be d7 4a 0b bf 87 c2 01 be
       -0.07066476 -0.37383875 -0.5441107 -0.12671863
000300 6a 3a a8 be 6c 66 fa bd ec ec 97 bd 27 40 1f 3d
       -0.32857066 -0.12226567 -0.07418236 0.03887954
000310 a8 f7 a8 bc 63 7e 86 3e fa cc bc bc 8b 4c 83 3e
       -0.020625904 0.262683 -0.02304696 0.25644335
000320 63 dd 6e bd ca 62 97 3c 17 c8 1e b8 65 89 dd 3d
       -0.0583166 0.018479723 -3.7856484e-05 0.108172216
000330 25 c5 3f 3f 99 a7 31 3f df 07 03 be b0 0d d3 3e
       0.74910194 0.6939636 -0.12795971 0.4122138
000340 15 98 c4 bd e1 35 24 3e
       -0.0959932 0.16036178

bias f4 [10]
000000 f7 29 23 bd 60 2b fb be 11 df 77 3e c8 c8 1a bf
       -0.039834943 -0.4905653 0.24206187 -0.6046262
000010 ca c2 a3 be 9d 9e c7 bf f0 37 39 bf 22 28 56 be
       -0.3198455 -1.559528 -0.7235098 -0.20913747
000020 ea 8c 4a be a8 40 49 bd
       -0.19780317 -0.049133927

weight f4 [10, 10]
000000 c8 3c 89 bf 44 06 3f c0 28 76 58 3f 62 a3 04 be
       -1.0721674 -2.9847574 0.8455529 -0.1295295
000010 7f a5 92 be b5 c4 bd c0 8e 55 8c bd 5e e9 d9 3f
       -0.28641888 -5.930262 -0.06852256 1.7024343
000020 af d3 40 bf 16 f9 54 bf 24 87 d3 bb 9a 0b df 3f
       -0.75323004 -0.83192575 -0.006455319 1.7425416
000030 4c de 50 bf 38 f3 b3 bc d2 a2 1e 3e 8e f6 bd 3e
       -0.815892 -0.021966562 0.15491799 0.3710217
000040 ca 7e 01 3e 73 a2 e2 bd 62 af 2b 3f db bc c7 3d
       0.12646022 -0.11066141 0.6706449 0.09752818
000050 a8 93 f0 bf e8 9e b4 bf c9 d0 e3 be 34 d1 d7 be
       -1.8795061 -1.4110994 -0.44495228 -0.42151797
000060 72 ce 11 3e 34 b3 bc bd 81 fc 46 3e fa 2f ea 3b
       0.14238909 -0.09213868 0.1943226 0.0071468325
000070 3b d5 9b bf 27 3f dc be a6 bd de bd bf ac 19 40
       -1.2174448 -0.4301693 -0.10876016 2.4011686
000080 04 3b f7 be 5e f3 a8 3d d3 fb 13 bf d3 16 f4 3f
       -0.48287213 0.082495436 -0.5780613 1.9069465
000090 6b bc a9 3e 55 f4 96 be 90 f1 d4 be 94 09 99 3c
       0.33151564 -0.29483286 -0.41590548 0.018681325
0000a0 74 8a b0 3c a5 4b 0c 40 a8 00 7d bf 96 37 64 bc
       0.021550395 2.192117 -0.98829126 -0.013929268
0000b0 19 80 8d 3d 2f ef 21 3f 81 7b 5a 3e 76 de 67 be
       0.06909198 0.6325559 0.21336176 -0.22643456
0000c0 de 8b b4 3e 13 36 dd 3d b6 b9 ee bf d6 e1 04 c0
       0.3526296 0.108013295 -1.8650424 -2.076284
0000d0 9f 62 fe 3e c4 59 07 be b4 6e 95 bd 20 8f 83 be
       0.49684617 -0.13217837 -0.072965056 -0.25695133
0000e0 77 2d 0e 3e bf d2 9f 3f 2b 52 64 be 4b 12 d1 3d
       0.13884531 1.248619 -0.2229697 0.10208567
0000f0 cc ce 87 bf e6 e4 d5 bf 11 8e 53 3e ba b8 8c bb
       -1.0609984 -1.6710479 0.20659663 -0.004294482
000100 cc 93 7d be d9 1f 27 bf 00 c4 46 bd 52 f6 54 3f
       -0.24763411 -0.6528297 -0.048526764 0.83188355
000110 ea 56 05 bf 3f 17 fa bd e6 7d 47 3f 24 40 20 bf
       -0.52085745 -0.12211465 0.7792648 -0.6259787
000120 81 21 e8 3d 45 ab 07 be af fe a0 bf 18 77 a8 bf
       0.11334515 -0.13248928 -1.2577723 -1.3161345
000130 ed e7 a2 be 62 d7 d6 bd a5 13 81 bf 38 80 17 bf
       -0.3181757 -0.104903 -1.008412 -0.5918002
000140 cf fa 35 bf 57 8c f9 3f 0c d8 9c be 1e 87 da 3e
       -0.7108583 1.9495953 -0.3063358 0.4268121
000150 59 f8 10 3f 7f ab e1 bd 53 4c e4 3e 88 90 25 bf
       0.5662895 -0.110190384 0.4458948 -0.6467366
000160 8d a6 01 3e cf de bd bc f1 e4 64 3d e4 87 12 40
       0.1266119 -0.023177532 0.055882398 2.289544
000170 29 c1 66 bf 4b 73 97 ba af 75 34 3e a0 10 09 3f
       -0.9013849 -0.0011554746 0.17623018 0.5354099
000180 1c be 56 3e fd 8d 83 be 1d cc 31 3f e8 7d 93 3d
       0.20970958 -0.25694266 0.6945208 0.07201749

bias f4 [10]
000000 c0 5d b1 3d 4f ef b0 3d bb bb fe 3e 99 ce 51 bd
       0.086604595 0.086393945 0.49752602 -0.051222418
000010 bb ff 8e 3e bf 19 b9 3e 0d c8 28 3f ff 89 ef 3e
       0.27929482 0.36152455 0.65930253 0.4678497
000020 ea 04 2f bf 2b b8 46 3e
       -0.68366873 0.19406192

weight f4 [1, 10]
000000 78 0e b7 3f 5c dd 24 bf 7d 21 92 3f ab 52 7f bf
       1.430129 -0.6440027 1.141647 -0.99735516
000010 39 17 13 bf b5 51 5b 3f a6 5d 59 3f 85 57 4d 3f
       -0.5745731 0.8567155 0.8490852 0.8021167
000020 63 86 32 bf 18 50 10 bf
       -0.6973631 -0.56372213
