twig/TWIG-I/checkpoints/chkpt-ID_2980578518512252_e100.pt (torch, 6382 bytes, 5 tensors)

weight f4 [10, 22]
000000 a2 d0 83 3f c1 82 18 3f 53 51 57 3d 27 7a 8e 3f
       1.0298045 0.59574515 0.05256779 1.1131028
000010 38 dc b6 3f 03 9c 8d 3f 5b e5 84 be b6 af a1 3d
       1.4285955 1.1063236 -0.25956234 0.07894842
000020 c0 0d 2f bd ed 6e 8b bf f2 c7 b0 be b1 db a4 bd
       -0.042737722 -1.0893227 -0.34527546 -0.08049715
000030 8c e9 25 bf c9 34 57 bf ec a8 42 3f 21 38 f8 3e
       -0.6480949 -0.8406492 0.76039004 0.48480323
000040 51 32 f4 3e 1b e3 39 c0 07 9c 47 3f f8 e9 13 be
       0.47694638 -2.9044864 0.77972454 -0.14444721
000050 d7 6d cf 3e 63 24 51 bf a4 be b5 be ea 6a 5f bf
       0.4051349 -0.81696147 -0.3549701 -0.8727251
000060 4b 3e fd bd 21 99 6c bd 92 a4 8a bf 8f 24 64 3e
       -0.12365397 -0.057763223 -1.0831473 0.22279571
000070 fc 29 b1 bc 5f d3 d9 3d ec 23 e2 bd 1f bc b2 3f
       -0.021626465 0.10636019 -0.11042008 1.396366
000080 a0 62 94 be 55 4e f1 3e 6c f9 89 3e 29 7d bd 3e
       -0.28981495 0.47130075 0.26948106 0.37009552
000090 e0 95 71 3e 8f 92 05 3f 05 c4 2b 3f 48 c9 01 3f
       0.23592329 0.52176756 0.6709598 0.50697756
0000a0 5b 56 16 be 84 bc 51 3e 97 74 54 be d5 bc 40 3d
       -0.1468138 0.20482069 -0.207476 0.047055084
0000b0 1c 48 3d bf f4 42 56 bf f9 56 0f c0 86 0b 05 be
       -0.73938155 -0.8369591 -2.2396834 -0.12992677
0000c0 12 61 b4 bc 03 1a a8 bf 4d 3c 91 3d 4c 39 9a be
       -0.022018943 -1.3132938 0.070915796 -0.3012184
0000d0 fc fe 12 bc 8b 73 e4 3e 5d 41 32 3f 73 6a e4 3e
       -0.008971926 0.44619402 0.69630986 0.44612464
0000e0 7a af 00 bd 74 d5 13 3e ec a5 a3 be df f0 1b 3d
       -0.031417347 0.14436895 -0.31962526 0.03807151
0000f0 2a 82 82 be af b7 80 3f c1 05 31 3f 42 9a 7f 3e
       -0.25489932 1.0056056 0.69149405 0.24961188
000100 82 c9 bf 3e 21 7d a6 bd 03 53 7b bf d6 48 21 c0
       0.37458426 -0.08129335 -0.9817354 -2.5200706
000110 f7 50 8e be e8 81 9a c0 c6 a7 71 be 3e 13 73 bf
       -0.27796146 -4.8283577 -0.23599157 -0.94951236
000120 c6 3c 08 bd e1 26 db 3c e8 58 51 be b8 7f 85 3f
       -0.033261083 0.026751937 -0.20444071 1.0429602
000130 3d 83 fa 3d 03 b1 4b 3d 10 02 b3 3d ff 47 e2 bd
       0.12232063 0.04972936 0.08740628 -0.110488884
000140 34 04 69 be bb e6 17 3e c8 4e 11 bc 43 35 1b 40
       -0.2275551 0.1483411 -0.008868881 2.4251258
000150 6c 32 a0 bb 59 f7 90 3e 92 d3 09 3e 6c 93 51 be
       -0.0048888233 0.2831371 0.13459614 -0.20466393
000160 74 a7 11 bf c9 81 13 40 46 0e d5 3f 41 3b fc 3f
       -0.5689614 2.3047965 1.6644981 1.9705583
000170 7e cb 17 40 8c 34 52 3f e5 83 cb 3d 2c 8d b6 3c
       2.3717952 0.8211143 0.09937266 0.022284113
000180 00 79 94 be 29 80 a5 bf d5 f0 ed bc 75 51 18 3f
       -0.28998566 -1.2929736 -0.029045502 0.59499294
000190 9c 6d 22 3e 37 9d 0b 3e 1b 62 2a be e1 ca ed bd
       0.15862125 0.13634191 -0.16638987 -0.11610962
0001a0 72 4b 8e be be 7c 96 c0 61 e8 82 3d 4a ae 40 3f
       -0.27791935 -4.7027273 0.06391979 0.75265944
0001b0 be 26 9a 3d fa fa 91 3d f2 d5 73 3f 92 44 a6 3f
       0.07526921 0.07127948 0.9524833 1.2989676
0001c0 ff 7a 17 bf 97 26 f2 3e 0f 79 4e be 50 01 8f 3e
       -0.5917205 0.47295067 -0.20163368 0.2793069
0001d0 1e 9c 1f be a4 a8 08 bf ec a5 01 bf 99 0c e6 bf
       -0.15586898 -0.53382325 -0.506438 -1.7972594
0001e0 f2 60 81 3f 11 56 23 bf a9 83 e8 3e c0 1c eb be
       1.010771 -0.638032 0.4541295 -0.45920372
0001f0 20 6d 3d bd 89 45 99 3c d1 f1 ca bd 1b 4d 28 c0
       -0.046246648 0.018709915 -0.09909404 -2.6297061
000200 ae 76 80 3c 0b 86 c3 be 6d 35 69 3c 78 f2 d1 be
       0.01568159 -0.38188204 0.014233929 -0.410053
000210 58 32 f5 3e 4d 10 8e be 8f 58 34 3f 74 fa 29 bc
       0.47889972 -0.27746812 0.7044763 -0.010374654
000220 82 12 0c 3f 5f 16 c4 3f 88 da 01 3f e5 bc 07 3f
       0.5471574 1.5319327 0.5072408 0.53022605
000230 69 df ba 3d a9 70 60 be b5 89 a3 3e b1 7c 3e 3e
       0.09124643 -0.21917976 0.31941 0.18602253
000240 99 02 16 3f 1c dc 8a 3e d2 cc 20 bf 7a ee 1c 3e
       0.58597714 0.27121055 -0.6281253 0.15325347
000250 9b 91 1d 3f a9 81 5a bf 45 bd c4 bd af c8 7d 3d
       0.615503 -0.85354096 -0.09606413 0.061958965
000260 1b a8 11 3e df b2 73 bf c2 57 9d bf ea 01 c8 bf
       0.14224283 -0.9519481 -1.2292407 -1.5625584
000270 93 75 07 40 a9 d6 05 c0 be 24 28 be c2 85 1a c0
       2.1165512 -2.0912268 -0.16420266 -2.414414
000280 f0 ab c8 3d 85 22 23 bf 69 e1 9d bd 4e 01 6e 3e
       0.097984195 -0.6372455 -0.07709009 0.23242685
000290 59 01 a4 be 02 8c 5f bf 35 ba 7d bc a4 44 92 3e
       -0.32032278 -0.8732301 -0.01548629 0.28567994
0002a0 85 74 16 bf 34 ee fa 3d d8 4e 86 3e 74 d8 0d 40
       -0.58771545 0.12252465 0.26232028 2.2163363
0002b0 a8 7b c3 be eb e3 ed be 12 b8 77 3e 32 8b af 3c
       -0.3818028 -0.4646295 0.24191311 0.021428678
0002c0 fb a9 99 be f4 dd 7a bf 5d 32 e8 3e 26 96 e7 3e
       -0.30012497 -0.97994924 0.45350924 0.45231742
0002d0 11 8c 11 c0 36 66 82 bf 3f a0 2c 3e 47 86 37 3e
       -2.274174 -1.0187442 0.16858004 0.17922316
0002e0 92 41 6f bd 12 c3 77 3f 36 1e 98 3c d4 6e 3f bd
       -0.058412142 0.9678203 0.018569093 -0.046736553
0002f0 83 16 94 3e 3d 9d ca bd a1 3d 81 3d 7d cc 3b be
       0.28923425 -0.09893272 0.06310583 -0.18339725
000300 70 3e dd 3e 4c ef 0e 3e a3 5a 87 be 99 88 96 bd
       0.432117 0.13958472 -0.26436338 -0.07350273
000310 2d a3 91 3e 87 c2 cb 3d 2a f5 93 3f 62 5b 3d 40
       0.28444806 0.099492125 1.1559193 2.9587026
000320 ee af b0 be 03 ee cd bd 7d 7f 10 40 4c 52 d8 3e
       -0.34509224 -0.10055163 2.2577813 0.42250288
000330 ec ca 9c 3d a3 49 b3 bd ab 2d 03 bc 1b b2 10 bf
       0.07655892 -0.087542795 -0.008006494 -0.5652177
000340 40 8c a8 bd 1d 9d 84 3e b3 df 21 be 97 fb 04 3d
       -0.082298756 0.25901118 -0.1580799 0.032466497
000350 28 75 a4 3b 35 cd b9 3e ee 27 b7 3e 36 c9 a4 c0
       0.005018849 0.36289373 0.3577265 -5.149562
000360 1c 1c 19 be f5 ed 63 3e 79 be 24 bd 22 25 d7 bd
       -0.14952129 0.22258742 -0.04022071 -0.105051294

bias f4 [10]
000000 15 3d 44 3c d3 59 d7 be d8 6b d0 bf f5 08 26 bf
       0.011977454 -0.42060718 -1.6282911 -0.6485742
000010 0b 01 86 bf 15 78 d7 3d 57 05 0c c0 ab 60 d4 bd
       -1.0469068 0.10520951 -2.187826 -0.103700005
000020 fa 06 4e bf 38 f0 2f 3f
       -0.80479395 0.6872592

weight f4 [10, 10]
000000 85 0e 41 be 90 6f 4a bf ef d3 19 3f e8 17 80 3f
       -0.18853195 -0.7907648 0.6008901 1.0007296
000010 6d 5c c4 bf 89 3c 4b bf df d6 94 3e 9f 0d af 3f
       -1.5340706 -0.79389244 0.29070184 1.3676032
000020 0a 43 e2 3d 92 13 86 c0 d3 ac 28 bf f7 4b 8f be
       0.11047943 -4.189889 -0.6588871 -0.27987644
000030 f0 83 94 bf d7 0b eb 3f 3c 85 81 bf ef bf 68 bf
       -1.1602764 1.8362988 -1.0118785 -0.9091787
000040 ce 0e be be 62 4e 34 bf 99 44 fb 3d 85 57 71 bf
       -0.3712067 -0.704321 0.12268943 -0.9427417
000050 da 37 1d be 73 7d 68 be 44 37 35 be c7 d6 22 be
       -0.15353337 -0.22704105 -0.17696863 -0.15902244
000060 01 f1 86 be 2e aa 60 be 92 ca 8b 3b ae c7 a8 be
       -0.26355746 -0.21939918 0.0042660916 -0.32964844
000070 af da 88 be 03 e4 d2 bd b6 b8 12 3f 41 7b f7 bf
       -0.26729342 -0.10297396 0.57313097 -1.9334489
000080 2b 50 61 bf 36 b4 c7 bf ac f4 88 40 cd d5 10 3f
       -0.8801295 -1.5601871 4.279867 0.56576234
000090 8b 5b 19 bf 69 25 54 be c2 60 60 bf 31 93 1f 40
       -0.5990531 -0.20717396 -0.8764764 2.4933589
0000a0 82 6d 4e bf 01 43 51 bd b4 13 92 3f 9d 7f 1e 40
       -0.80635846 -0.05108929 1.1412263 2.476539
0000b0 de b0 16 c0 9c 18 82 be 05 41 4c bf c6 86 89 3f
       -2.354545 -0.254094 -0.7978671 1.0744255
0000c0 2d 13 1f 3f 29 4b 2f bf 46 8a be 3e 58 ed a1 bf
       0.62138635 -0.6847406 0.3721487 -1.2650557
0000d0 ab 24 be bf aa 28 1b c0 a7 30 43 40 23 38 80 3f
       -1.485494 -2.424357 3.0498445 1.0017132
0000e0 d2 0b 1f be bc 5c 0c bf fa 91 8a bf c3 a0 02 40
       -0.15531853 -0.54829 -1.0825799 2.041062
0000f0 a6 49 42 bf 14 28 54 3f 22 b8 05 40 0d da 0b 40
       -0.7589363 0.82873654 2.0893636 2.1851838
000100 58 a4 f3 bf 7a 85 b9 bf 7e 7b cb bd 59 73 83 3d
       -1.9034529 -1.4493859 -0.09935664 0.06418485
000110 15 1c 83 bf bc 13 6a c0 4b a2 ab be 7b c9 e3 bd
       -1.0242945 -3.6574545 -0.33522257 -0.11122414
000120 24 22 1b 40 6b 08 1b 40 37 9b ac bf 86 70 b5 3e
       2.4239588 2.4223888 -1.3484868 0.3543741
000130 bd dc 2a bf cd 62 3d bc 74 0f 26 be d8 eb 17 bf
       -0.6674307 -0.0115592005 -0.16216832 -0.59344244
000140 90 4d f2 be d3 13 90 bd b9 fe 9d be bd 73 4b bd
       -0.473248 -0.07035031 -0.308584 -0.049670924
000150 0a 07 c7 be 1b 2b 54 bf 01 db ce be bf 87 fc bd
       -0.38872558 -0.82878274 -0.40401462 -0.12330579
000160 fe bc 26 be f0 95 c4 bf 9e e9 f3 be 89 db 00 bf
       -0.16283032 -1.5358257 -0.47639173 -0.50334984
000170 b0 b2 0d 3f 35 22 31 3f e3 99 ba bf 86 f8 88 bf
       0.5535078 0.6919282 -1.4578212 -1.0700843
000180 f5 70 00 be d3 18 a7 bf 3c 79 8c 3f 56 e3 11 c0
       -0.1254309 -1.3054451 1.0974498 -2.2795005

bias f4 [10]
000000 71 6e d7 be 26 6e 98 bf 31 a6 86 bd 0a de 0c c0
       -0.42076448 -1.1908615 -0.06574667 -2.2010522
000010 95 e2 42 3f 83 ab 56 3d d2 41 ec be 8f 68 27 bf
       0.76126987 0.05240966 -0.46143967 -0.6539392
000020 e2 a2 2d bf 98 83 8e bf
       -0.67826664 -1.1133909

weight f4 [1, 10]
000000 9d f6 36 be 16 ea ea be 9c 10 22 bd 89 d7 8c 3f
       -0.17867513 -0.45881718 -0.03956662 1.1003276
000010 88 f6 1d be 9b 33 08 3f 2a 42 de bd 7a 67 0a be
       -0.15426075 0.53203744 -0.108524635 -0.13516036
000020 f9 d9 57 3d c2 20 b6 bc
       0.05269811 -0.022232417
