twig/TWIG-I/checkpoints/chkpt-ID_9039246497386582_e10.pt (torch, 6244 bytes, 5 tensors)

weight f4 [10, 20]
0	0xbe2b2e6d	-0.16716929
1	0x3de85d16	0.1134588
2	0x3d2ef0cc	0.04271011
3	0xbd06959e	-0.03285753
4	0xbe437620	-0.1908803
5	0x3decca0c	0.11561975
6	0x3caed018	0.021339461
7	0x3c0b26a9	0.008493104
8	0xbc192e13	-0.009349364
9	0xbebb9851	-0.36639646
10	0xbdb043c5	-0.08606676
11	0xbd04bb05	-0.03240492
12	0xbee10534	-0.43949282
13	0xbe49658d	-0.19667645
14	0xbddf8c71	-0.10915459
15	0xbe10a006	-0.14123544
16	0xbe958cca	-0.29208976
17	0xbe6944f6	-0.22780213
18	0x3dbbc3f4	0.091682345
19	0x3d3dc0b2	0.046326347
20	0xbef1dbdf	-0.4723806
21	0xbf56d150	-0.83913136
22	0x3d1ae067	0.037811663
23	0xbf7a61df	-0.9780559
24	0xbe8dee91	-0.27721074
25	0xbd0460ba	-0.03231881
26	0x3cbb7f90	0.022887975
27	0x3c919690	0.01777199
28	0x3c710800	0.01471138
29	0xbd935956	-0.07194774
30	0xbbfed557	-0.007776897
31	0xbc06d50b	-0.008229504
32	0xbd81b8b1	-0.06334055
33	0x3d142393	0.03616674
34	0xb9128ac5	-0.0001397534
35	0x3ba76a81	0.005109132
36	0x3f89127d	1.0708767
37	0x3d2f3551	0.042775456
38	0xbc284227	-0.010269678
39	0x3cb2eadd	0.021840507
40	0xbe20b7c2	-0.15695098
41	0x3e19c2d3	0.15015726
42	0x3dba2ba3	0.09090354
43	0x3dedd409	0.11612708
44	0x3b9131a7	0.004430968
45	0x3edbc1c2	0.42921263
46	0x3e5dd502	0.21663287
47	0x3d029455	0.03187974
48	0xbd9426ba	-0.07233949
49	0xbd9c6ec3	-0.076383136
50	0xbc97be3b	-0.018523326
51	0x3e634b23	0.22196631
52	0x3d4bfc15	0.04980095
53	0xbe012e6e	-0.12615368
54	0xbd0faad1	-0.035075013
55	0x3d912bd5	0.070884384
56	0x3d41353d	0.047169913
57	0xbde5e385	-0.112250365
58	0x3e9d6188	0.30738473
59	0x3dadb211	0.08481229
60	0x3e26f666	0.16304931
61	0xbeff1a11	-0.49824575
62	0x3d974d50	0.07387793
63	0xbe89c551	-0.26908353
64	0xbe3d3911	-0.184788
65	0xbf080855	-0.53137714
66	0xbd8fa132	-0.070131674
67	0xbdfbc2f8	-0.12293047
68	0x3d8b8438	0.06812328
69	0xbcd43cde	-0.02590793
70	0x3cd4f502	0.025995735
71	0xbc75bf83	-0.014999273
72	0x3d775f95	0.06039389
73	0x3c5ee97f	0.0136054745
74	0xbcb7cd17	-0.022436662
75	0x3df86abe	0.121297345
76	0x3f27e175	0.65578395
77	0x3df7b3f9	0.12094874
78	0xbaa68c14	-0.0012706541
79	0xbe237856	-0.15963873
80	0xbe73b2c4	-0.23798662
81	0xbe647cc1	-0.22313215
82	0xbc8761e1	-0.016526164
83	0x3c12403b	0.008926447
84	0xbdbc1311	-0.09183324
85	0xbef91836	-0.48651284
86	0x3cb60646	0.022219788
87	0x3e057a78	0.13035
88	0xbe44589e	-0.1917443
89	0x3e2af327	0.16694318
90	0x3da63789	0.08116061
91	0x3c19e79e	0.009393601
92	0xbc363a6e	-0.011122329
93	0xbd8496c5	-0.064740695
94	0x3c4a7063	0.012355897
95	0x399be540	0.00029734708
96	0x3ec9fb1c	0.39449394
97	0xbcb57b02	-0.022153381
98	0x3c830143	0.015991813
99	0xbe257b11	-0.16160227
100	0x3d51fc06	0.05126574
101	0x3d39b13d	0.045335043
102	0xbe8d860f	-0.2764134
103	0xbc31cb39	-0.010851675
104	0x3dcc17ed	0.09965501
105	0x3ea4cc9f	0.32187364
106	0x3d8011f5	0.06253425
107	0x3e464856	0.19363531
108	0xbe0f9300	-0.1402092
109	0x3d598be8	0.05311194
110	0xbe6c6e96	-0.2308906
111	0xbe3a07ad	-0.1816699
112	0xbdb3bbc7	-0.0877605
113	0xbecac37b	-0.39602265
114	0xbc98f061	-0.01866931
115	0x3dd7979f	0.10526966
116	0x3d2da492	0.042393275
117	0xbe4cd61f	-0.20003556
118	0x3ce83348	0.028344765
119	0xbcf96d58	-0.030447647
120	0x3e3e1415	0.18562348
121	0x3c459ed6	0.012061795
122	0xbe5685b9	-0.20949449
123	0xbc3513e3	-0.011052105
124	0xbd39fdd5	-0.04540809
125	0x3eb8a9ac	0.3606695
126	0xbe1ad0c3	-0.15118699
127	0xbe27a23f	-0.16370486
128	0xbde19157	-0.110140495
129	0xbe316ddb	-0.17327063
130	0xbe8a53f2	-0.2701717
131	0xbe0ee0cf	-0.13952945
132	0x3e060c98	0.13090742
133	0x3c8ef217	0.017449422
134	0x3e1e534e	0.15461466
135	0x3d4a81ae	0.04944008
136	0xbe60d65e	-0.21956775
137	0xbd98dd85	-0.074641265
138	0xbdb5094c	-0.08839664
139	0xbde1678e	-0.110060796
140	0xbeac4407	-0.3364565
141	0xbe894203	-0.26808175
142	0xbd60b4d1	-0.05485994
143	0x3d986828	0.07441741
144	0xbe22192a	-0.15829912
145	0x3ea8090c	0.32819402
146	0xbe796bb7	-0.24357496
147	0xbd9b8267	-0.07593232
148	0xbe2edcfa	-0.17076483
149	0xbe721627	-0.23641263
150	0x3df918a9	0.12162907
151	0x3db53844	0.088486224
152	0x3d94cbe9	0.07265455
153	0xbc8e67d3	-0.017383492
154	0xbd37b103	-0.044846546
155	0x3d405eb4	0.046965316
156	0xbcea11a9	-0.028572874
157	0x3d969425	0.07352475
158	0xbd1b9be5	-0.03799047
159	0xbe32f6f3	-0.17477016
160	0xbea699b3	-0.32539138
161	0xbe7a8468	-0.24464571
162	0x3d89f6e5	0.067365445
163	0x3e0549a4	0.13016373
164	0xbe1b5a85	-0.15171249
165	0x3e94b0d2	0.29041153
166	0x3d90d1a3	0.07071235
167	0xbe4440c2	-0.19165328
168	0xbde0519f	-0.10953068
169	0xbf032fe9	-0.5124498
170	0x3d745857	0.05965456
171	0x3bf23972	0.007392102
172	0xbe34df7a	-0.17663375
173	0xbcc9ce02	-0.024634365
174	0xbe446387	-0.19178592
175	0xbe4e9902	-0.20175555
176	0x3c30f530	0.010800645
177	0xbdc4ab67	-0.09603005
178	0x3e2c3454	0.16816837
179	0xbd903560	-0.070414305
180	0xbed05d5c	-0.40696228
181	0x3d3ad11b	0.045609575
182	0x3e0aef99	0.13567962
183	0xbcd85d98	-0.026411816
184	0x3f054777	0.5206217
185	0x3e05dc4d	0.1307232
186	0x3d9de00a	0.07708748
187	0xbc9d5e8d	-0.019210124
188	0x3dd84323	0.1055968
189	0xbe5b802d	-0.21435614
190	0x3dc03961	0.09385944
191	0x3e3f3fe2	0.18676713
192	0x3d4381ea	0.047731318
193	0xbe59b4e8	-0.21260417
194	0x3d071954	0.03298314
195	0x3c2fae8c	0.010722768
196	0xbed7bf2b	-0.42138037
197	0x3ddb0bde	0.10695623
198	0x3d82c49c	0.063851565
199	0x3c1780de	0.009247033

bias f4 [10]
0	0x3e4fcd7e	0.20293233
1	0xbe448de0	-0.19194746
2	0x3ec41614	0.38298094
3	0xbda0746d	-0.078347065
4	0xbdbfbfa2	-0.09362723
5	0x3e881ff7	0.26586887
6	0x3e6dfb52	0.23240402
7	0x3ea535a4	0.32267487
8	0x3ea7ac95	0.32748857
9	0xbcc82d5b	-0.02443569

weight f4 [10, 10]
0	0xbd0879b0	-0.033319175
1	0x3e43a443	0.1910563
2	0xbce68bcd	-0.028142834
3	0x3eaa8f54	0.33312476
4	0x3e80e611	0.25175527
5	0x3e3e7e5b	0.18602888
6	0x3e4c86bb	0.1997327
7	0x3e36ef11	0.17864634
8	0x3c905d37	0.017622573
9	0x3d07f307	0.033190753
10	0xbd94cc80	-0.07265568
11	0x3e4110e7	0.18854104
12	0xbea61d86	-0.324444
13	0x3e8b976a	0.27263957
14	0x3e883d46	0.26609248
15	0xbed51666	-0.4161865
16	0xbe1c996b	-0.152929
17	0xbe89614d	-0.26832047
18	0x3bd5056b	0.00650089
19	0xbea64c1e	-0.32479948
20	0x3f411ee1	0.7543774
21	0xc01a294a	-2.40877
22	0xbe012169	-0.12610401
23	0xbfa4f480	-1.2887115
24	0xbf2c4735	-0.67296153
25	0xbae93775	-0.0017793017
26	0xbf033aac	-0.512614
27	0x3f326cd5	0.69697315
28	0x3e3ac77c	0.1824016
29	0x3f052cd0	0.52021503
30	0x3e34425d	0.1760344
31	0xbe08b5de	-0.13350627
32	0x3e0209d3	0.1269906
33	0xbe98907e	-0.2979774
34	0xbe8113ef	-0.2521052
35	0xbd137867	-0.036003496
36	0x3eb6478f	0.3560147
37	0x3ed9f8a1	0.425725
38	0x3d9ddfa4	0.07708672
39	0xbd11bd80	-0.035581112
40	0xbcf25b3a	-0.029584516
41	0x3de137d3	0.10996976
42	0xbe9c7885	-0.305607
43	0x3d12500b	0.035720866
44	0x3e108fce	0.14117357
45	0xbe881a03	-0.26582345
46	0x3e02469a	0.12722245
47	0xbe8489fe	-0.2588653
48	0xbe7092b2	-0.2349346
49	0x3c264958	0.010149322
50	0x3e68d26c	0.2273652
51	0xbe846aad	-0.25862637
52	0xbe210388	-0.15724003
53	0xbdc74dbb	-0.09731623
54	0xbea86e28	-0.32896543
55	0x3e37e93b	0.17960064
56	0x3ea9c113	0.33155116
57	0x3ecc74de	0.39932913
58	0xbca571e8	-0.020195916
59	0x3ecd9ffb	0.40161118
60	0xbe80a2ab	-0.25124106
61	0xbf297b30	-0.66203594
62	0x3eb186a4	0.34673035
63	0xbd8e9435	-0.06961862
64	0xbec8f780	-0.39251328
65	0x3e2dda71	0.1697786
66	0xbde39a4d	-0.11113415
67	0x3ee3cc2e	0.44491714
68	0x3eb77938	0.3583467
69	0x3dba0ea5	0.090848245
70	0xbe09f901	-0.13473894
71	0x3f5ee4fb	0.87068146
72	0x3d0f12fb	0.03493021
73	0x3e873770	0.26409483
74	0x3ebd7ee5	0.37010875
75	0xbced6358	-0.028978035
76	0xbf03dcdf	-0.515089
77	0x3c1d8628	0.009614505
78	0x3de22df3	0.1104392
79	0xbe1d0f18	-0.15337789
80	0x3e90d4fa	0.28287488
81	0x3f1059a1	0.5638676
82	0xbe65a158	-0.22424829
83	0x3d8dc401	0.069221504
84	0x3eeae836	0.45880288
85	0xbe85b7e9	-0.26116875
86	0xbeb55e2f	-0.3542342
87	0x3d471e78	0.04861304
88	0xbeae0c87	-0.33993933
89	0xbc291ac6	-0.010321325
90	0xbe0655a0	-0.13118601
91	0x3f53f8ab	0.8280131
92	0xbe1db753	-0.15401964
93	0x3f0c39c6	0.54775655
94	0x3f06b935	0.52626354
95	0xbb26ade6	-0.0025433241
96	0x3dd75b7f	0.10515498
97	0xbe5a9b0f	-0.21348213
98	0x3d8012ea	0.062536076
99	0xbded0257	-0.11572712

bias f4 [10]
0	0xbd310ea0	-0.043226838
1	0x3ed85ca6	0.42258185
2	0x3f37bda3	0.7177374
3	0x3dff8fc4	0.12478593
4	0x3ea4eb7b	0.32210907
5	0x3e0aa9b2	0.13541296
6	0x3eaabb09	0.33345821
7	0x3de720ed	0.11285577
8	0x3eab3119	0.33435896
9	0x3ed263e1	0.41091827

weight f4 [1, 10]
0	0xbe02f2d9	-0.12787952
1	0xbecd6533	-0.4011627
2	0x3f5b9857	0.8577933
3	0x3ed7bf49	0.42138126
4	0xbeb6f6ff	-0.35735318
5	0x3eaeb3ec	0.34121644
6	0x3e9698c6	0.29413432
7	0xbebd0c63	-0.36923513
8	0xbefd2168	-0.4943955
9	0xbe8098be	-0.25116533
