twig/TWIG-I/checkpoints/chkpt-ID_5291928176707605_e10.pt (torch, 6372 bytes, 5 tensors)

weight f4 [10, 22]
0	0x3dacf4a2	0.084450975
1	0xbdbdfb9e	-0.09276508
2	0x3e219be4	0.15782124
3	0xbe380418	-0.17970312
4	0xbe8e210d	-0.2775959
5	0x3d3e34d1	0.04643709
6	0xbe8adab5	-0.27119985
7	0xbd87cb36	-0.06630556
8	0xbdf2678a	-0.11836155
9	0xbe69594f	-0.22787975
10	0xbeb3d40c	-0.35122716
11	0xbcf581e5	-0.029969165
12	0xbe233bb3	-0.15940742
13	0x3ec7e43b	0.39041314
14	0x3e3a38c4	0.18185717
15	0xbe5ca2da	-0.21546498
16	0xbe983d46	-0.29734248
17	0xbea244a0	-0.31692982
18	0x3e820c66	0.25400084
19	0xbcb38eea	-0.021918733
20	0x3cfbdc44	0.03074468
21	0xbee3c4c2	-0.44486052
22	0xbd613bf5	-0.05498882
23	0xbea3b5fb	-0.31974778
24	0xbda99d64	-0.08281973
25	0x3d66b61a	0.05632601
26	0xbdb99eeb	-0.09063514
27	0xbd26a791	-0.040687148
28	0xbe870e96	-0.26378316
29	0x3da62eb3	0.08114376
30	0xbe90ba2e	-0.28267044
31	0x3e2dcf81	0.16973688
32	0xbd5e4495	-0.054264624
33	0x3d9a931f	0.07547592
34	0x3e864af4	0.2622906
35	0x3e1b3404	0.15156561
36	0x3cb2b074	0.021812655
37	0x3e0cc938	0.13748634
38	0xbd2af7b9	-0.041740153
39	0xbe534597	-0.20632015
40	0xbd87d402	-0.06632234
41	0xbd7d330e	-0.061816268
42	0x3e2f42aa	0.17115274
43	0xbe829817	-0.2550666
44	0xbbd99c1e	-0.006640925
45	0xbf526dac	-0.82198596
46	0xbe37061f	-0.17873429
47	0xbd609969	-0.054833803
48	0xbedfabff	-0.4368591
49	0xbf2c5ecd	-0.67332155
50	0x3c2db677	0.010602585
51	0xbf5a470f	-0.85264677
52	0xbd7731ea	-0.060350336
53	0x3d18c174	0.037293866
54	0xbd7249c6	-0.059152387
55	0x3dd31a4a	0.103077486
56	0x3d99daa7	0.07512408
57	0xbe2be40c	-0.16786212
58	0xbd1a3711	-0.03765017
59	0x3c010cc2	0.007876577
60	0xbe4c0746	-0.1992465
61	0x3fed8de2	1.8558924
62	0x3e0eaccf	0.13933109
63	0x3d9c9308	0.076452315
64	0xbda2dadf	-0.079519026
65	0xbdaf9819	-0.08573932
66	0xbebb5dda	-0.3659504
67	0xbe526ac8	-0.20548546
68	0x3c9cd9a4	0.019146748
69	0xbeab2625	-0.3342754
70	0x3e65c689	0.22439016
71	0xbe52e8c5	-0.20596607
72	0xbd6a0f27	-0.057143357
73	0xbe789426	-0.24275264
74	0xbc3ecdf0	-0.011645779
75	0xbe9245ed	-0.28568974
76	0x3db55e0a	0.08855827
77	0xbdb5301e	-0.08847068
78	0xbe4218b3	-0.18954735
79	0xbe58f614	-0.21187621
80	0xbe825f14	-0.25463164
81	0x3d13ebfc	0.036113724
82	0xbe0d56d3	-0.13802652
83	0x3e923347	0.28554747
84	0x3d6fa2d4	0.058504894
85	0xbe256e7a	-0.16155425
86	0xbd0c3ab5	-0.034235675
87	0x3edb3d86	0.42820376
88	0x3d9daee7	0.076993756
89	0x3f6f4e07	0.93478435
90	0xbce62c5a	-0.02809732
91	0x3e1e2d25	0.15446909
92	0xbc2ad2cc	-0.010426234
93	0x3cd6d5d9	0.026225017
94	0xbd09b782	-0.033622272
95	0x3ccc4442	0.024934892
96	0xbcb569b6	-0.022145133
97	0xbee1f331	-0.44130853
98	0xbdabefbb	-0.08395334
99	0xbf0539c3	-0.5204126
100	0xbe168d6f	-0.1470239
101	0xbf9aa460	-1.2081413
102	0xbe046dbc	-0.12932485
103	0x3bc01e7f	0.0058630104
104	0xbd8b69bb	-0.06807276
105	0xbf4166df	-0.75547594
106	0x3dd67bf4	0.10472861
107	0x3f12b195	0.5730222
108	0x3d7e4008	0.062072784
109	0x3f856132	1.0420287
110	0xbdcb65a7	-0.09931498
111	0xbdf203ce	-0.11817132
112	0xbebdb103	-0.37049112
113	0xbcc1ae84	-0.023642786
114	0xbe226a7c	-0.15860933
115	0x3d852f5f	0.06503176
116	0x3ceeef23	0.029166764
117	0xbdf15d99	-0.117854305
118	0xbdce6241	-0.10077334
119	0xbeb6784a	-0.35638648
120	0x3ebd9f71	0.37035707
121	0x3ea34076	0.31885117
122	0x3e81927a	0.25307065
123	0xbea668fc	-0.32501972
124	0x3d1498a0	0.036278367
125	0x3d0fbde9	0.03509322
126	0xbddd303a	-0.10800214
127	0xbe3fa88c	-0.1871664
128	0xbec2dd92	-0.3805967
129	0xbdac6895	-0.08418385
130	0xbed2c9ec	-0.4116968
131	0x3e81ea9f	0.25374314
132	0x3e433b59	0.19065608
133	0xbdc2d207	-0.09512716
134	0xbd6d6f6c	-0.05796759
135	0x3dba2f7d	0.09091089
136	0x3d43d3f7	0.047809567
137	0x3dc921f4	0.09820929
138	0xbe2f3cbd	-0.17113014
139	0x3dac1ab8	0.08403534
140	0xbdec9a70	-0.11552894
141	0xbe9c828d	-0.30568352
142	0xbe5c0d6c	-0.21489495
143	0x3ce024bf	0.027361272
144	0xbe445bb9	-0.19175614
145	0x3f3c18d7	0.734754
146	0x3d5bd751	0.05367214
147	0xbcb1f863	-0.021724885
148	0x3da0478f	0.07826149
149	0x3d008d94	0.03138502
150	0x3e7bc93e	0.24588487
151	0xbe0fe5ca	-0.14052501
152	0x3e435de5	0.19078787
153	0xbf3cafe4	-0.7370589
154	0xbd31d8ef	-0.043419775
155	0xbe49a88a	-0.19693199
156	0x3ebc5d5d	0.3678998
157	0xbd3b4f62	-0.045730002
158	0xbd98e702	-0.07465936
159	0x3d960e95	0.07327
160	0xbe03f0a9	-0.12884773
161	0xbeb3c6a7	-0.35112497
162	0xbc0a3e36	-0.008437684
163	0x3e1228cf	0.1427338
164	0x3d1190d3	0.035538506
165	0x3e73ef95	0.23821862
166	0x3dffc8dc	0.12489483
167	0xbe5241fe	-0.20532987
168	0xbdbfd361	-0.09366489
169	0xbe9716c1	-0.29509547
170	0x3d182e94	0.037153795
171	0xbe0b7165	-0.13617475
172	0xbcea675c	-0.028613739
173	0xbd742103	-0.059601795
174	0x3c557932	0.0130293835
175	0xbe49153f	-0.19637011
176	0x3d95538d	0.07291327
177	0xbe2f50d8	-0.17120683
178	0x3d549331	0.051898185
179	0xbd3fcf3e	-0.0468285
180	0xbe8087a1	-0.25103477
181	0xbea6aa0f	-0.3255162
182	0xbd14bbff	-0.0363121
183	0x3c0b5474	0.008504022
184	0x3d1c3baf	0.038142856
185	0x3d9625ae	0.073314056
186	0x3d187970	0.037225187
187	0xbd109d86	-0.035306476
188	0x3dd0cd71	0.10195435
189	0x3d440952	0.04786045
190	0xbd9434c2	-0.07236625
191	0xbdaab427	-0.083351426
192	0x3e290033	0.16503982
193	0xbaf9a378	-0.001904591
194	0x3e11e877	0.14248835
195	0x3dc0efd5	0.09420744
196	0xbd9345e9	-0.07191069
197	0x3ee934dd	0.45548144
198	0x3d9b330e	0.07578097
199	0x3eaac1e6	0.33351058
200	0x3ebe377c	0.37151706
201	0xbed26d95	-0.4109923
202	0x3e8be118	0.2732017
203	0x3d1d9a0b	0.038476985
204	0x3b803c50	0.00391344
205	0xbc9d3ebc	-0.019194953
206	0x3d188bd9	0.037242744
207	0x3c950408	0.018190399
208	0x3e1beeef	0.15227865
209	0x3e2636de	0.16231868
210	0x3d29715d	0.041367877
211	0xbe196c3d	-0.14982696
212	0xbe83db9c	-0.25753486
213	0x3e1dbdfc	0.15404505
214	0xbe7d945b	-0.24763624
215	0xbf04d25d	-0.5188349
216	0x3e40b13f	0.18817614
217	0x3ee1d8d3	0.44110736
218	0x3e16844e	0.14698908
219	0x3eb0293c	0.3440646

bias f4 [10]
0	0x3d2b5168	0.041825682
1	0x3d8978f5	0.06712524
2	0xbea72e74	-0.32652628
3	0x3e5da64a	0.21645465
4	0x3e484a7a	0.1955966
5	0xbd937f0f	-0.07201969
6	0xbb43c136	-0.0029869801
7	0x3d159a30	0.036523998
8	0x3d5ec2a8	0.054384857
9	0x3cc4a362	0.024003688

weight f4 [10, 10]
0	0xbe577144	-0.21039301
1	0xbea00262	-0.31251818
2	0xbe6bb9ca	-0.23020092
3	0xbea30a4d	-0.31843796
4	0x3e354a42	0.17704108
5	0xbea564c4	-0.3230344
6	0xbea962e5	-0.33083263
7	0x3dec67f2	0.115432635
8	0xbdea9c50	-0.114555955
9	0xbde71911	-0.11284078
10	0x3d6e208d	0.05813651
11	0xbed8347d	-0.42227545
12	0x3e587e10	0.21141839
13	0xbea61241	-0.32435802
14	0xbea42c3a	-0.32064992
15	0xbe2012a3	-0.1563211
16	0x3d4ef07e	0.05052232
17	0x3e9ad9d9	0.3024433
18	0xbddc86ec	-0.10767922
19	0xbeb5a786	-0.35479373
20	0xbe1bc605	-0.15212257
21	0xbe36f1d2	-0.17865685
22	0xbe4123da	-0.18861333
23	0xbe242bce	-0.16032335
24	0xbe86636f	-0.26247737
25	0xbe0a0f6b	-0.13482444
26	0x3de3d787	0.11125093
27	0xbe491f7f	-0.19640921
28	0xbe93a5fe	-0.2883758
29	0xbd0c4452	-0.034244843
30	0x3ec7a2cb	0.3899139
31	0xbd57739f	-0.0526005
32	0xbf95c99c	-1.1702151
33	0x3e1c81eb	0.15283935
34	0x3ef77549	0.4833167
35	0x3f0073ee	0.50176895
36	0x3f15a3f0	0.58453274
37	0x3edbda77	0.42940113
38	0xbe07bf25	-0.1325651
39	0x3eebc013	0.46044978
40	0x3e1aa21f	0.15100907
41	0xbdbeed92	-0.09322657
42	0x3f8e5d3f	1.1122206
43	0x3f7da700	0.99082947
44	0xbffdcb5c	-1.9827685
45	0xbd5257c6	-0.05135324
46	0xbed40145	-0.4140722
47	0x3eac8e28	0.33702207
48	0x3eb9fbba	0.36324865
49	0xbe4cff13	-0.20019178
50	0xbe3b1f8f	-0.18273757
51	0x3dd69357	0.104773216
52	0xbebf61f1	-0.3737941
53	0x3e6b059b	0.22951357
54	0x3e1ed7f7	0.15512072
55	0x3e5f4b31	0.21806027
56	0xbbcb8b65	-0.0062116855
57	0x3e13136c	0.14362878
58	0x3e13a5fe	0.1441879
59	0x3dcb267c	0.0991945
60	0x3e156709	0.14590086
61	0x3ebd3ba1	0.36959556
62	0xbdc524ac	-0.09626135
63	0xbe2aa5bf	-0.1666479
64	0xbcb4b540	-0.022059083
65	0xbe1fc770	-0.15603423
66	0xbecb8a37	-0.39753887
67	0x3e1692b4	0.147044
68	0xbea58012	-0.32324272
69	0x3b97fce3	0.0046383007
70	0xbe958c42	-0.2920857
71	0xbd9a52a9	-0.075352974
72	0x3f11bc1d	0.56927663
73	0x3e50ec0e	0.20402548
74	0xbedf9621	-0.43669227
75	0xbeb60dab	-0.35557303
76	0xbd7a636f	-0.061129984
77	0xbdaceda2	-0.08443762
78	0x3eb7cca0	0.35898304
79	0xbe18e065	-0.1492935
80	0xbe8090cd	-0.25110474
81	0x3ebec58b	0.37260088
82	0x3f4c948a	0.7991415
83	0xbd9de404	-0.07709506
84	0xbe52c01c	-0.20581096
85	0xbe2e07f4	-0.16995221
86	0xbdca70c7	-0.09884792
87	0xbe1e204d	-0.1544201
88	0x3ec450c4	0.3834287
89	0x3de80ac9	0.11330182
90	0xbe067a7f	-0.13132666
91	0xbe51fc09	-0.205063
92	0x3f322200	0.6958313
93	0x3eac9d7d	0.33713904
94	0xbec79a8a	-0.3898509
95	0x3e211fcb	0.15734784
96	0x3d7d2cb8	0.061810225
97	0xbdb752ae	-0.08951317
98	0xbeb58dd1	-0.3545976
99	0xbce954d1	-0.028482826

bias f4 [10]
0	0x3dba33b9	0.090918966
1	0xbed1ea67	-0.40999147
2	0x3af7b81f	0.0018899477
3	0xbd0396c1	-0.032126192
4	0x3d3cd299	0.04609928
5	0xbd921a64	-0.0713394
6	0x3d80bc13	0.06285872
7	0x3f18a02e	0.59619415
8	0x3e49f564	0.19722515
9	0xbdf82a12	-0.12117399

weight f4 [1, 10]
0	0x3acf8caa	0.0015834768
1	0xbe2a0bd0	-0.16606069
2	0xbe0e6e88	-0.13909352
3	0x3f257001	0.6462403
4	0xbe52cc0e	-0.20585653
5	0x3dd02744	0.10163739
6	0xbe2032eb	-0.15644424
7	0xbe92b983	-0.2865716
8	0xbe300df4	-0.17192823
9	0xbec322a1	-0.38112357
