twig/TWIG-I/checkpoints/chkpt-ID_1249119989044289_e15.pt (torch, 6244 bytes, 5 tensors)

weight f4 [10, 20]
0	0x3f5b4a37	0.8566012
1	0x3fd722cb	1.6807493
2	0xbd8bceeb	-0.06826576
3	0x3e734302	0.2375603
4	0x3e032b35	0.12809451
5	0x3e3b5ead	0.18297835
6	0x3c324a16	0.010881921
7	0xbb5cb616	-0.0033677868
8	0xbd9bb8ec	-0.076036304
9	0xbfa6eaf4	-1.3040452
10	0xbe3eada4	-0.18620926
11	0x3c25cf9d	0.0101203
12	0x3c290d81	0.010318161
13	0x3cd33d6b	0.025786122
14	0xbd2eea6f	-0.042704042
15	0x3bfdb863	0.007742928
16	0xbfa85bbc	-1.3152995
17	0xbd94fbbc	-0.07274577
18	0xbce26361	-0.027635278
19	0xbe858846	-0.2608053
20	0xbec1bb64	-0.3783828
21	0x3ec5f79e	0.3866548
22	0x3fe9c9ed	1.8264748
23	0x3ddd5cbf	0.108087055
24	0xbee9e44a	-0.45681983
25	0x3f0f657c	0.5601423
26	0xbd0cb12b	-0.034348648
27	0x3d709c04	0.058742538
28	0xbdafdeaf	-0.085873954
29	0x3f4f86c6	0.8106502
30	0x3e066312	0.1312373
31	0x3d897c65	0.067131795
32	0x3b7f6dac	0.0038975282
33	0x3e0c61e0	0.13709211
34	0x3eecccaf	0.4624991
35	0xbdb58367	-0.08862954
36	0x3eb7dc33	0.35910186
37	0xbf66f436	-0.90216386
38	0xbf00d970	-0.50331783
39	0xbd9b6767	-0.07588082
40	0x3e93c545	0.28861442
41	0x3ee4fb5f	0.4472303
42	0x3e4fc563	0.20290141
43	0xbe3e56b7	-0.18587767
44	0x3f9b6a20	1.2141762
45	0x3e0af425	0.13569696
46	0x3d12723d	0.035753477
47	0x3d5cf172	0.053941198
48	0x3d9ef556	0.07761638
49	0x3cc43f5f	0.023955999
50	0x3e95a31b	0.29226002
51	0xbd71a9ec	-0.05899994
52	0x3e72fe98	0.23729932
53	0xbdffb847	-0.1248632
54	0xbeac0493	-0.3359724
55	0xbc912d64	-0.01772184
56	0xbf3ef0ae	-0.74586
57	0x3cf30f2d	0.029670322
58	0x3e630f83	0.22173886
59	0xbd8a2be8	-0.06746656
60	0xbdc92700	-0.09821892
61	0xbfae73fd	-1.3629147
62	0x3a517e24	0.00079915137
63	0xbf3492df	-0.7053661
64	0xbf435685	-0.76303893
65	0xbedea2f1	-0.4348369
66	0x3d612e01	0.054975513
67	0xba911e89	-0.0011071722
68	0xbc2e2add	-0.010630337
69	0x3ed0f6df	0.40813348
70	0xbdf1a465	-0.11798934
71	0xbc205722	-0.009786399
72	0xbc647b74	-0.013945449
73	0xbd0337e4	-0.032035723
74	0xbd1a3bcb	-0.03765468
75	0x3d541ee2	0.051787265
76	0x3ffc1f65	1.9697081
77	0x3d9761d9	0.0739171
78	0x3d02639b	0.031833272
79	0xbd8432e9	-0.06455023
80	0xbf3691a9	-0.7131601
81	0xbfea119e	-1.8286626
82	0xbe0ab182	-0.13544276
83	0x3d1eec9e	0.038799874
84	0xbead7141	-0.33875468
85	0xbf240962	-0.6407682
86	0x3d318e2f	0.043348487
87	0xbd81836a	-0.06323893
88	0x3cb1b61e	0.021693286
89	0x3ed2716a	0.41102153
90	0xbcb599c3	-0.022168046
91	0x3d3501ce	0.044191174
92	0x3cf4e1a7	0.029892756
93	0xbcf2a9c9	-0.029621975
94	0xbc74d143	-0.01494247
95	0xba03017b	-0.0004997474
96	0x3ffb9039	1.9653388
97	0x3d688b8e	0.056773715
98	0x3d93c88d	0.072159864
99	0x3d49704d	0.049179364
100	0x3e582b0d	0.21110173
101	0x3f3b5bab	0.7318675
102	0xbd945e45	-0.07244543
103	0xbd7f665e	-0.062353484
104	0xbe169f40	-0.14709187
105	0x3f03dabe	0.5150565
106	0xbd6426fc	-0.05570124
107	0xbcc501a8	-0.024048641
108	0xbe28c964	-0.16483074
109	0x3e2fbbbb	0.17161457
110	0xbe803a15	-0.25044313
111	0xbe1fb49c	-0.15596241
112	0xbe1e9d7a	-0.1548976
113	0xbd721597	-0.05910262
114	0xbe567a50	-0.20945096
115	0xbe2d7466	-0.16938934
116	0x3e91aa05	0.28450027
117	0x3df73bd9	0.12071962
118	0xbd454b66	-0.04816761
119	0xbefdf998	-0.49604487
120	0x3f0ff559	0.56233746
121	0x3fd3fc7f	1.6561431
122	0xbf0cdba6	-0.55022657
123	0xbdcfa7c2	-0.10139419
124	0xbde7b785	-0.113143004
125	0x3d97f00a	0.07418831
126	0x3dd365da	0.10322161
127	0x3d0637c2	0.03276802
128	0xbd5b9fa3	-0.05361904
129	0xbef3e2b0	-0.47633886
130	0xbe0a2463	-0.13490443
131	0x3d069a69	0.0328621
132	0xbd52ea3c	-0.051492915
133	0x3d23dea1	0.040007237
134	0x3d2a0c48	0.04151562
135	0x3c83c9fb	0.016087523
136	0xbfb53ca4	-1.4159131
137	0x3e5550ac	0.20831555
138	0xbea940dd	-0.330573
139	0xbe044050	-0.12915158
140	0x3f60e565	0.8785003
141	0x3f87f809	1.0622569
142	0xbeb199e6	-0.34687728
143	0x3c51d1ec	0.012806397
144	0x3f970bfe	1.1800535
145	0x3d906235	0.070499815
146	0xbc049afc	-0.008093592
147	0x3c43f36a	0.01195989
148	0xbd8a0b8a	-0.06740482
149	0xbfa5d136	-1.2954471
150	0x3d5a8f43	0.05335928
151	0x3c9d9a77	0.019238694
152	0x3d554255	0.052065212
153	0x3d393b14	0.045222357
154	0xbc1bdf60	-0.009513706
155	0x3d23ce0a	0.039991416
156	0xc009ea77	-2.1549356
157	0xbd63a68a	-0.055578746
158	0x3e38e3df	0.18055676
159	0x3dd44c11	0.10366071
160	0x3f7b3856	0.98132837
161	0x3ea7796f	0.32709834
162	0x3dc5d1b3	0.096591376
163	0xbe63f7e7	-0.22262536
164	0x40003bac	2.003642
165	0x3d5c7570	0.053822935
166	0x3d801553	0.06254067
167	0x3cac0659	0.02099912
168	0x3c86acc9	0.016439812
169	0xbf46d2b1	-0.7766524
170	0xbc522324	-0.012825761
171	0xbbfcccb3	-0.0077148317
172	0xbce336cd	-0.027736092
173	0xbd1e64d4	-0.038670376
174	0x3d24ab1e	0.040202253
175	0x3c490b66	0.012270784
176	0xc0288d40	-2.6336212
177	0x3dd3061a	0.10303898
178	0xbdb37690	-0.087628484
179	0xbd3de346	-0.046359323
180	0xbe93176c	-0.28728807
181	0x3e9f1d37	0.31076977
182	0x3f609982	0.87734234
183	0xbdfb2376	-0.12262623
184	0x3ebf8401	0.37405398
185	0xbcbbcf33	-0.022925949
186	0x3c1ec0eb	0.00968955
187	0x3d8f413c	0.06994864
188	0xbda6b89d	-0.08140681
189	0x3ad7c315	0.0016461337
190	0x3eb16db6	0.34654015
191	0x3e0a2fc7	0.13494788
192	0x3ddf38eb	0.10899528
193	0xbea96e65	-0.33092037
194	0xbd8691bf	-0.065707676
195	0xbe648b30	-0.22318721
196	0x3eb9d697	0.36296532
197	0x3e20258a	0.1563932
198	0xbda66f7a	-0.08126731
199	0x3f07d350	0.5305681

bias f4 [10]
0	0x3e48358c	0.19551677
1	0xbe5aabea	-0.21354643
2	0xbf1638ce	-0.5868043
3	0xbe2ae0c9	-0.16687311
4	0xbe258c0d	-0.16166706
5	0xbe54fccf	-0.20799564
6	0xbdbc3df6	-0.091915056
7	0x3e7813c1	0.24226286
8	0x3d0e53f6	0.03474804
9	0xbb2f632b	-0.002676199

weight f4 [10, 10]
0	0xbec9ca58	-0.3941219
1	0xbe609e00	-0.21935272
2	0xbbc31fd4	-0.005954722
3	0x3e5021b5	0.20325358
4	0x3ed4df75	0.41576734
5	0xbe61f3fc	-0.22065729
6	0xbece4e12	-0.40293938
7	0xbdd366af	-0.1032232
8	0xbf305a90	-0.6888819
9	0x3e6a6bdf	0.22892712
10	0xbf1674f4	-0.58772206
11	0xbe80214d	-0.25025406
12	0xbe01d592	-0.12679127
13	0x3ecd3789	0.40081432
14	0x3e8b56dc	0.27214706
15	0xbef0b6a9	-0.4701436
16	0xbe883442	-0.2660237
17	0xbf424201	-0.75881964
18	0xbece42db	-0.40285382
19	0xbdd52a00	-0.104084015
20	0x3e6503b3	0.22364692
21	0xbf82483c	-1.0178294
22	0x3d8ebfc5	0.06970171
23	0xbf4e0343	-0.80473727
24	0xbfcb96c3	-1.5905384
25	0xbeabbffc	-0.3354491
26	0xbea3a3bf	-0.31960866
27	0x3fbeb833	1.4899963
28	0x3f580a48	0.8439069
29	0x3ec7efc9	0.3905013
30	0x3dc6e5eb	0.09711822
31	0xbe3afb34	-0.18259889
32	0xb965976e	-0.00021895554
33	0xbfbda94c	-1.481729
34	0xbf2808cb	-0.65638417
35	0xbe99920b	-0.29994234
36	0x3e5a4f8f	0.21319412
37	0x3f67bf4e	0.9052628
38	0x3f574dcd	0.8410309
39	0x3e04f91f	0.12985657
40	0xbe895b6e	-0.26827568
41	0xbe4a9436	-0.197831
42	0xbe9b1315	-0.30287996
43	0x3e87eb32	0.26546627
44	0x3f5008e8	0.8126359
45	0xbef3976f	-0.47576472
46	0xbe0ee656	-0.13955054
47	0xbee360db	-0.44409832
48	0xbf783ae2	-0.9696485
49	0x3e993c2c	0.2992872
50	0x3f14fc4e	0.58197486
51	0x3d3c20bd	0.04592966
52	0xbea95a5d	-0.33076754
53	0xbe3bfb9c	-0.183577
54	0xbe85932d	-0.2608885
55	0x3e42d270	0.19025588
56	0x3e7a4c04	0.2444306
57	0x3f0b5ae8	0.54435587
58	0x3e7e8673	0.24855976
59	0x3ee288fb	0.44245133
60	0xbdc86dfb	-0.09786602
61	0xbe8f59b7	-0.27998134
62	0xbe63d164	-0.22247845
63	0xbef6490a	-0.481026
64	0xbf0d1240	-0.5510597
65	0xbeae0fa1	-0.339963
66	0xbed56652	-0.41679627
67	0x3f295dfc	0.66159034
68	0x3f8f6bc3	1.1204761
69	0xbe0468ff	-0.12930678
70	0xbf823954	-1.0173745
71	0x3d2b2302	0.041781433
72	0xbe22d1ef	-0.15900396
73	0x3eb302b9	0.34963015
74	0x3f18ba57	0.5965933
75	0x3e5b2c6d	0.21403666
76	0xbf867b26	-1.0506332
77	0x3d3fcf41	0.046828512
78	0xbf6e6cc7	-0.9313473
79	0x3eae3fe0	0.34033108
80	0xbe98c55d	-0.29838076
81	0x3ed6e140	0.41968727
82	0x3ea2a2fe	0.31764978
83	0x3cc13b77	0.023587925
84	0x3f4575d2	0.77132905
85	0xbe15ce80	-0.14629555
86	0xbf0c5f22	-0.5483266
87	0x3dc148ea	0.094377354
88	0xbf5b4175	-0.85646755
89	0x3da64c7c	0.08120057
90	0xbf53be51	-0.82712275
91	0xbe876e3c	-0.2645129
92	0xbd73259e	-0.059362046
93	0x3f26ac20	0.6510639
94	0x3f1a266f	0.60214895
95	0xbf69c8fa	-0.9132229
96	0xbdf09608	-0.11747366
97	0xbf46a104	-0.7758944
98	0xbf60ecf0	-0.8786154
99	0x3e979db8	0.29612517

bias f4 [10]
0	0x3e649e8c	0.22326106
1	0x3e8be297	0.27321312
2	0xbe5d4b8a	-0.21610847
3	0x3e8a36fa	0.2699507
4	0x3ec8fe87	0.3925669
5	0xbe6f6b1c	-0.23380703
6	0x3eb175fe	0.34660333
7	0x3ed9b51d	0.4252099
8	0x3eb4c784	0.35308468
9	0x3f4f4580	0.80965424

weight f4 [1, 10]
0	0xbe42935d	-0.19001527
1	0xbee26b3d	-0.4422244
2	0x3fa49064	1.2856565
3	0x3f70a0d7	0.9399542
4	0xbf27d2d8	-0.655561
5	0x3e5f40a0	0.21801996
6	0x3f3c4579	0.73543507
7	0xbef4fc83	-0.478489
8	0xbf410619	-0.7539993
9	0xbe638efa	-0.2222251
