twig/TWIG-I/checkpoints/chkpt-ID_7167104065890587_e5.pt (torch, 6234 bytes, 5 tensors)

weight f4 [10, 20]
000000 eb 9c 1b bd 3d 28 cb bd 43 db d1 3d cf 56 1c be
       -0.037991446 -0.09919784 0.10246899 -0.1526749
000010 fd 0e a9 be 1d 85 35 bd 64 b3 08 3d 25 b4 69 3d
       -0.33019248 -0.0443164 0.033374205 0.057056565
000020 60 b0 20 3d 93 75 5a be 6d cc 4b be 70 b3 6a bd
       0.039230704 -0.21333914 -0.19902201 -0.05730003
000030 69 55 bf bd ff 53 5b 3d b5 b1 cb bd 93 a0 02 be
       -0.093424626 0.0535469 -0.09946004 -0.12756567
000040 f2 0a a4 be f6 15 61 be 93 43 da 3b 1d 62 61 bd
       -0.320396 -0.21981034 0.0066608875 -0.05502521
000050 0b e1 b3 be d5 54 a4 be 00 21 b9 bc 3b 77 31 bf
       -0.35132632 -0.32095972 -0.022598743 -0.69322556
000060 d6 de 3b be 30 4e 9d bd c6 16 7d 3d 1e 07 2c be
       -0.18346724 -0.07680929 0.061789297 -0.1679959
000070 29 9d 00 be 23 2c cb 3c 78 68 19 be e4 0b dd 3d
       -0.12559952 0.02480132 -0.14981258 0.107932836
000080 72 3c b1 3d c1 a9 6a 3d dd 12 a9 3c 8b f4 c6 3d
       0.08654107 0.057290796 0.020638878 0.097146116
000090 44 79 44 3f d0 14 81 3d d5 10 09 3d 2c c2 08 bd
       0.76747537 0.06302798 0.033463318 -0.0333883
0000a0 c8 57 30 be b4 15 19 be 5c 3a b7 3b 6c 56 81 3d
       -0.17220986 -0.14949685 0.005591674 0.06315312
0000b0 d3 aa 28 bc 20 97 c1 3e 17 4c 32 3e 75 4d 0f be
       -0.010294634 0.37810612 0.17411838 -0.13994391
0000c0 c5 58 2f be 93 41 82 bd 75 a2 0c 3d b3 ab bd 3d
       -0.17123707 -0.063601635 0.03433462 0.09261265
0000d0 f8 bb fb bd 6f 25 16 bd 0f ec ae bd 07 b1 dc 3d
       -0.122917116 -0.036656793 -0.08541118 0.10775953
0000e0 f3 0b 59 bc 7f c7 f9 bd ac ea 05 3d a5 61 4a be
       -0.013247478 -0.12196254 0.032694504 -0.19763811
0000f0 69 8f 21 3e e1 7e 89 be a3 35 c9 3d 33 81 c4 be
       0.15777363 -0.26854613 0.098246835 -0.3837982
000100 ce a4 1c be 96 42 db be fd dd e7 bc 19 1a ea bd
       -0.15297243 -0.4282424 -0.028304094 -0.11430759
000110 34 09 c1 3d db 1f 84 bd a0 7c ea 3c 6a 44 26 39
       0.094255835 -0.064513884 0.028623879 0.0001585648
000120 ff 83 93 bb 94 a1 48 bd 2d f9 e1 bd 6b d4 36 3d
       -0.004501819 -0.048982218 -0.11033855 0.04463617
000130 d0 d2 bf 3e 7d 11 c5 3b 4a 69 66 3b ae c2 3d be
       0.37465525 0.0060140477 0.0035157972 -0.18531296
000140 c8 14 1c be 04 f2 1c bd 02 e3 d0 3c d5 14 33 3d
       -0.15242302 -0.03831674 0.02549887 0.04372104
000150 99 ad 1b 3d 9e 50 c3 be 05 40 d5 3d ab e4 9b 3d
       0.038007353 -0.38147444 0.104126014 0.07611974
000160 5c 91 70 be 71 97 5e 3e c2 b3 41 bc e1 92 48 3d
       -0.2349295 0.21737458 -0.011822643 0.0489682
000170 b5 a1 3e 3d 70 7a 8e ba f5 74 34 bd fe 73 75 3d
       0.046540935 -0.001087023 -0.04405685 0.059925072
000180 4f 24 37 3e 0a f7 29 be 4e 15 25 3e 53 e0 94 bd
       0.17884944 -0.16598144 0.16121408 -0.07269349
000190 ff 8e 53 3d 26 c5 c3 bb 34 8c 4f be d9 fe 02 bd
       0.051650044 -0.0059744297 -0.20268327 -0.031981323
0001a0 dc ae 13 3e 35 ad 99 3e 2b 90 81 3d 58 30 55 3e
       0.14422172 0.3001496 0.06326326 0.20819223
0001b0 17 2e f5 bd 55 c7 1b 3d c3 b8 3c be ab c2 60 be
       -0.119716816 0.038031895 -0.18429856 -0.2194926
0001c0 bd 34 03 bd 14 f1 8a be 52 96 ae bd 43 a5 e0 3d
       -0.032032717 -0.27137053 -0.08524765 0.10969021
0001d0 47 31 d9 3c bc b8 6a 3d 72 ca ed bd 00 59 82 bd
       0.026512755 0.057305083 -0.11610879 -0.06364632
0001e0 6e 36 0d 3e f6 f7 db bb 95 49 57 be 28 0c 0e 3d
       0.13790295 -0.006712909 -0.21024163 0.03467956
0001f0 db 4b 84 bd 5b f2 a2 3e fe 66 0d be d7 ad 2a be
       -0.06459781 0.31825528 -0.1380882 -0.16667877
000200 45 23 da bd 4c 1f 56 be 14 6d 7f be f0 21 47 be
       -0.106512584 -0.20910376 -0.24943954 -0.1944654
000210 9a 64 ad 3d 60 6d 2e 3b ec ca fb 3d e7 69 8a 3d
       0.08466454 0.0026615486 0.12294564 0.067584805
000220 99 fe 65 be d5 42 3b 3d 54 f3 b6 bd ad a0 d0 bd
       -0.22460403 0.045718033 -0.0893313 -0.101868965
000230 41 5a c3 be bc 62 66 be 51 3f 24 bd bf 5f 03 3e
       -0.38154796 -0.22498602 -0.040099446 0.12829493
000240 9a 20 01 be df f3 b6 3e 4f 1f 87 be d9 4b 24 bd
       -0.12610093 0.35732934 -0.26391074 -0.040111396
000250 ce 3c 12 be 39 e5 95 be 00 06 15 3e cc f5 5d 3d
       -0.14281008 -0.29276446 0.1455307 0.05418949
000260 cf ef c1 3d df 44 3c bc 97 7b f2 bc cc 94 61 bc
       0.09469568 -0.0114910295 -0.029599948 -0.013768386
000270 de 42 c2 3c d1 b3 13 3e df 0c 2e bd 24 26 f9 bd
       0.023713525 0.14424063 -0.042492744 -0.12165478
000280 d6 ad c3 be 91 3d 1a be d6 f1 01 3e 27 11 e0 3c
       -0.38218564 -0.15062548 0.1268991 0.027351929
000290 95 79 91 bd c2 b5 89 3e 9d 38 30 3e 23 a5 f4 bd
       -0.07103268 0.26896483 0.17209096 -0.1194556
0002a0 ef 6f a9 bc 17 3b 10 bf 42 fa 29 3e 5c 88 14 3d
       -0.020683257 -0.56340164 0.16599372 0.036262855
0002b0 2e 92 30 be 38 97 bd bd 02 07 a3 bd 23 a1 53 be
       -0.17243263 -0.09257358 -0.07960321 -0.20666938
0002c0 5d 5a b4 3d fd 78 f4 bd 5a 66 85 3d 8d f7 d1 3d
       0.08806298 -0.11937139 0.06513663 0.10252295
0002d0 73 b4 c0 be 31 33 04 bd 33 e4 4f 3d 00 4b b6 3d
       -0.37637672 -0.032275382 0.050754737 0.08901024
0002e0 13 02 af 3e 3e ea 4c 3e 4d de 84 bd 56 c0 02 3d
       0.3418127 0.20011231 -0.06487713 0.031921707
0002f0 a8 b3 dc 3d 47 ae 30 be 85 59 79 3d bd 79 70 3e
       0.10776454 -0.17253982 0.060876388 0.2348394
000300 af ef 6d 3c 3a b8 86 bd 8a 3e 0f 3e ad 15 38 3d
       0.014522477 -0.06578107 0.139887 0.044942547
000310 8f 10 12 be 29 88 6c 3e 98 c8 26 3d 88 2a 46 3e
       -0.14264129 0.23098816 0.040718645 0.19352162

bias f4 [10]
000000 6d 35 1b 3e 13 5b 7a be 83 06 ed 3e 86 9d da 3d
       0.15157099 -0.24448805 0.4629403 0.106745765
000010 78 d5 d7 3d 55 bb 6e 3e 01 da 58 3e a8 08 a7 3e
       0.10538763 0.23313649 0.21176912 0.32623792
000020 9d 49 8d 3e 81 78 a8 bd
       0.27595225 -0.08226109

weight f4 [10, 10]
000000 23 84 7f 3c d7 38 c7 3d a7 fe a0 bd 40 31 aa 3e
       0.015595469 0.09727638 -0.07861071 0.332407
000010 8d 0b 13 3e e1 23 0b 3e f5 45 3e 3e e8 2c 41 3e
       0.14359875 0.13587905 0.18581374 0.18864787
000020 cb b7 1c 3d 48 d3 a5 bb 12 06 56 bc 2a 77 80 3e
       0.038261216 -0.005060587 -0.013062971 0.25090915
000030 b7 2a be be 9f ce a3 3e 7c f6 58 3e 81 28 98 be
       -0.37141964 0.31993577 0.21187776 -0.29718402
000040 18 4b 19 be 80 5f ab be 8c 8c 07 3c be 9b 8b be
       -0.14970052 -0.33471298 0.008273255 -0.2726726
000050 39 8d 0d be d2 84 73 bf ff 43 ea 3d 93 d9 08 bf
       -0.13823403 -0.9512454 0.114387505 -0.5345699
000060 4a da 04 bd 51 3b 59 3d c9 c1 09 3e 02 af 38 3e
       -0.03243474 0.053035084 0.1345283 0.1803551
000070 64 8d f9 bc 23 53 3a 3e 7b fb 13 3e 9a db 2d 3a
       -0.030462928 0.18195777 0.14451401 0.00066321495
000080 87 45 83 3d 73 3e 80 be 06 a2 99 be 3b 16 08 bd
       0.06409746 -0.25047645 -0.30006427 -0.033224326
000090 9a 2c d2 3e ed 80 cd 3e 7a f6 85 3d 7d 64 65 be
       0.41049653 0.40137425 0.06541152 -0.22401614
0000a0 42 f0 86 3c 6f 5c 92 3e 8d fe 9b be 56 6d cc 3d
       0.016471986 0.28586146 -0.30467644 0.09981792
0000b0 62 d7 e2 3d 53 2a 45 be 70 0e 02 3e 47 1c 91 be
       0.11076237 -0.19254427 0.1270082 -0.28341886
0000c0 70 b2 5a be 2c b2 06 bd b6 c9 12 3e b7 1c 55 be
       -0.21357131 -0.03288476 0.14334759 -0.20811735
0000d0 0a 9f 09 be 7f c7 ff bd ee 36 9d be 75 5d 8e 3e
       -0.13439575 -0.12489223 -0.3070597 0.27805677
0000e0 29 2a c2 3e 47 8e be 3e 6d dc 36 bd 3e ef cd 3e
       0.3792279 0.37217924 -0.04464381 0.4022159
0000f0 e7 58 9b be 59 95 e0 be fc 11 ba 3e bf bf 39 bd
       -0.30341265 -0.43863943 0.36341846 -0.04534888
000100 d5 6e d4 be c4 b2 99 3e a1 77 12 bd 3b f7 d3 3e
       -0.41490808 0.300192 -0.03575862 0.4139956
000110 3e 38 9e 3e e0 77 d0 3d f8 06 e0 bd 53 51 33 3f
       0.30902284 0.10179114 -0.10938829 0.70045966
000120 f2 27 ab 3c 4c 2a c3 3e b5 eb 38 3e 66 54 9f 3d
       0.02089307 0.38118207 0.18058665 0.077797696
000130 e0 cd 95 be 4d 40 1c 3d 8e 04 3b 3e 9d 71 00 be
       -0.29258633 0.03814726 0.18263456 -0.1254334
000140 81 75 b0 3e c8 96 09 3f 2a ec 3b be b8 70 a6 3d
       0.34464648 0.537457 -0.18351808 0.08126968
000150 75 51 ad 3e a7 6b 71 be 91 b0 a7 be e2 74 c0 3d
       0.3385121 -0.23576222 -0.32751897 0.093972936
000160 9e f1 b0 be 24 ff 0b bd 5a 66 88 3d 04 1d 2a 3f
       -0.3455934 -0.034178868 0.06660147 0.66450524
000170 b5 ab 52 be 43 3c 1c 3f 1f 75 bd 3e c5 54 47 be
       -0.20573314 0.6102945 0.3700342 -0.19465931
000180 f6 55 44 3d c5 ff 38 be ca ca 3f 3e 88 95 96 bd
       0.04793354 -0.18066318 0.18729702 -0.073527396

bias f4 [10]
000000 40 47 c7 bd 89 99 c5 3e 74 33 03 3f a7 e2 b0 3d
       -0.09730387 0.385937 0.51250386 0.086369805
000010 98 37 93 3e 40 49 53 3e 08 0a 0c 3f f5 ab ff 3d
       0.28753352 0.20633411 0.54702806 0.1248397
000020 c8 92 a8 3e c1 f1 81 3e
       0.32924485 0.25379756

weight f4 [1, 10]
000000 84 c3 ba bd c4 23 cf be 9b a3 47 3e 70 63 dd 3e
       -0.09119323 -0.40456975 0.19496004 0.43239927
000010 d1 57 a0 be 2e cf bd 3e 64 e0 94 3e e5 8c 93 be
       -0.31317 0.37072128 0.29077446 -0.28818431
000020 7e 5e ea be a2 98 86 be
       -0.45775217 -0.26288325
