twig/TWIG-I/checkpoints/chkpt-ID_8755635682712122_e65.pt (torch, 6372 bytes, 5 tensors)

weight f4 [10, 22]
00000000: 3c74 233f e46b 6e3f 5046 a4ba 240e fe3d
00000010: 9b57 e13e 1f41 0ebb 919a 053c e54c a7ba
00000020: 9579 d038 2686 8fbf f1c5 80bb 4cf7 2ebc
00000030: 5645 57bb 218c 513c de85 cbba db5c 3c3c
00000040: f2ad f3bb 67a4 b7bf ccce a23b cf41 753b
00000050: 4568 40bb 5aca a23b aadd c33e 1986 11bf
00000060: 7ec5 72bc 9947 90bd 9a1c 9a3f e11e 9abc
00000070: 5fe1 b2be 2f00 813c 75cc 28be 2e0d ccbe
00000080: 7cad b03c 65cc bbb8 2000 9c3d 79b3 753d
00000090: 54d8 893d 2712 a23d 1f00 f23b 1420 09bf
000000a0: cd77 91bd 7bbf 9f3c a1ee 32bd 7b52 21be
000000b0: 7402 d4bd 5440 bfbe 7961 3c3d 89b6 f8bd
000000c0: a7ce b9be d65e 71bf 2546 9a3c fd83 d0bc
000000d0: f446 663c 9251 553e 3573 d7bc 650d 8ebd
000000e0: 5ced b6bc 0759 a03c 9555 303b 2138 733c
000000f0: 9844 763c 62a7 453e 939b 443c 1f20 943a
00000100: a229 cbbc 7edc a2bc 6102 adbe 4de7 8bbf
00000110: 337a e9bd 4358 fe3c 4604 9abe b13c 943c
00000120: 16c0 333c a42c 8f3d 7fe3 f83a 87f8 9a3e
00000130: 3a40 073d 9cad 8e3d 2990 253d 1104 c53d
00000140: ca66 063d bc2e 403e e9e6 9f3c a085 9e3f
00000150: 6dd3 5dbd 9547 cb3b e92c 8b3d bf86 8abd
00000160: 8e17 39bf 0304 73bf 5106 fb3a 80f8 90bb
00000170: 160e 9ebd ce67 643b 09ca 8cbc 85f5 733b
00000180: 772f 28bc efa1 0f3f fcac d83b 8330 c73b
00000190: 6f47 133b 615c 0f3c da19 e3bb 545e 523b
000001a0: 7fa9 ff3a b1fe 613f 655d 8d3b 5a3d 99bb
000001b0: fac9 acba 37b3 6a3c b205 0b3f 805d c93d
000001c0: f912 00bd 834d 093e be38 023f 3651 d83d
000001d0: 32ef 533c 10fd ef3b 3f68 bc3c 7c48 79bf
000001e0: 1933 5f3b 8c4c 813d 2d48 bd3c 525b 8bbd
000001f0: 2508 85bc 0775 98bc d100 043d 281f 9abf
00000200: ee89 9bbd 4ee0 92bc a13b 313e d72f 4cbd
00000210: b137 5ebc 5c75 1fbf cf5c ee3d 2dd3 c1bc
00000220: df85 e83d e2ff 083e d914 b13c 3f8d 49bd
00000230: e222 963d 262a a9bd edaa 93bc 9a8b 22be
00000240: 76b8 6dbc 7259 903d 23b6 593d 58b8 923d
00000250: c247 28bd 1b44 57bf d790 91bd a228 afbc
00000260: 1855 cebc eb66 073d 10af debe 207d 47bf
00000270: f5a0 aabd 4d47 203e b820 ddbe ec3e 8ebf
00000280: 9791 043d e3f9 b7bc baff 093d ed08 483e
00000290: 32cc 2bbb 46a0 623d 7d45 fc3c 6e18 3e3d
000002a0: f18f d8bb ff09 f3ba 40c6 04bc f849 ac3e
000002b0: 0b6f b2bc 4be9 af3b 6167 993b 0644 debc
000002c0: e35b 94bd 39b5 7fbf 6ed8 ca3a 781c 18be
000002d0: 8ecb 1e3c bed7 47bf 5372 413b 78e5 143c
000002e0: 2a45 bebb b24b 3f3d ad4e baba 06c8 0cbc
000002f0: db70 313c 40b2 9339 2e8b e53c e272 c33b
00000300: 4a1d 8cbc 6e8c 443f b27a b93a 95f2 7fbb
00000310: 84cb 963c 9e47 ed3c 792e 123f b0f4 833f
00000320: 221c 37bd 0908 b13d eaff a03e f7a3 a0bb
00000330: 1594 80bb fb1f 0e3c 279d 5fbc 1d41 0ebf
00000340: 9b84 e63c 15eb 1c3d 223e 96bc e3e3 133d
00000350: f02e 5dbd 5e17 ef3c fa4f 01bc c7ce a4bf
00000360: 0b36 a03d 157d 673d 3f41 04be f86f e83c
0.63849235 0.9313338 -0.0012533162 0.12405041 0.4401215 -0.0021706296 0.008154527 -0.0012764005
9.940859e-05 -1.1212814 -0.0039298465 -0.010679077 -0.0032847724 0.012789757 -0.0015527566 0.011496748
-0.0074365074 -1.4347047 0.0049684998 0.0037423258 -0.0029359024 0.00496797 0.38255054 -0.5684524
-0.014817594 -0.07044906 1.2039979 -0.018813552 -0.3493757 0.015747158 -0.16484244 -0.39853805
0.021567099 -8.954926e-05 0.07617211 0.05998561 0.067307144 0.079136185 0.0073852683 -0.5356457
-0.07102928 0.019500485 -0.043684606 -0.1575412 -0.103520304 -0.37353766 0.045991395 -0.12144191
-0.36290476 -0.94285333 0.018832276 -0.025453562 0.0140550025 0.20831898 -0.026300052 -0.069361486
-0.022329979 0.019573702 0.002690648 0.014844925 0.015031002 0.19302133 0.011999982 0.0011301077
-0.024800126 -0.01988053 -0.33790877 -1.0929962 -0.11400261 0.031047946 -0.30081385 0.018095346
0.01097109 0.069909364 0.0018988698 0.30267736 0.033020236 0.06966707 0.040420685 0.09619916
0.03281287 0.18767828 0.019519286 1.2384529 -0.05415671 0.0062036016 0.06795675 -0.06763982
-0.72301567 -0.94927996 0.0019151663 -0.0044241548 -0.077175304 0.0034851911 -0.017186182 0.0037225198
-0.010265223 0.56106466 0.006612418 0.006078781 0.0022472998 0.008750052 -0.006930572 0.003209968
0.001950547 0.88279253 0.004314112 -0.004676503 -0.0013182752 0.014324955 0.54305565 0.09832287
-0.031268094 0.13408475 0.5086783 0.10562365 0.012935447 0.0073238686 0.022998927 -0.9737623
0.0034057556 0.06313428 0.023105705 -0.06804527 -0.016239235 -0.01861049 0.03222734 -1.2040758
-0.075946674 -0.017929222 0.17307903 -0.04985031 -0.013563083 -0.6228845 0.116387956 -0.023660267
0.11353659 0.13378862 0.021616386 -0.04920697 0.07330872 -0.08259992 -0.01802584 -0.15873566
-0.014509311 0.0704831 0.053152215 0.07164067 -0.04108406 -0.84088296 -0.07107704 -0.02138168
-0.02518706 0.033057135 -0.43492937 -0.779253 -0.08331481 0.15652199 -0.43189025 -1.1112952
0.032365408 -0.022458022 0.033691145 0.19534655 -0.002621424 0.05532863 0.030794853 0.046410017
-0.006608956 -0.0018542408 -0.008103907 0.33650184 -0.021781465 0.005368387 0.004681513 -0.027132045
-0.072440885 -0.998859 0.0015475878 -0.1485461 0.009692086 -0.7806357 0.0029517605 0.009087913
-0.005806585 0.046703048 -0.0014214121 -0.008592611 0.0108301295 0.00028170832 0.028020468 0.005964623
-0.01710381 0.7677678 0.0014150946 -0.0039054502 0.01840759 0.028964814 0.5710216 1.0309048
-0.044704564 0.08644111 0.31445247 -0.0049023586 -0.0039239028 0.008674617 -0.013648308 -0.55568105
0.028139403 0.03831013 -0.018340174 0.036106 -0.05399984 0.029185947 -0.007892603 -1.2875603
0.07822808 0.056515772 -0.12915514 0.028373703

bias f4 [10]
00000000: d53b d8bc 277a 13bd f6a5 0cbf 9a83 123d
00000010: 8a53 65bd 2ad1 bbbc 1198 f13e 28d1 4dbe
00000020: b851 e1be 8f2a a13d
-0.026395718 -0.036005165 -0.54940736 0.035770036 -0.055987872 -0.022926886 0.4718633 -0.20099318
-0.4400766 0.078694455

weight f4 [10, 10]
00000000: fbd9 21c0 f7e9 c03d d1e5 c6bc 8153 293d
00000010: 4988 513f 5389 c0be cab7 c2bc 11f4 f33e
00000020: d56c be3f 6c29 62bf 9de5 05c0 26d2 2a3e
00000030: 8dd4 f03c 3e6e 2cbf 9916 0b40 afcc 9bbd
00000040: a988 f83e 14d2 2dbc fc95 a03f 282f 3bbf
00000050: 6f9d 36c0 4019 b5bc c4bb e5be c661 ce3d
00000060: 2b3e 373f 42e2 b8bd b127 543e 9b8c d7be
00000070: e5d8 4e3f 8551 99bf d6f2 1b3f ad10 283f
00000080: 5459 2dbf 4cfa d0be 4937 40c0 cbe3 2a3f
00000090: cd5c b23e baf1 253e b2c2 e4bf b430 21be
000000a0: 4acc dabf 76c3 9fbd 6fdc 1f3f 182b 3b3e
000000b0: 85a8 da3e 4c25 b3be 7919 04bf 264c 553f
000000c0: 4209 1540 d33d acbe 033e 28be be11 ab3b
000000d0: f71c 8bbf dd9f 07bf 4943 48c0 e808 203f
000000e0: b8ab 3a3e b87f 173e ce01 febf 6834 173e
000000f0: 9d53 9ebf 0f98 613e 8184 f83e 019b 053d
00000100: 1ee4 5e3f c0e8 47bf f3e3 aabd 68b5 363f
00000110: b6d2 de3f 5513 f7be bcd1 3ac0 6de2 e4be
00000120: d8f1 2abc 51c4 f43e a020 493f 516f 313e
00000130: e67f 453e 9b31 3dbd 62f5 b53f e780 19bf
00000140: 9edc 8ebf 4d88 133e 64f4 313f 12a5 6abe
00000150: 0216 0a40 c7ba 9a3d d31b 2bbd 19f9 6f3f
00000160: 7017 d53f b538 353d 14f0 19c0 58b2 37bf
00000170: 86c1 4b3e 04ff b13e f31b 713f 869e 593e
00000180: 0c29 443e 9782 babc 8142 963f ad82 97be
-2.5289295 0.09419625 -0.024279507 0.0413394 0.8184858 -0.3760477 -0.023769278 0.47647145
1.4876963 -0.88344455 -2.0921395 0.16681728 0.029398227 -0.67355716 2.1732543 -0.076074
0.48541763 -0.010609169 1.2545772 -0.7311883 -2.853359 -0.022106767 -0.44869816 0.100772426
0.71579236 -0.0902753 0.20718266 -0.4209946 0.80799705 -1.1978003 0.60917413 0.65650445
-0.6771443 -0.4081596 -3.0033743 0.66753834 0.34836426 0.16205493 -1.7871916 -0.15741235
-1.7093594 -0.07800953 0.6244573 0.18278158 0.42706695 -0.34989393 -0.5160137 0.8331932
2.32869 -0.33640918 -0.16429906 0.005220621 -1.0868214 -0.52978307 -3.1291068 0.6251359
0.18229568 0.14794815 -1.9844301 0.14766085 -1.2369267 0.22030662 0.48538592 0.032618526
0.8706683 -0.78089523 -0.08344259 0.71370554 1.7408054 -0.48256937 -2.9190512 -0.44704
-0.010433637 0.47806028 0.78565407 0.1732762 0.1928707 -0.046189886 1.421551 -0.59962314
-1.1161077 0.14407463 0.69513535 -0.22914532 2.1575933 0.07555156 -0.041774582 0.9373947
1.6647778 0.044243533 -2.4052782 -0.71756506 0.19898042 0.34764874 0.9418327 0.21251878
0.19156283 -0.022767348 1.1739045 -0.29591885

bias f4 [10]
00000000: 43e2 b63e 18cf 43be 9056 d13e 1757 cbbe
00000010: 2ebf 44bd 2566 163e df95 f93d 0f52 a13e
00000020: db90 18bf 5b2e 383e
0.357195 -0.19121969 0.40886354 -0.39714882 -0.048033886 0.14687403 0.12186789 0.31507918
-0.5959603 0.17986433

weight f4 [1, 10]
00000000: f460 15bf 15e4 aabf be15 96bf 31ad c63f
00000010: 88bd 28bf d0d5 9a3f a726 0dbf 4495 3fbf
00000020: 4c29 d6bf 4898 88bf
-0.58351064 -1.3350855 -1.1725385 1.5521604 -0.659142 1.20965 -0.55137104 -0.74837136
-1.6731353 -1.0671473
