twig/TWIG-I/checkpoints/chkpt-ID_86597070809103_e15.pt (torch, 5712 bytes, 5 tensors)

weight f4 [10, 6]
-0.06281167 0.05648511 0.1512271 0.04902766 -0.34445712 0.1928073 0.07721747 -0.038717724
-0.0014433863 -0.5568194 -0.4770135 -0.2907438 -0.013260246 -0.3048515 -0.05068927 -0.05168213
-0.5265938 -0.6224321 0.0018346539 -0.1254718 -0.3046491 -0.024441637 -0.13213412 -0.72462535
-0.13226008 0.030167123 0.005545216 -1.5901101 -0.08819512 0.042978823 -0.57800937 0.4762314
-0.20345259 -0.018574273 0.5249726 0.69074273 -0.07210627 0.07844138 0.039992686 -0.24618699
-0.2852061 -0.44763884 -0.10321988 -0.18360552 0.008644283 0.09069581 0.25724745 -0.5788572
-0.43746004 0.23115237 0.2677788 0.28410864 0.2238255 0.08253514 -0.34273005 -0.13043667
0.14686106 -0.44222072 0.059134394 -0.46070197
00000000: 68a3 80bd ee5c 673d 47db 1a3e 3ad1 483d
00000010: af5c b0be 476f 453e 3124 9e3d 7a96 1ebd
00000020: 0230 bdba b78b 0ebf 1d3b f4be 5fdc 94be
00000030: 8141 59bc 7f15 9cbe 8d9f 4fbd a4b0 53bd
00000040: dace 06bf b657 1fbf c578 f03a ae7b 00be
00000050: f8fa 9bbe d439 c8bc 2b4e 07be 0c81 39bf
00000060: 306f 07be 0b21 f73c a5b4 b53b ba88 cbbf
00000070: a59f b4bd 900a 303d 6cf8 13bf 9ad4 f33e
00000080: e055 50be 1329 98bc 9b64 063f 84d4 303f
00000090: 74ac 93bd e0a5 a03d 5fcf 233d 7118 7cbe
000000a0: 8906 92be eb30 e5be f264 d3bd 1603 3cbe
000000b0: c0a0 0d3c babe b93d f0b5 833e fc2f 14bf
000000c0: c3fa dfbe 35b3 6c3e 4e1a 893e b076 913e
000000d0: 8332 653e 2f08 a93d 507a afbe 3191 05be
000000e0: bf62 163e c16a e2be e836 723d 21e1 ebbe

bias f4 [10]
0.35163793 -0.12058723 0.35836947 -0.10061817 -0.18200082 -0.21226755 -0.1567948 -0.22923155
-0.21429378 -0.109092936
00000000: e309 b43e 70f6 f6bd 347c b73e e610 cebd
00000010: 6c5e 3abe aa5c 59be d18e 20be adbb 6abe
00000020: d46f 5bbe 1e6c dfbd

weight f4 [10, 10]
0.014339864 -0.022955734 -0.24754967 -0.3634167 -0.21089287 -0.35427478 0.24332052 0.049051277
-0.20984699 -0.3955834 -0.19776583 0.38320792 0.058613006 0.30797416 0.22373612 -0.10757995
0.3443463 0.4345428 0.009006156 0.3449593 -0.14297387 -0.03106864 -0.319247 -0.017334515
-0.13275798 -0.043419283 0.07501169 -0.36595 0.016333593 0.059489086 -0.28493306 -0.781661
-0.4118165 -0.38950333 -0.09329826 0.41405922 0.21422322 0.008868049 -0.15388867 -0.059577692
-0.23824172 0.09260676 0.6456287 0.82554525 0.6312737 0.36405736 0.34436986 0.6833414
-0.1224427 0.60055757 0.027689392 -0.18234167 -0.3242522 -0.64504784 -0.10852633 0.2059716
-0.047291428 0.04820259 0.2978836 -0.11428212 -0.4140604 0.007963816 -0.02149173 0.14184219
0.05759814 -0.18849833 0.6185843 0.3135679 -0.36479247 0.51125103 -0.44549832 -0.020924412
-0.056937944 0.63282186 2.0368528 -0.06804526 0.58453643 0.08840052 -0.25509155 0.61943835
-0.005064525 0.38218364 0.36643106 0.057336103 0.13351858 -0.21331334 0.6446529 0.47153196
0.06953423 0.28197587 -0.057693973 -0.3389552 0.15866166 0.19973312 -0.3492727 0.12679969
-0.13332453 -0.37099984 -0.35078132 -0.34098014
00000000: c0f1 6a3c aa0d bcbc a97d 7dbe c111 babe
00000010: 4df4 57be 8163 b5be 0429 793e fee9 483d
00000020: 21e2 56be e889 cabe 2083 4abe d433 c43e
00000030: 3114 703d caae 9d3e 151b 653e e052 dcbd
00000040: 294e b03e 657c de3e 8e8e 133c 819e b03e
00000050: be67 12be a983 febc 5874 a3be 1d01 8ebc
00000060: b5f1 07be 6bd8 31bd bb9f 993d cc5d bbbe
00000070: 07ce 853c d4aa 733d bfe2 91be ef1a 48bf
00000080: 9dd9 d2be fb6c c7be 2813 bfbd 92ff d33e
00000090: 555d 5b3e 4b4b 113c fe94 1dbe bd07 74bd
000000a0: a3f5 73be 9da8 bd3d ec47 253f ef56 533f
000000b0: 279b 213f ba65 ba3e 3f51 b03e 76ef 2e3f
000000c0: 3dc3 fabd 24be 193f ddd4 e23c c6b7 3abe
000000d0: 6204 a6be db21 25bf 0d43 debd 38ea 523e
000000e0: a8b4 41bd 1470 453d 3384 983e be0c eabd
000000f0: baff d3be aa7a 023c 6d0f b0bc 143f 113e
00000100: 07ec 6b3d b505 41be 8a5b 1e3f f98b a03e
00000110: 14c6 babe 59e1 023f 5b18 e4be ac69 abbc
00000120: c337 69bd 9d00 223f cc5b 0240 505b 8bbd
00000130: 2ea4 153f 550b b53d 5c9b 82be 8393 1e3f
00000140: 51f4 a5bb 93ad c33e da9c bb3e 43d9 6a3d
00000150: 18b9 083e d06e 5abe f907 253f a36c f13e
00000160: f667 8e3d 245f 903e 8450 6cbd 898b adbe
00000170: 3478 223e d786 4c3e dfd3 b2be c7d7 013e
00000180: 3a86 08be b1f3 bdbe 9c99 b3be f394 aebe

bias f4 [10]
0.107854486 0.117782615 -0.20116872 0.24650969 -0.05922148 -0.4498605 0.07812966 -0.4361052
0.06561357 0.042945024
00000000: d0e2 dc3d 0338 f13d 2cff 4dbe 096d 7c3e
00000010: 3992 72bd 1e54 e6be 7102 a03d 2e49 dfbe
00000020: 6860 863d 1fe7 2f3d

weight f4 [1, 10]
-0.19487411 -0.41207054 0.06627095 0.20115025 -0.25333 0.0598054 -0.10884058 -0.48817888
-0.1789976 0.1148582
00000000: 148d 47be e9fa d2be 10b9 873d 55fa 4d3e
00000010: 78b4 81be 82f6 743d cfe7 debd 95f2 f9be
00000020: 264b 37be c73a eb3d
