twig/TWIG-I/checkpoints/chkpt-ID_4731500250613514_e15.pt (torch, 6244 bytes, 5 tensors)

weight f4 [10, 20]
0	0xbe1e2f29	-0.15447678
1	0xbdad2d66	-0.08455925
2	0x3dd11172	0.102084056
3	0xbd43f6e8	-0.04784289
4	0xbe97991f	-0.2960901
5	0x3ce8bb23	0.028409546
6	0xbcec5b8d	-0.028852249
7	0xbc557e32	-0.013030576
8	0xbd0fa13d	-0.03506588
9	0xbea6834d	-0.3252205
10	0xbe57efd3	-0.2108758
11	0xbdc6ed45	-0.09713224
12	0xbe13654b	-0.14394109
13	0xbdeeb56c	-0.11655697
14	0xbdd0169c	-0.101605624
15	0xbe4528dc	-0.19253868
16	0xbea883b4	-0.32912982
17	0xbe2a8ddd	-0.16655679
18	0x3c7fff02	0.015624763
19	0x3d2f03b1	0.04272813
20	0xbed9fd34	-0.4257599
21	0xbf6a19a1	-0.91445357
22	0xbd6419c0	-0.05568862
23	0xbfad45bd	-1.3536907
24	0xbdb74196	-0.089480564
25	0x3e748031	0.23877026
26	0x3cce0722	0.025149886
27	0xbed5858b	-0.41703448
28	0xbdf6fe0c	-0.12060174
29	0xbc08d154	-0.008350689
30	0x3d46a677	0.048498597
31	0x3cd41b2d	0.025891865
32	0xbdb18cfc	-0.08669469
33	0x3d8b8260	0.068119764
34	0xbc3b58af	-0.011434718
35	0xbc595ec1	-0.01326722
36	0x3fac61e2	1.3467371
37	0xbd2b8a16	-0.041879736
38	0x3da143cb	0.078742586
39	0xbccb4b3b	-0.024816146
40	0x3dd92053	0.106018685
41	0x3e97b826	0.29632682
42	0xbcfca95a	-0.030842472
43	0x3cb285e4	0.02179236
44	0xbe52b03f	-0.20575045
45	0x3f3836f7	0.7195887
46	0x3da61c30	0.08110845
47	0xbd2d041d	-0.04224025
48	0xbda9a8be	-0.08284138
49	0x3c85ea66	0.016347121
50	0xbd889516	-0.06669061
51	0x3e79a184	0.2437802
52	0xbd86227c	-0.06549546
53	0x3cb4d535	0.022074321
54	0x3dc9854a	0.09839876
55	0x3db49679	0.08817763
56	0xbdf08841	-0.11744738
57	0xbebf3327	-0.37343714
58	0x3ea9106f	0.3302035
59	0xbe267af1	-0.16257836
60	0x3dd8f616	0.10593812
61	0xbf20539d	-0.62627584
62	0x3c478ad4	0.012179095
63	0xbedb3e81	-0.42821124
64	0xbd9fc9d2	-0.07802166
65	0xbf2f68b3	-0.68519133
66	0x3d0fcda6	0.03510823
67	0xbd3dc935	-0.046334464
68	0x3d283502	0.041066177
69	0x3da63519	0.08115596
70	0xbd7db383	-0.061938774
71	0x3dcf2e03	0.10116198
72	0xbe385b8f	-0.18003677
73	0xbd792f62	-0.060836203
74	0xbd3d968d	-0.046286155
75	0x3d434c11	0.047679964
76	0x3f18728b	0.5954978
77	0x3e1c195d	0.1524405
78	0xbc83b3fa	-0.01607703
79	0x3d011012	0.031509466
80	0xbeb01010	-0.34387255
81	0xbf036e20	-0.5133991
82	0x3bfdd2c5	0.007746073
83	0xbbae69cc	-0.0053226706
84	0xbe1ee8cb	-0.15518491
85	0xbef6de42	-0.48216444
86	0x3d67f55d	0.05663048
87	0x3e1af857	0.15133797
88	0xbe424ca9	-0.18974556
89	0x3d8a6969	0.06758387
90	0x3ad37463	0.0016132708
91	0x3d089558	0.03334555
92	0xbcd8c60c	-0.026461624
93	0x3db884bd	0.09009693
94	0x3d00047e	0.031254284
95	0x3d1ace31	0.037794296
96	0x3f2a0228	0.6640954
97	0xbd865206	-0.065586135
98	0xbda89fc3	-0.08233597
99	0x3d9e2d88	0.07723528
100	0x3ca0a23d	0.019608611
101	0x3d7864f9	0.06064317
102	0xbeba3e82	-0.36375815
103	0xbd786be9	-0.060649786
104	0x3df655f0	0.1202811
105	0x3ea94980	0.3306389
106	0x3d9c0b55	0.07619349
107	0x3e255f9f	0.16149758
108	0xbdf05d07	-0.117364936
109	0xbdd4dcaf	-0.103936546
110	0xbdaccce7	-0.084375195
111	0xbe504918	-0.20340383
112	0xbcab1dd0	-0.02088824
113	0xbeb628c3	-0.35577974
114	0xbd8c4083	-0.06848242
115	0x3d6e7abf	0.05822253
116	0xbe1dfb32	-0.15427855
117	0xbdcbc13b	-0.09948965
118	0xbddabfd1	-0.10681117
119	0xbe896f05	-0.26842514
120	0x3eb8a6e2	0.3606482
121	0x3d188318	0.037234396
122	0xbeb81faa	-0.35961658
123	0x3d732ebd	0.059370745
124	0xbde4f05d	-0.11178658
125	0x3ec14213	0.37745723
126	0x3df40e2e	0.11916767
127	0xbe00cd3d	-0.12578292
128	0xbd228574	-0.039678052
129	0xbdbb0ab2	-0.09132899
130	0xbea0e729	-0.3142636
131	0xbd48bf0e	-0.04901033
132	0x3c83de96	0.016097348
133	0x3d7a5321	0.061114434
134	0x3e853ae0	0.2602148
135	0x3c286198	0.010277174
136	0xbe86d9f2	-0.26338154
137	0xbdbf55e5	-0.09342555
138	0xbd4faa0f	-0.05069929
139	0xbcb51e55	-0.02210919
140	0xbec0adb5	-0.37632528
141	0xbe9b3e54	-0.3032099
142	0xbb802c4f	-0.003911532
143	0x3d867d7b	0.06566902
144	0xbe1df978	-0.15427196
145	0x3eb7190e	0.35761303
146	0xbe440e23	-0.19146018
147	0xbd75bfba	-0.059997298
148	0xbe08cf3c	-0.13360304
149	0xbea3c892	-0.3198896
150	0x3df451c7	0.1192966
151	0x3dc8cb14	0.09804359
152	0x3db14eee	0.08657633
153	0xbcb23330	-0.021752924
154	0xbd6ee13d	-0.058320273
155	0xbba7a2e9	-0.005115856
156	0xbd91e604	-0.0712395
157	0x3d6f7aa7	0.05846658
158	0xbd0ae0a9	-0.03390566
159	0x3d99b4dc	0.07505199
160	0xbe63856f	-0.2221887
161	0xbedb337a	-0.4281271
162	0x3d9acb8c	0.07558355
163	0x3dd9ba4b	0.10631236
164	0xbe9ad0e6	-0.30237502
165	0x3e9da36b	0.3078874
166	0xbe1c0b1b	-0.15238611
167	0xbcbe02a8	-0.023194626
168	0xbb7c240d	-0.0038473636
169	0xbefcca7d	-0.49373236
170	0x3e06a338	0.131482
171	0x3d4305f3	0.047613095
172	0xbe4163cc	-0.18885726
173	0xbc41d0bf	-0.011829554
174	0xbe43f11f	-0.19134949
175	0xbe587243	-0.21137337
176	0xbe45b83f	-0.19308566
177	0xbdbf4201	-0.09338761
178	0x3e3be66f	0.18349622
179	0x3d5722e8	0.052523524
180	0xbe72220c	-0.236458
181	0xbd19a9fc	-0.037515625
182	0x3e31ced7	0.1736406
183	0xbe04c8cd	-0.12967224
184	0x3ecae9f7	0.39631626
185	0x3e3e1b23	0.1856504
186	0x3c716c21	0.014735253
187	0xbde0b36b	-0.10971721
188	0x3d53e2d8	0.051730007
189	0x3cada2db	0.02119582
190	0xbdbfe941	-0.093706615
191	0x3e0b5e38	0.1361016
192	0x3e00df99	0.12585296
193	0xbe2f9704	-0.17147452
194	0x3e090a6f	0.13382886
195	0x3c4f92f9	0.012669318
196	0xbf0c9cf7	-0.5492701
197	0x3dab0355	0.08350245
198	0x3e4dfdec	0.20116395
199	0xbcde10ad	-0.027107561

bias f4 [10]
0	0x3e2efd5c	0.17088836
1	0xbe9bd1bb	-0.3043345
2	0x3ed18f7b	0.4092978
3	0xbdee0729	-0.116224594
4	0xbde4539e	-0.11148761
5	0x3e8cd9da	0.27509958
6	0x3ec947e9	0.39312676
7	0x3ea5a1f3	0.3235012
8	0x3ea33421	0.3187571
9	0xbdfb5886	-0.12272744

weight f4 [10, 10]
0	0xbc9fa931	-0.019489856
1	0x3d82e750	0.063917756
2	0xbe1e7646	-0.15474805
3	0x3eaf3c23	0.34225568
4	0x3dd54767	0.104140095
5	0x3e0de790	0.13857865
6	0x3e2ecf95	0.17071374
7	0x3e46f0a4	0.19427735
8	0x3cf7990d	0.030224347
9	0x3cbf7cb6	0.023374896
10	0xbd44445a	-0.047916748
11	0x3ecde855	0.40216318
12	0xbec446b0	-0.3833518
13	0x3eace51e	0.33768553
14	0x3e6607bb	0.22463886
15	0xbec0da6b	-0.3766664
16	0xbdb64947	-0.08900695
17	0xbe805177	-0.25062153
18	0x3d08e34a	0.033419885
19	0xbe8ee3ec	-0.27908266
20	0x3e54cadf	0.20780514
21	0xbeeae6e6	-0.45879287
22	0xbef769f6	-0.4832303
23	0xbf4db1f2	-0.8034965
24	0x3f2007ec	0.6251209
25	0xbf07bdc4	-0.53023934
26	0xbf2c317e	-0.6726302
27	0x3e1a6d50	0.15080762
28	0x3cede9d5	0.029042164
29	0xbe95a6f9	-0.29228953
30	0x3e357b82	0.17722896
31	0xbe746a4e	-0.23868677
32	0x3d2ce080	0.042206287
33	0xbe710957	-0.23538719
34	0xbe9345c3	-0.2876416
35	0x3d1e5fc9	0.038665567
36	0x3ee1a47b	0.440708
37	0x3ed3ecad	0.41391507
38	0x3e154a4a	0.1457912
39	0x3cd9cea6	0.026587795
40	0xbcdd89f6	-0.027043324
41	0x3f0a11f2	0.5393363
42	0xbe9f7e8e	-0.3115124
43	0x3e62805c	0.22119278
44	0x3e7707ce	0.24124071
45	0xbe8fb82b	-0.28070197
46	0x3e06a165	0.13147505
47	0xbe8dea9b	-0.27718052
48	0xbe6ca3aa	-0.23109308
49	0xbc890302	-0.016725067
50	0x3e3f56c2	0.18685439
51	0xbf2b70b8	-0.6696887
52	0xbda8a7eb	-0.08235153
53	0xbe1b5478	-0.15168941
54	0xbea445bd	-0.32084456
55	0x3e91f28a	0.28505355
56	0x3ed006bf	0.40630147
57	0x3ebf3c51	0.37350705
58	0xbb4cb971	-0.0031238461
59	0x3ee716f1	0.4513469
60	0xbe924fd2	-0.28576523
61	0xbf3c8cf3	-0.7365257
62	0x3e9a3e60	0.30125713
63	0xbd8e9528	-0.06962043
64	0xbef64190	-0.48096895
65	0x3e9e6ecb	0.30943903
66	0x3a35dbb0	0.0006937338
67	0x3ecccf14	0.40001738
68	0x3eb409f4	0.35163844
69	0x3defc8c6	0.11708216
70	0xbddebb8e	-0.10875617
71	0x3ff508a3	1.9143261
72	0x3d9469ee	0.07246767
73	0x3ecc0aed	0.39852086
74	0x3f0ef195	0.55837375
75	0xbcca063f	-0.024661181
76	0xbea6a16f	-0.3254504
77	0xbd984c47	-0.07436424
78	0xbc16d65c	-0.009206381
79	0xbe8fbe4e	-0.28074878
80	0x3ea664a4	0.32498658
81	0x3f573696	0.84067667
82	0xbe66bb4e	-0.22532389
83	0x3e0279e7	0.12741815
84	0x3ed109ba	0.40827733
85	0xbe822b6e	-0.2542376
86	0xbeb16917	-0.3465049
87	0x3d8cd660	0.06876826
88	0xbeb95de2	-0.3620444
89	0xbd90539a	-0.07047196
90	0xbd6548f3	-0.055977773
91	0x3fd3b139	1.6538459
92	0xbe36a346	-0.17835721
93	0x3f16544c	0.58722377
94	0x3f195add	0.5990427
95	0xbebe8bf6	-0.37216157
96	0xbd214fb5	-0.039382655
97	0xbdfd10b6	-0.12356703
98	0x3da84983	0.08217146
99	0xbe6c8a2e	-0.23099586

bias f4 [10]
0	0xbdbcfcf9	-0.09227938
1	0x3ee30ce9	0.44345787
2	0x3ec637d4	0.38714468
3	0x3e2d9d50	0.16954541
4	0x3ecb12ed	0.39662877
5	0x3ea07cc6	0.31345195
6	0x3ee5ad45	0.44858757
7	0xbcd72553	-0.026262915
8	0x3eaa3af0	0.3324809
9	0x3e9ffc72	0.31247288

weight f4 [1, 10]
0	0xbdca9669	-0.0989197
1	0xbef0976c	-0.46990526
2	0xbeaa09d3	-0.3321062
3	0x3efbd255	0.49183908
4	0xbf0b8f9f	-0.54516023
5	0x3ef99641	0.48747447
6	0x3eabe562	0.33573443
7	0xbf3a8e45	-0.72873336
8	0xbf0b17dc	-0.5433328
9	0xbebcb273	-0.36854896
