twig/TWIG-I/checkpoints/chkpt-ID_9442926567839558_e10.pt (torch, 6372 bytes, 5 tensors)

weight f4 [10, 22]
0.7529916 0.9021784 0.08070126 -0.19433689 1.6379672 0.05327782 0.0017914611 0.014913096
0.0049814107 -0.5007444 0.009128602 0.07395096 -0.00924185 -0.024777927 -0.015787464 -0.048947405
0.0013087133 -2.6531656 0.044732954 0.05069237 -0.11305643 -0.09918404 -0.16968288 -0.5275029
-0.81902 0.53142947 -0.13609448 -0.05005087 -0.033070646 -0.074547365 0.072802916 0.14376426
0.03965282 0.006611835 0.07738055 0.075095564 0.06600045 0.10236452 -0.020077588 0.22171348
0.28541923 -0.083484426 0.51691246 -0.5418624 -0.11312792 0.68607545 0.30313823 -0.26015347
-0.5856819 0.7912034 -0.0053987647 -0.010574439 0.0006460241 0.27130648 -0.0858302 0.12284687
0.1729357 0.071878105 0.3846696 0.028792895 -0.06713049 0.115317196 0.011389335 -0.42792448
-0.20543703 -0.3785997 -0.16932195 -1.4903282 0.10428259 -0.3471103 -0.25825375 -0.49694863
0.010648125 0.04768606 -0.05715936 0.20207778 0.0092526 0.040201772 -0.043957252 0.03255413
0.057434343 0.12886062 0.12440365 1.465465 0.14144276 -0.106041685 0.021498626 0.19962351
-0.51237696 -0.7474509 0.5834524 -0.014101258 -0.29379228 -0.37681335 -0.01422956 -0.070252724
0.06221093 0.37667513 0.043693412 0.5437281 0.04122304 -0.012556429 -0.16414951 -0.112630725
0.22796783 1.0799712 0.096229225 -0.11582984 -0.5459441 0.037875142 0.07752038 0.1419506
-1.0650157 0.3483541 0.24022055 0.13547683 0.077960014 0.0022248658 -0.03287217 -1.2073332
0.10941577 -0.17482458 -0.14534162 -0.078890264 0.014827618 0.2624203 0.22839741 -0.49026173
0.27652848 -0.103564724 0.0859685 -0.25473484 -0.087326854 -0.0805292 0.103283994 -0.13203904
0.43112907 -0.16698359 -0.19597255 -0.08619864 -0.09487673 -0.247879 -0.0602337 0.53587055
0.012748193 -0.040948495 0.045090254 -0.47156206 -0.31216103 -0.5129184 -0.16193154 0.19974795
-0.09448025 -0.30407804 0.8731734 1.1651398 -0.24819979 0.021804793 1.0194236 0.06988113
0.010431724 -0.02544048 0.014420489 -0.69252324 -0.037933037 0.38281003 0.12417206 0.05618252
-0.046829555 -0.085161135 0.038300548 -1.8838698 -0.07705035 0.13540776 -0.01064506 0.050520577
0.012216101 -1.2620046 -0.105046324 -0.378266 -0.17449647 -0.45458755 0.07998507 -0.03211357
0.033491194 0.13601203 -0.051753346 -0.027491052 0.12920384 0.045667104 -0.07155174 -0.005076864
0.033616204 1.3020462 0.18094441 0.14255773 0.0075134146 0.10389538 0.9057796 1.3307419
-0.12895533 4.3848795e-06 1.1624299 0.029276997 0.00033072184 0.042446837 -0.054041997 -1.3300499
0.03236684 0.031930357 0.0072816405 0.05738066 0.03353813 0.02027444 0.06236676 -2.394864
0.034530655 -0.0801884 0.12495789 0.12560661
00000000: 0fc4 403f 2af5 663f b446 a53d 4000 47be
00000010: e9a8 d13f d839 5a3d 76cf ea3a 0f56 743c
00000020: 1a3b a33b c930 00bf 2290 153c 9a73 973d
00000030: 216b 17bc 14fb cabc b654 81bc 137d 48bd
00000040: 2289 ab3a 77cd 29c0 e739 373d cda2 4f3d
00000050: 218a e7bd 0121 cbbd 59c1 2dbe 6e0a 07bf
00000060: 4bab 51bf c30b 083f 5a5c 0bbe 2402 4dbd
00000070: 1675 07bd 4aac 98bd b219 953d f036 133e
00000080: ff6a 223d 18a8 d83b b279 9e3d b4cb 993d
00000090: 3e2b 873d 7da4 d13d c179 a4bc dc08 633e
000000a0: 7822 923e e2f9 aabd 6054 043f 7fb7 0abf
000000b0: 9caf e7bd a4a2 2f3f ef34 9b3e d632 85be
000000c0: 40ef 15bf 4e8c 4a3f 1fe8 b0bb 6940 2dbc
000000d0: f259 293a afe8 8a3e bec7 afbd 2497 fb3d
000000e0: 0e16 313e d434 933d 6af3 c43e 14df eb3c
000000f0: b67b 89bd 6c2b ec3d 559a 3a3c eb18 dbbe
00000100: 165e 52be d2d7 c1be bc62 2dbe 13c3 bebf
00000110: 1c92 d53d 71b8 b1be d639 84be 0d70 febe
00000120: 7975 2e3c 7552 433d ef1f 6abd 7aed 4e3e
00000130: 3898 173c 9daa 243d 850c 34bd 7b57 053d
00000140: 4640 6b3d 0af4 033e 57c7 fe3d 5b94 bb3f
00000150: 5fd6 103e 622c d9bd e31d b03c 1b6a 4c3e
00000160: 232b 03bf f158 3fbf 235d 153f f608 67bc
00000170: f16b 96be aeed c0be 1a23 69bc a9e0 8fbd
00000180: e3d0 7e3d 90db c03e ddf7 323d c431 0b3f
00000190: 7ed9 283d 7bb9 4dbc cf16 28be f0aa e6bd
000001a0: 6670 693e 7f3c 8a3f d413 c53d 3238 edbd
000001b0: fec2 0bbf f722 1b3d 01c3 9e3d 805b 113e
000001c0: 6f52 88bf 785b b23e 60fc 753e 70ba 0a3e
000001d0: 80a9 9f3d 0ecf 113b f8a4 06bd e589 9abf
000001e0: 6015 e03d 3705 33be 6fd4 14be 3891 a1bd
000001f0: 8aef 723c f45b 863e 03e1 693e 9603 fbbe
00000200: 2495 8d3e be19 d4bd 4110 b03d 9b6c 82be
00000210: 6cd8 b2bd 7eec a4bd 8f86 d33d 3e35 07be
00000220: f3bc dc3e bffd 2abe 07ad 48be ea88 b0bd
00000230: bb4e c2bd fed3 7dbe 9db7 76bd d02e 093f
00000240: ccdd 503c 9cb9 27bd 8fb0 383d 9570 f1be
00000250: 92d3 9fbe 9f4e 03bf 62d1 25be ba8a 4c3e
00000260: dc7e c1bd 1eb0 9bbe 4b88 5f3f 4d23 953f
00000270: 1628 7ebe f79f b23c 797c 823f d61d 8f3d
00000280: d2e9 2a3c 8e68 d0bc ea43 6c3c 3449 31bf
00000290: ac5f 1bbd adff c33e ec4d fe3d a41f 663d
000002a0: 59d0 3fbd f668 aebd 09e1 1c3d a522 f1bf
000002b0: 93cc 9dbd 55a8 0a3e 9e68 2ebc aaee 4e3d
000002c0: 0b26 483c 5e89 a1bf 8722 d7bd 15ac c1be
000002d0: 34af 32be b3bf e8be 36cf a33d 8589 03bd
000002e0: 102e 093d bd46 0b3e 51fb 53bd ea34 e1bc
000002f0: 034e 043e 6e0d 3b3d b889 92bd d25b a6bb
00000300: 25b1 093d 73a9 a63f 7e49 393e a7fa 113e
00000310: 1733 f63b 1ac7 d43d 2ce1 673f c055 aa3f
00000320: de0c 04be d421 9336 81ca 943f 50d6 ef3c
00000330: bc64 ad39 bcdc 2d3d 245b 5dbd 133f aabf
00000340: 1793 043d 68c9 023d d49a ee3b fc07 6b3d
00000350: 475f 093d 9516 a63c 4a74 7f3d 7445 19c0
00000360: 0470 0d3d d139 a4bd ece9 ff3d 059f 003e

bias f4 [10]
0.117798865 -0.0492598 -0.5063219 0.14653556 -0.20934959 0.045024496 0.43527153 0.12125487
0.009118076 0.22548869
00000000: 8840 f13d a5c4 49bd 509e 01bf 6b0d 163e
00000010: bd5f 56be 9b6b 383d e9db de3e 7954 f83d
00000020: fc63 153c 82e6 663e

weight f4 [10, 10]
-0.90732926 0.171701 0.1761604 0.29591933 0.6661287 -0.21362102 -0.2350087 -0.07399268
0.1417537 -0.9551744 -1.2186772 0.19619183 -0.24137746 0.01098961 0.13954122 0.16065471
0.34242943 -0.50791156 0.5782394 -1.6285031 -0.27406693 -0.116143264 -0.123433575 -0.17165953
-0.24488728 0.18665655 0.2247391 -0.46536252 -0.120459795 -0.0726489 0.8403139 0.033869535
-0.32839066 -0.22801767 -0.6579731 0.48153922 0.39065853 0.18984734 -0.7083074 1.3724775
-0.64750916 0.036262054 0.06489596 0.3743333 0.2920865 -0.022102796 -0.086593576 0.3386064
0.41720062 -1.0169674 -0.11500609 0.10993688 0.28264758 -0.023097903 -0.25879043 0.3289767
-0.37165678 -0.19017695 0.13168941 0.59332335 -0.07931037 0.27052537 -0.20618676 -0.11442433
0.019675206 -0.1956292 -0.34807733 0.4095621 -0.16080514 -0.053691063 -0.52348256 0.036141213
-0.3150769 0.41824418 0.29290614 -0.37624788 0.09038962 -0.12784693 0.40449157 -0.4985507
-0.6897488 0.41915658 -0.075160876 0.47143495 0.61372536 -0.20393549 0.044926915 -0.38634914
0.4216272 -0.38820422 -0.43346095 0.05715758 0.1564378 0.35373005 -0.024076432 0.11055252
0.18403485 -0.23584412 -0.29766884 -0.17146641
00000000: bb46 68bf 63d2 2f3e 6463 343e bd82 973e
00000010: 6987 2a3f 78bf 5abe 1fa6 70be 7989 97bd
00000020: e227 113e 4f86 74bf 9dfd 9bbf 83e6 483e
00000030: a72b 77be c40d 343c e5e3 0e3e ab82 243e
00000040: e952 af3e 7e06 02bf 7f07 143f ca72 d0bf
00000050: 8052 8cbe 85dc edbd beca fcbd 84c7 2fbe
00000060: bbc3 7abe e522 3f3e 0222 663e ff43 eebe
00000070: a0b3 f6bd f2c8 94bd d01e 573f c8ba 0a3d
00000080: d222 a8be 777d 69be ed70 28bf 4f8c f63e
00000090: 6504 c83e 5767 423e a253 35bf 58ad af3f
000000a0: 29c3 25bf 8587 143d 2ce8 843d 9da8 bf3e
000000b0: 5d8c 953e ec10 b5bc f957 b1bd d15d ad3e
000000c0: 529b d53e fd2b 82bf 5088 ebbd 9626 e13d
000000d0: 2fb7 903e d037 bdbc 2e80 84be a26f a83e
000000e0: cc49 bebe bfbd 42be 97d9 063e 0ae4 173f
000000f0: 7a6d a2bd 4d82 8a3e 9f22 53be 4e57 eabd
00000100: e62d a13c 0553 48be 3137 b2be 20b2 d13e
00000110: 1aaa 24be 29eb 5bbd f402 06bf cf08 143d
00000120: c251 a1be 1a24 d63e cbf7 953e 90a3 c0be
00000130: 311e b93d 4eea 02be 8519 cf3e 0a42 ffbe
00000140: 6193 30bf b19b d63e f2ed 99bd ec5f f13e
00000150: 1b1d 1d3f 77d4 50be 4905 383d 8ecf c5be
00000160: 85df d73e b4c2 c6be 98ee ddbe 111e 6a3d
00000170: 3b31 203e 1b1c b53e f03b c5bc 5c69 e23d
00000180: a273 3c3e 1f81 71be 0d68 98be e494 2fbe

bias f4 [10]
0.69679123 0.17805198 -0.017585874 -0.29435313 0.41321352 0.012454901 0.049199812 0.52760553
-0.026791392 -0.109699845
00000000: e960 323f 4253 363e 4010 90bc 74b5 96be
00000010: b990 d33e a40f 4c3c be85 493d 2811 073f
00000020: 9f79 dbbc 50aa e0bd

weight f4 [1, 10]
-0.5018612 -1.2391653 -0.21924888 0.8737731 -0.21754737 0.13660456 0.05265947 -0.34219658
-0.24930727 -0.11447042
00000000: fa79 00bf f89c 9ebf c782 60be 98af 5f3f
00000010: bdc4 5ebe 11e2 0b3e 75b1 573d 6434 afbe
00000020: 684a 7fbe 786f eabd
