twig/TWIG-I/checkpoints/chkpt-ID_6121741074663790_e20.pt (torch, 6308 bytes, 5 tensors)

weight f4 [10, 21]
0	0xbec00064	-0.37500298
1	0xbed98838	-0.4248674
2	0xbe740b4a	-0.23832431
3	0xbf97647d	-1.1827542
4	0xbedf064d	-0.43559495
5	0xbb9a6e90	-0.004712887
6	0x3c979413	0.018503224
7	0x3cc05ffc	0.023483269
8	0x3e5d24bf	0.21596049
9	0xbc8f0356	-0.017457645
10	0x3e1d98e1	0.1539035
11	0x3dc4141a	0.095741466
12	0x3e83f911	0.2577596
13	0xbd627866	-0.055290602
14	0x3e914e0c	0.28379858
15	0xbdcac892	-0.09901537
16	0x3ec49179	0.38392237
17	0x3f1fa55b	0.6236169
18	0xbeafde2c	-0.3434919
19	0xbdeac3c8	-0.114631236
20	0xbed352e3	-0.41274175
21	0x3e151444	0.14558512
22	0xbed5a8ba	-0.4173029
23	0xbfa6adee	-1.3021829
24	0xbf273ddf	-0.6532878
25	0x3f06f5da	0.5271889
26	0x3e2e2e7f	0.17009924
27	0x3e18d158	0.14923608
28	0xbdf67fd7	-0.12036102
29	0x3e160d7c	0.14653581
30	0xbd0f221a	-0.03494463
31	0x3ef1761a	0.47160417
32	0x3e098f48	0.13433564
33	0x3ea71f61	0.32641128
34	0xbf5f16f9	-0.8714443
35	0x3e3235c3	0.17403321
36	0x3f2d09ca	0.6759306
37	0x3f139464	0.576483
38	0xbe18c87a	-0.14920226
39	0x3e616bf0	0.22013831
40	0x3dd02b1e	0.10164474
41	0x3eb5adab	0.3548406
42	0x3f80cf66	1.0063293
43	0x3fd0b858	1.6306257
44	0xbe89fabf	-0.26949117
45	0x3fbbd944	1.4675679
46	0x3cefd161	0.029274644
47	0x3d4b9451	0.049701992
48	0x3cb778e8	0.02239652
49	0xbcd6f7c8	-0.026241198
50	0xbf3f5f9c	-0.74755263
51	0x3c74d0b8	0.014942341
52	0x3e079945	0.13242061
53	0xbc6e4cfd	-0.014544723
54	0xbdd8bce1	-0.10582901
55	0x3c5806f3	0.013185251
56	0xbc744ac4	-0.014910404
57	0x3dea8865	0.114517964
58	0xc047bb21	-3.1207964
59	0xbdd7a0cd	-0.10528717
60	0xbe3c2829	-0.18374695
61	0x3e90919e	0.28236097
62	0x3e0763be	0.13221642
63	0xbccb4e1e	-0.024817523
64	0x3f5d559e	0.86458766
65	0xbea986ba	-0.331106
66	0xbf1446e5	-0.57920676
67	0x3e22e655	0.15908177
68	0xbd859882	-0.06523229
69	0x3d2839c1	0.041070703
70	0xbe868200	-0.26271057
71	0x3eff7ade	0.49898428
72	0x3c3f6af5	0.011683215
73	0xbeb1e2d0	-0.34743357
74	0xbe386b8e	-0.18009779
75	0xbec04ce4	-0.37558663
76	0xbe34fb49	-0.17673983
77	0xbe0461f6	-0.12927994
78	0xbed82327	-0.4221432
79	0x3ee36368	0.44411778
80	0xbede762d	-0.43449536
81	0x3ce8dfdf	0.028427063
82	0x3e084ed6	0.13311324
83	0xbf02ff53	-0.51170844
84	0xbd6d80fc	-0.057984337
85	0xbf9216fb	-1.1413263
86	0xbe0a9c53	-0.13536195
87	0x3eed399c	0.46333015
88	0xbf7dfbfa	-0.9921261
89	0xbe45ab55	-0.19303639
90	0x3d11d3be	0.035602324
91	0xbd81c4ad	-0.06336341
92	0xbafc39d7	-0.0019243312
93	0xbd5839f1	-0.052789632
94	0xbdadbb66	-0.08483009
95	0x3e04d0c4	0.12970263
96	0xbd633445	-0.05546977
97	0xbfc33fd6	-1.5253856
98	0x3dec6631	0.11542929
99	0x3ed7d736	0.4215638
100	0x3f6eca64	0.93277574
101	0xbdde885d	-0.10865853
102	0xbeadf581	-0.33976367
103	0x3d9c8d1c	0.07644102
104	0x3f85261d	1.0402256
105	0x3f008dc4	0.5021632
106	0x3ff7971b	1.9342989
107	0x3e1d4a99	0.15360488
108	0xbf391833	-0.7230255
109	0x3cbed670	0.023295611
110	0x3c0484aa	0.00808827
111	0x3d3770b0	0.0447852
112	0xbd55d058	-0.052200645
113	0xbfb17292	-1.3863089
114	0x3c8f6f2d	0.017509067
115	0xbb3fb5c9	-0.002925264
116	0x3d57b4fa	0.052662827
117	0x3e2e5e4b	0.17028157
118	0xbeae5444	-0.34048665
119	0x3e80f181	0.25184253
120	0xbf4094ef	-0.75227255
121	0xbf882aac	-1.0638022
122	0xbe9defea	-0.30847102
123	0xbe0d9c4b	-0.13829152
124	0x3dd2da23	0.102955125
125	0xbe9dd18d	-0.30823937
126	0xbe2b8bf8	-0.16752613
127	0xbfd67b60	-1.6756401
128	0xbf263772	-0.6492835
129	0xbf918527	-1.136876
130	0xbf12bb85	-0.5731738
131	0x3da60553	0.08106484
132	0xbce08444	-0.02740682
133	0xbc484274	-0.012222875
134	0x3ed30af2	0.41219288
135	0x3c7ecfd3	0.015552479
136	0xbdfc7049	-0.12326104
137	0x3d51e161	0.05124033
138	0x3c316ba2	0.010828884
139	0xbb289132	-0.0025721309
140	0xbcd4e556	-0.025988262
141	0xbbf4fffd	-0.0074768052
142	0x40284853	2.6294143
143	0x3ceeb078	0.029136881
144	0x3cddfd4f	0.027098326
145	0x3c5bb8c6	0.013410753
146	0xbddaf11d	-0.1069052
147	0x3f738290	0.951211
148	0x3ecc1888	0.39862466
149	0xbc825b2d	-0.015912617
150	0x40077446	2.1164718
151	0xbcdf4e80	-0.027259111
152	0x3cc37a83	0.02386213
153	0xbc1ff9f7	-0.009764186
154	0xbd1387a1	-0.036018018
155	0xbfbe7fb2	-1.488272
156	0xbbdc8f34	-0.0067309383
157	0xbdebd5b7	-0.11515372
158	0x3cc32716	0.023822349
159	0x3dd486ce	0.103772745
160	0x3c8e093f	0.017338393
161	0x3b2cff8f	0.0026397442
162	0xbca65493	-0.020304
163	0xc02b969c	-2.6810675
164	0x3d42fe56	0.047605835
165	0x3d98bc4b	0.07457789
166	0xbdf61afa	-0.12016864
167	0xbd671e93	-0.056425642
168	0xbf9613f3	-1.1724838
169	0xbfc214a6	-1.5162551
170	0x3ea926fc	0.33037555
171	0xbf251fb0	-0.64501476
172	0xbf6e3c2c	-0.93060565
173	0x3d6755de	0.056478374
174	0xbd475501	-0.04866505
175	0x3c0ad4eb	0.008473615
176	0x3f05d63d	0.52280027
177	0x3c836d0f	0.016043214
178	0x3eddf14f	0.43348166
179	0xba09692c	-0.0005241807
180	0x3d0c2c0c	0.034221694
181	0xbdaaa294	-0.083317906
182	0x3cecaf16	0.028892081
183	0xbddcdea7	-0.10784655
184	0x3ff58629	1.9181567
185	0x3d4049df	0.04694545
186	0x3d9895c4	0.074504405
187	0xbe4cf262	-0.20014337
188	0x3c8993e6	0.016794156
189	0xbfba514a	-1.4556057
190	0xbfd636d1	-1.6735479
191	0xbdd120eb	-0.10211357
192	0xbe5ad3a1	-0.21369793
193	0xbee38255	-0.44435373
194	0xbd901447	-0.070351176
195	0xbd262395	-0.040561277
196	0xbd9ccbf3	-0.07656088
197	0x3e363dbc	0.17796987
198	0x3d11fbf8	0.035640687
199	0x3d37c4e9	0.044865523
200	0x3d62dcc9	0.05538634
201	0xbcc015d3	-0.023447907
202	0xbefad95d	-0.4899396
203	0x3b7c31b4	0.0038481774
204	0x3cde4566	0.027132701
205	0x3fb63aa1	1.4236642
206	0x3d7ae7a1	0.061256055
207	0x3d6d8df7	0.057996716
208	0xbdcc5ed2	-0.09979023
209	0xbe2368f5	-0.15958007

bias f4 [10]
0	0xbdfb32b1	-0.12265528
1	0xbf93857d	-1.1525112
2	0x3ea809af	0.32819888
3	0xbf503ceb	-0.81342953
4	0xbf003bc0	-0.5009117
5	0xbe8422c3	-0.2580777
6	0xbe4a41ba	-0.19751635
7	0xbba17db5	-0.0049283155
8	0xbefba6cb	-0.4915069
9	0xbf1abb25	-0.6044181

weight f4 [10, 10]
0	0xbf1601bb	-0.5859639
1	0xbea394fe	-0.3194961
2	0xbf24ab7f	-0.6432418
3	0x3cf9ce85	0.030493984
4	0xbe3efb6f	-0.18650602
5	0xbea96460	-0.33084393
6	0xbe74a18a	-0.23889747
7	0xbef79262	-0.4835387
8	0xbd9afb14	-0.075674206
9	0xbef3af32	-0.475946
10	0xbe77b3d1	-0.24189688
11	0x3dfe9597	0.12430876
12	0x3d860db5	0.06545583
13	0xbd0e2596	-0.034703813
14	0x3f22e4ed	0.63630563
15	0xbe7ae43f	-0.24501131
16	0x3e08c63b	0.13356869
17	0xbf8d5796	-1.1042354
18	0x3f81268c	1.0089889
19	0x3d8577f2	0.065170184
20	0x3d87c0b4	0.06628552
21	0xbe394a4d	-0.1809475
22	0x3f70ddeb	0.9408862
23	0xbe5529e1	-0.20816757
24	0xbe810343	-0.251978
25	0xbf8ea461	-1.1143914
26	0xbfb7b3c1	-1.4351732
27	0x402139c0	2.5191498
28	0xbf369da1	-0.7133427
29	0xbdc9761d	-0.098369814
30	0x3ea6c46a	0.32571727
31	0xbe0a18b8	-0.13485992
32	0xc003e4d7	-2.0608423
33	0xbf0f79a9	-0.56045014
34	0xbe77dc65	-0.24205168
35	0xbe44ad53	-0.19206743
36	0x3ecf2651	0.4045892
37	0xbe533870	-0.20626998
38	0x3f4b7e79	0.79489857
39	0x3fa1ff75	1.2656084
40	0x3e8d321f	0.27577302
41	0xbe9012e7	-0.2813942
42	0xbfc87f81	-1.5663911
43	0xbeccf74f	-0.4003243
44	0x3e074a23	0.13211875
45	0x3cc08cce	0.02350464
46	0x3e6c02b8	0.23047912
47	0xbe8768da	-0.26447183
48	0x3ed57b42	0.416956
49	0x3f835ede	1.0263326
50	0xbdd2a6bc	-0.10285708
51	0xbfa877d2	-1.3161566
52	0x3f94cfbc	1.1625896
53	0x3d8855a2	0.06656958
54	0x3da64aac	0.08119711
55	0x3f5e1842	0.86755764
56	0xbe7eb0a3	-0.24872069
57	0x3fd45b20	1.6590309
58	0xbfa29b5f	-1.2703665
59	0xbf5a7613	-0.85336417
60	0x3b851e74	0.004062468
61	0xbea0fa64	-0.31441033
62	0x3ec097ea	0.376159
63	0xbdf2c9e3	-0.11854913
64	0xbc8f1f98	-0.01747112
65	0x3f86ed8e	1.0541246
66	0xbf404b48	-0.7511487
67	0x3fa0ce80	1.2563019
68	0xbf3add3d	-0.7299383
69	0xbee76c3c	-0.45199764
70	0x3e808bd8	0.25106692
71	0x3d30f0ab	0.04319827
72	0x3ed9aee8	0.42516255
73	0xbf0d3278	-0.55155134
74	0x3eb173ad	0.34658566
75	0x3c955368	0.018228248
76	0xbfd0b7e2	-1.6306117
77	0x3f7e2cf8	0.99287367
78	0xbf74997b	-0.9554669
79	0xbd8dfeb5	-0.06933347
80	0x3e39b40e	0.18135092
81	0xbe8973a1	-0.2684603
82	0xbf886d4d	-1.0658356
83	0xbe7f3ca8	-0.24925482
84	0x3ea7b24c	0.32753217
85	0xbeb4af0f	-0.3528981
86	0x3e8866cc	0.26640928
87	0xbf06a2c4	-0.5259211
88	0x3f643f32	0.8915893
89	0x3f459777	0.7718424
90	0xbd20ed66	-0.0392889
91	0x3ec4d660	0.38444805
92	0xbf4792db	-0.7795846
93	0xbe89c9aa	-0.2691167
94	0x3ec85578	0.39127707
95	0xbf294b14	-0.66130185
96	0x3f1a0606	0.6016544
97	0xbef7c78f	-0.4839444
98	0x3f3c9c1e	0.73675716
99	0x3f8de66b	1.1085943

bias f4 [10]
0	0xbe92d86a	-0.28680736
1	0xbf586884	-0.8453448
2	0xbec3b69a	-0.3822525
3	0x3e8f45a2	0.27982813
4	0x3e435465	0.19075163
5	0x3d985835	0.07438699
6	0x3e8e49f4	0.27790797
7	0x3ebedce8	0.37277913
8	0x3e9c9c31	0.30587915
9	0x3ea9bb53	0.3315073

weight f4 [1, 10]
0	0x3e589edc	0.2115435
1	0xbef02e64	-0.46910393
2	0x3f887709	1.0661327
3	0xbef98e39	-0.4874132
4	0xbea04252	-0.31300598
5	0x3e9d814d	0.3076271
6	0x3e8d28bb	0.27570137
7	0x3f26deb0	0.65183544
8	0xbe7600b2	-0.24023703
9	0xbeb26934	-0.3484589
