twig/TWIG-I/checkpoints/chkpt-ID_86597070809103_e20.pt (torch, 5712 bytes, 5 tensors)

weight f4 [10, 6]
000000 f1 4f 5e bd 34 c5 96 bb 70 be 17 3e 91 0c 8a 3d
       -0.054275457 -0.004601145 0.1481874 0.06740678
000010 c3 8e b5 be 89 94 41 3e aa ed 64 3d f2 20 3c ba
       -0.3546048 0.18904318 0.055890717 -0.000717654
000020 22 ea 5e 3c 7b 67 11 bf 92 95 e3 be 89 cd 95 be
       0.013605626 -0.56798524 -0.4445005 -0.29258373
000030 72 e0 ed bc e1 ab 8e be 6d 89 30 bd a4 eb 3c bd
       -0.029037688 -0.27865508 -0.04309981 -0.046123162
000040 83 22 03 bf 9f 9d 25 bf 0a 10 9b bb 9c ab da bd
       -0.51224536 -0.64693636 -0.0047321366 -0.10677263
000050 0c d0 85 be 9f 86 63 39 04 09 bf bd 15 00 3e bf
       -0.2613529 0.00021698557 -0.093278915 -0.74218875
000060 c4 18 00 be ed 56 89 38 73 c2 59 bd 50 f5 cb bf
       -0.12509447 6.54886e-05 -0.053163957 -1.5934238
000070 5e 1f 0c be 42 0c 12 3e ad fc 15 bf 72 0b e5 3e
       -0.1368384 0.14262488 -0.5858868 0.44735295
000080 3f 31 57 be 70 d9 97 bc c9 0d 07 3f fe 03 2f 3f
       -0.2101488 -0.0185363 0.5275541 0.68365467
000090 de 4a 82 bd c7 3e 30 3e fe c8 c9 3d 6a 3a 81 be
       -0.06361936 0.17211448 0.09852789 -0.2523988
0000a0 eb 94 78 be fa ff e5 be 1c fc c4 bd 5a 41 33 be
       -0.24275558 -0.44921857 -0.096183985 -0.17505398
0000b0 8d ac d3 3c cb 5b ab 3d 84 3f 8b 3e 8b 31 15 bf
       0.025839115 0.083671175 0.27196896 -0.5827872
0000c0 53 1c df be 5a 39 79 3e 82 e9 8d 3e c9 e5 8c 3e
       -0.43576297 0.24338284 0.27717215 0.27519062
0000d0 9a 2e 99 3e 1c 55 aa 3d 3a bb 94 be f0 86 15 bc
       0.29918367 0.083170146 -0.29049093 -0.00912641
0000e0 80 70 55 3e 96 8a df be f4 ea ee 3d 84 a1 eb be
       0.20843697 -0.4366042 0.116659075 -0.46021664

bias f4 [10]
000000 c3 1d b6 3e 13 42 03 be 86 c4 b8 3e 65 0b f6 bd
       0.3556958 -0.12818174 0.36087435 -0.12013892
000010 e5 76 75 be d3 8d 5c be 71 16 23 be d7 0f 68 be
       -0.23971136 -0.21538477 -0.1592653 -0.22662292
000020 5a 95 55 be 0a 82 f1 bd
       -0.20857754 -0.11792381

weight f4 [10, 10]
000000 d2 5e 67 3c 8a 98 a2 bb 2b c2 7c be 3f db b9 be
       0.014121728 -0.0049620317 -0.24683444 -0.36300084
000010 e1 55 55 be 6d 91 b3 be 1d d2 97 3e a9 d9 41 3d
       -0.20833541 -0.3507189 0.2965249 0.047326718
000020 07 9c 55 be 9b c9 c9 be 08 a9 52 be e9 b3 c1 3e
       -0.20860301 -0.39411625 -0.20572293 0.37832573
000030 01 91 7c 3d 5e 9a 9d 3e 50 e0 66 3e 07 39 96 bd
       0.061661724 0.30781835 0.22546506 -0.07335096
000040 43 ba b1 3e f7 3c de 3e 09 73 13 3c 34 b4 b1 3e
       0.3471242 0.43405887 0.0089995945 0.34707797
000050 be 67 12 be a9 83 fe bc 58 74 a3 be 1d 01 8e bc
       -0.14297387 -0.03106864 -0.319247 -0.017334515
000060 b5 f1 07 be 6b d8 31 bd bb 9f 99 3d cc 5d bb be
       -0.13275798 -0.043419283 0.07501169 -0.36595
000070 07 ce 85 3c d4 aa 73 3d b6 6b f4 be 29 f7 46 bf
       0.016333593 0.059489086 -0.47738427 -0.77720886
000080 39 0a db be 29 60 b6 be f9 bd 48 be e8 be e1 3e
       -0.42781237 -0.3562024 -0.19603719 0.44090962
000090 90 5a 28 3e fd 0b 99 3c 11 78 b4 bd f4 97 f0 bc
       0.16440797 0.018682474 -0.08811963 -0.029369332
0000a0 0d 63 ad bd 28 06 b2 bb 65 59 4f 3f ae fe 51 3f
       -0.08466158 -0.005432863 0.8099578 0.82029235
0000b0 b9 e8 67 3f d7 64 31 3e 35 29 19 3f c7 eb 31 3f
       0.9058948 0.17323624 0.598285 0.6950039
0000c0 cf 61 29 be a3 4e 04 3f 04 80 97 bd 5d 52 24 bf
       -0.16541217 0.5168249 -0.07397464 -0.64188176
0000d0 44 ee c8 be d1 ea 1c bf ab fe 82 be a6 2e a8 3e
       -0.39244282 -0.612958 -0.2558492 0.3284809
0000e0 cb 01 f7 be 79 a2 12 3d 6e 8b 17 3f e7 be a6 bc
       -0.48243555 0.035799477 0.5919713 -0.020354701
0000f0 61 75 d5 be dd 26 1b 3b a7 0b 98 bc cb df 13 3e
       -0.41691115 0.0023674287 -0.018560244 0.14440839
000100 d6 52 64 3d ec 45 49 be 48 f4 1f 3f ec d8 a0 3e
       0.05574306 -0.1965558 0.6248212 0.31415498
000110 8e a4 ba be 49 dd 01 3f 65 a0 8c be 8b 68 b6 bb
       -0.3645367 0.5072828 -0.2746612 -0.0055666617
000120 21 b7 59 bd 12 0b 28 3f 0d bf 03 40 05 70 45 3c
       -0.05315316 0.6564189 2.0585358 0.012050633
000130 17 e1 14 3f 96 c2 b4 3d 3b 4a 81 be 48 92 1c 3f
       0.5815596 0.08826177 -0.25251946 0.6116071
000140 c9 cd 60 bd db 2a bf 3e 09 df c0 3e 38 e3 81 3d
       -0.054883752 0.37337384 0.37670162 0.06342167
000150 7e c3 d4 3d 04 50 71 be 1b 99 26 3f ac c4 f0 3e
       0.1038885 -0.2356568 0.6507737 0.4702505
000160 67 84 89 3d bd 43 8f 3e aa 29 6a bd f4 a4 ac be
       0.06714707 0.27981368 -0.05716864 -0.337196
000170 f8 fe 21 3e be fc 4b 3e d3 96 a8 be 94 fb 9a 3d
       0.15819919 0.19920632 -0.3292757 0.07567516
000180 32 73 08 be 38 ca be be 7e 0a b3 be f1 f1 ad be
       -0.13325194 -0.37263656 -0.34968942 -0.3397365

bias f4 [10]
000000 4c f9 e0 3d 9c a6 f8 3d 2c ff 4d be 87 51 81 3e
       0.109850496 0.12141153 -0.20116872 0.25257513
000010 91 f5 4e be 73 7c 13 be 49 b9 9f 3d c0 62 db be
       -0.20210864 -0.14402942 0.07799012 -0.42848778
000020 de 16 75 3d 30 30 2f 3d
       0.05983626 0.042770565

weight f4 [1, 10]
000000 17 32 49 be ff e4 d2 be 10 b9 87 3d ca cb 65 3e
       -0.19648014 -0.41190335 0.06627095 0.2244102
000010 b4 46 8c be eb d8 89 3e bb af e7 bd b5 2c f9 be
       -0.27397692 0.26923308 -0.11312815 -0.4866692
000020 fe cd 3b be ba 25 d8 3d
       -0.18340299 0.10554071
