twig/TWIG-I/checkpoints/chkpt-ID_9952599022334208_e5.pt (torch, 6234 bytes, 5 tensors)

weight f4 [10, 20]
00000000: f9a5 453e 56d2 35be 0c13 9b3d 40e8 9bbd
00000010: 395a 93be a98b 2b3e dfbb ef3c c205 1c3a
00000020: a7e7 1dbd 1a2f 89be d363 07be 63b4 9bbd
00000030: e15f 003d 910b fdbc c3b9 2bbc 6fb8 b8be
00000040: 8f41 163d 4662 9bbe e050 833e f214 07bf
00000050: 83f1 7bbe c63a b2bd 86d1 02bc ac4f 7dbe
00000060: 422a aebc fb13 ce3d 3cb9 143b 3cea 72bc
00000070: 7d05 66be 4828 1c3e 74db adbe 67c1 183e
00000080: 3b77 ccbe ae29 ba39 a0f1 2bbe 83b4 263d
00000090: 26e3 82bd 0af7 af3e 198c 19be fb12 ff3e
000000a0: b53d 03be 6cb9 03be 1ab3 853e b0da 4cbe
000000b0: 333c cabd b63a ce3d 348d 393e e489 1dbe
000000c0: cec9 7abe 777d b63d 5d3f 8b3e ef5f 8a3e
000000d0: 79c5 063d a210 df3d df61 12be ccd5 90bd
000000e0: dc7f ec3d 44fc 02be 7cbc 203e 7f3a 4dbd
000000f0: 7de5 643e 54c4 05be f616 f33d 52e3 adbd
00000100: fe77 54bd 9716 89be cea2 e8bd 124c 08bd
00000110: 3d8e c73d 38dd fcbd f5ca 893d d2c8 5d3d
00000120: aeff d2bd 50c2 4abe cfa6 79bd 1b7a 09be
00000130: b013 853d 8fd4 2e3e 85b0 3ebe be97 b8bb
00000140: d544 223d bc13 183d 68d0 b4bd 0d40 6f3e
00000150: a507 e73c 6e46 20be d7d1 43bd beb3 9a3b
00000160: 794c d73d bceb 403e 71c8 32be 0032 aa3d
00000170: 95c7 2dbd 3685 8c3c fbe3 83bd 88c7 27bd
00000180: 8364 773e 94cc debd 3c12 663d b240 c83d
00000190: e3c3 07be 78c2 91bd 1f4f abbb db98 95be
000001a0: 73e1 8c3e 4086 463e 7f2f 753e 21fd 0c3e
000001b0: 4d26 34be 8069 9cbd e1e1 d5b8 84a9 44be
000001c0: 40d4 0fbc c0d1 26be 44f6 97be 229f 3bbd
000001d0: 88d9 553e b1a4 973d 928d 2dbc c1fb 25be
000001e0: f97a 8e3e 7b32 d33d 3daf 5abe 7daa 64bd
000001f0: 34ae 253d 771c 923e b5bd 0bbd 0859 58be
00000200: 3c9b a3bc fa8f 70be 8e04 c2bd df75 63be
00000210: 416a 0e3e a088 69bc b890 773e f975 b6bd
00000220: 50a3 1abe d51a af3b d6d2 5d3d 7a2c 76be
00000230: b90e 2ebe 25c8 f7bd a787 493d c7aa 0abd
00000240: 716d 72bd 9c70 823d a53f 42be 12a1 32be
00000250: a833 6bbe b102 bfbc 6fa5 903e bc93 fe3d
00000260: 5b21 2d3e 08e0 79be 3008 13be b2ba 49be
00000270: 0b40 463e f8c6 593e 80ad ff3b a8bc 493d
00000280: 5f09 b1bd 965c 8dbe 7bd9 523e d2ec 1b3e
00000290: 7aa6 4cbe 6dea a93d ce51 c9bd 8136 8dbe
000002a0: 59fb 4bbe e658 e2bd f135 7d3e ed81 b73d
000002b0: 65c8 83be 2081 bbbd 65cb 49be b245 97be
000002c0: 6df5 043e 6565 93be fa39 f43d 1927 703d
000002d0: 16d3 51be 7e78 3fbe 9511 0d3e eda3 24bc
000002e0: 7286 4f3e 63e8 173d 0d62 fabd a3e6 c2bd
000002f0: 753a ef3d e9cd 273e be43 40bd 4fa4 293e
00000300: 93d4 183e 4feb 17be fd51 6bbc 0ae5 7b3d
00000310: 53a6 28bd a202 de3d e1d6 d13d 7399 933e
0.19301595 -0.17756018 0.07571992 -0.076126575 -0.28779772 0.16752495 0.029264389 0.0005951786
-0.038551 -0.26793748 -0.13221674 -0.076027654 0.031341437 -0.030889304 -0.010481301 -0.36078212
0.036683615 -0.30348414 0.2564764 -0.52766335 -0.24603848 -0.087026164 -0.007984525 -0.24737424
-0.021260384 0.10062405 0.0022693416 -0.014826354 -0.22463031 0.15249741 -0.33956492 0.14917527
-0.39934716 0.00035507738 -0.16791391 0.040699493 -0.063909814 0.34368163 -0.1499485 0.49819168
-0.12816508 -0.12863702 0.26113206 -0.20005298 -0.09874763 0.10069792 0.18120271 -0.15384632
-0.24491045 0.08910649 0.2719678 0.27026317 0.03290317 0.10891844 -0.14295147 -0.070720285
0.11547825 -0.12791544 0.15696901 -0.050104614 0.22353168 -0.13063174 0.11869614 -0.084906235
-0.051872246 -0.26775047 -0.113591775 -0.03327567 0.09743927 -0.12346882 0.06728164 0.054146595
-0.10302673 -0.19800687 -0.060950097 -0.13425486 0.06497896 0.17073272 -0.18622024 -0.0056333235
0.039616425 0.037128195 -0.08828813 0.23364277 0.028201887 -0.15651867 -0.04780754 0.004721134
0.10512633 0.18839926 -0.17459275 0.08310318 -0.042426664 0.017153364 -0.06439968 -0.040961772
0.24159436 -0.10878864 0.056169733 0.09777965 -0.13258319 -0.0711717 -0.005227938 -0.29218182
0.27515754 0.1938715 0.239439 0.13768436 -0.17592736 -0.0763731 -0.00010198705 -0.1920529
-0.008778632 -0.16290951 -0.29680073 -0.045806058 0.20883763 0.07404459 -0.010592835 -0.16209318
0.27828196 0.10312363 -0.2135591 -0.055826653 0.040449336 0.28537342 -0.034116466 -0.21127713
-0.019971482 -0.23492423 -0.09473525 -0.22212933 0.1390772 -0.014253765 0.241763 -0.0890922
-0.15101361 0.005343775 0.054156147 -0.24040404 -0.16997804 -0.120987214 0.049201634 -0.033854272
-0.059186403 0.06369135 -0.18969591 -0.17444256 -0.22968924 -0.023316713 0.28251216 0.12430522
0.16907255 -0.24401867 -0.14358592 -0.19700125 0.19360368 0.21267307 0.0078026652 0.049252182
-0.086443655 -0.276097 0.20590775 0.15227059 -0.19985381 0.08296666 -0.09830056 -0.27580646
-0.199201 -0.11052112 0.24727608 0.08960328 -0.25738826 -0.09155488 -0.19706495 -0.2954536
0.12984248 -0.28788295 0.11925121 0.058631036 -0.20490679 -0.18698308 0.13776238 -0.010048849
0.2026613 0.037086856 -0.12225733 -0.09516647 0.11681072 0.16387142 -0.046939604 0.16566585
0.1492484 -0.14835857 -0.014362809 0.061497726 -0.041174244 0.10840346 0.10246063 0.2882801

bias f4 [10]
00000000: 41fe 7f3e e5a8 2abe ec62 703e 8958 0a3e
00000010: 6d21 f03d e2eb 043e 8166 553e 2338 873e
00000020: 21a3 823e 73f1 a1bd
0.24999334 -0.1666599 0.23475236 0.13510336 0.117251255 0.12980607 0.20839883 0.26410016
0.25515082 -0.07907381

weight f4 [10, 10]
00000000: e592 c3bd 3fe1 1bbe 344c 19bd c34c 863e
00000010: a537 09bc 3731 223e c7c5 373e b3f5 6a3e
00000020: 2c2e 553d b63c 0d3e ec68 65be d9b1 d5bd
00000030: eb4c 99be c848 5b3e db71 a43d ad46 bdbe
00000040: 6aca b2bd ff07 5cbe daa3 033d 06bd 80be
00000050: 2389 6b3e 14ec 5d3e ff88 86bd 8248 52be
00000060: 2637 07be d852 1b3e 9478 003d 09d6 853e
00000070: d28f a13d bd04 453d 9c9d a53e b1a8 3040
00000080: 8b5d 293e cf5f 42be 1a5d 62be 9142 54bd
00000090: a230 bb3e 74c8 ca3e 94ef 063e bb28 8bbe
000000a0: 94a4 02be 9c18 1abe a1a3 51be 33f7 13be
000000b0: 818e bbbe e7c0 fbbd d47e 113e 06c9 48be
000000c0: 6d3e 5dbe e8fb 40bd 7224 9d3e a198 6f3e
000000d0: f95a 3cbe 2cf1 37bc 52dc efbd efb5 883e
000000e0: 5cf9 b43e e27d ac3e 31c4 57bd df35 763e
000000f0: 96a5 2dbe 2e54 b6bd bd6d a03e e347 833d
00000100: b750 61be 1901 923e 1b69 5abd 309d c23e
00000110: c2f9 9d3e 2d50 16bd 13ae 93be 7632 d43d
00000120: 8b6f 8a3d 1e76 573e 71e4 38bd 0d4b d9bd
00000130: b769 83be 8fe0 593d 82a6 2c3e 7c96 de3c
00000140: 790a ff3d c178 1b3e 106c 0abe ac3b 09bd
00000150: f978 533e d194 2fbe a09a a7be cf1b 163e
00000160: 0c60 a8be ee6a 133e c97b cdbe bb1d bfbe
00000170: e549 b6bd 241f c13e 11b3 023e 52de 05bf
00000180: 113d 41bc 1440 0abe 02fa 133e ec1e 513e
-0.09549502 -0.15222643 -0.03742619 0.2623044 -0.008375083 0.15839086 0.1794654 0.2294529
0.052045986 0.1379269 -0.22403306 -0.104343124 -0.29941496 0.21414483 0.08029529 -0.36967984
-0.08730014 -0.21487425 0.032138683 -0.25144213 0.23001532 0.21672088 -0.06569099 -0.20535472
-0.13204631 0.15168321 0.031364992 0.26139858 0.0788876 0.048100222 0.3234681 2.760296
0.1653959 -0.1898186 -0.22105828 -0.051821295 0.3656054 0.3960606 0.1317733 -0.27179512
-0.12758094 -0.1504845 -0.20472576 -0.14449768 -0.3663216 -0.122926526 0.14208537 -0.19607934
-0.21605845 -0.047115237 0.30691868 0.23398067 -0.18394078 -0.011226933 -0.11711945 0.26701304
0.35346496 0.3368979 -0.052677337 0.24043988 -0.16957697 -0.08902775 0.31333724 0.06410196
-0.22003447 0.28516462 -0.053322893 0.3801055 0.30854613 -0.036697555 -0.28843746 0.10361187
0.067595564 0.21041152 -0.045139734 -0.10610018 -0.25666592 0.05319267 0.16860393 0.027171366
0.124531694 0.15182783 -0.13517785 -0.033504173 0.20651616 -0.17146613 -0.32735157 0.14659046
-0.32885778 0.14396259 -0.40133503 -0.3732737 -0.08900813 0.3771907 0.12763621 -0.5229236
-0.0117943445 -0.13501006 0.14450839 0.20421952

bias f4 [10]
00000000: 1044 3abe a899 b43e e81d 783e 195c 643d
00000010: c492 243e 3f92 8c3e 64dd 123f 4f20 283d
00000020: 2269 823e 73c6 8e3f
-0.18190026 0.3527348 0.24230158 0.055751894 0.16071612 0.27455327 0.57369065 0.041046437
0.25470835 1.1154312

weight f4 [1, 10]
00000000: b291 52be 26e8 9cbe 0e7c b03d f44c 103f
00000010: 851a eebd 1832 403e a4ba 533e f363 16be
00000020: 3d1a 98be 7260 abbd
-0.20563391 -0.30645865 0.086174116 0.5636742 -0.11626152 0.18769109 0.20676666 -0.14686565
-0.29707518 -0.08368005
