twig/TWIG-I/checkpoints/chkpt-ID_4809175259079993_e5.pt (torch, 6234 bytes, 5 tensors)

weight f4 [10, 20]
0	0x3c55c65f	0.013047784
1	0xbd9073f0	-0.07053363
2	0x3d001787	0.031272437
3	0x3d8c1b7b	0.06841179
4	0xbe9ad28b	-0.30238757
5	0x3e39c379	0.18140973
6	0xbd612bd9	-0.054973457
7	0x3da3a913	0.07991233
8	0xbd51ec23	-0.05125059
9	0xbe822cad	-0.2542471
10	0xbe693b08	-0.22776425
11	0xbda1507d	-0.0787668
12	0xbe1b7dbe	-0.15184686
13	0xbd467ad7	-0.048456993
14	0xbe1fff9e	-0.15624854
15	0xbe70ade7	-0.23503838
16	0xbe5e00d2	-0.2168
17	0xbe46b66e	-0.19405529
18	0x3d9b9b02	0.07597925
19	0xbd15fcdf	-0.03661811
20	0xbe3ada55	-0.1824735
21	0xbdeaed8b	-0.11471089
22	0xbdf1e0a2	-0.118104234
23	0xbf064e93	-0.52463645
24	0xbe2287c3	-0.15872101
25	0xbd5274af	-0.05138081
26	0x3e11eea1	0.14251186
27	0xbd3e15c6	-0.046407484
28	0xbdf20e33	-0.118191145
29	0x3e05ad51	0.13054396
30	0xbe47dce2	-0.19517854
31	0x3e1385a8	0.14406455
32	0xbd483df1	-0.048887197
33	0x3d992ad9	0.07478876
34	0x3e4ae107	0.19812404
35	0x3f058e0d	0.5216988
36	0x3e214fe1	0.15753128
37	0x3da9885c	0.082779616
38	0xbcdd72dc	-0.027032308
39	0xbd6404b6	-0.055668555
40	0xbe4c0405	-0.19923408
41	0x3dd2a245	0.10284857
42	0x3e5d7169	0.21625294
43	0x3d3c47dc	0.045966968
44	0x3e5ad1dd	0.21369119
45	0x3ed9319c	0.4242066
46	0x3cd6bf6d	0.026214326
47	0xbdb28a9f	-0.08717846
48	0xbe90cee7	-0.28282854
49	0xbd1f5a4c	-0.038904473
50	0x3e0f5802	0.13998416
51	0x3e2a7193	0.16644888
52	0xbbc7f335	-0.0061019906
53	0xbe2aec32	-0.16691664
54	0xbeb08901	-0.34479526
55	0xbe9dbfd2	-0.3081041
56	0x3d6b677d	0.05747174
57	0xbe06eca0	-0.13176203
58	0x3dd66b7a	0.10469718
59	0xbdfc9efa	-0.1233501
60	0x3debd983	0.115160964
61	0xbde221b0	-0.11041582
62	0x3e26a158	0.16272485
63	0xbf027ae2	-0.50968754
64	0xbd804bdd	-0.0626447
65	0xbed95128	-0.4244473
66	0x3d191ff0	0.037383974
67	0xbd19de15	-0.03756531
68	0x3bd8e9dd	0.0066196756
69	0xbddf0d94	-0.10891262
70	0x3c09bea6	0.008407271
71	0x3d0b61fc	0.034028992
72	0x3d312c51	0.043255154
73	0xbe10528a	-0.14093986
74	0xbd802192	-0.06256403
75	0x3e0b1aa5	0.13584383
76	0x3e01bbd4	0.12669307
77	0x3d869021	0.06570459
78	0xbdc35497	-0.095376186
79	0xbd8dabef	-0.06917559
80	0xbc2839f8	-0.010267727
81	0x3c397470	0.011319265
82	0xbd498799	-0.04920158
83	0x3d84c1bc	0.064822644
84	0x3c1b4746	0.009477442
85	0xbeb725d3	-0.35771045
86	0xb84f3961	-4.9406084e-05
87	0xbd8e4e2d	-0.069485046
88	0x3d472ca7	0.04862657
89	0x3dc103c7	0.094245486
90	0xbd60b164	-0.054856673
91	0x3c18ec66	0.0093337055
92	0xbcb17546	-0.021662366
93	0x3c2560ef	0.010093912
94	0xbb245849	-0.0025077036
95	0x3d23678e	0.03989368
96	0x3e3ea7c7	0.1861869
97	0xbe177f75	-0.14794715
98	0x3d2708b6	0.04077979
99	0xbd4eb32c	-0.05046384
100	0x3d350b74	0.044200376
101	0x3cacb6a0	0.021083176
102	0xbe6bd2f7	-0.23029695
103	0xbc3403a9	-0.010987201
104	0x3e15eb86	0.14640626
105	0x3e9d8469	0.30765083
106	0x3db8b9b0	0.09019792
107	0x3dfd7d61	0.1237743
108	0x3c1ee93c	0.009699162
109	0xbc8ae13c	-0.016953103
110	0xbdcb0e68	-0.09914857
111	0xbe30b853	-0.17257814
112	0xbd3f619d	-0.04672395
113	0xbe8fa9a1	-0.28059104
114	0xbe76f257	-0.24115883
115	0xbd0b5ae9	-0.034022246
116	0x3d626f78	0.055282086
117	0xbc27c477	-0.010239712
118	0xbe22f68e	-0.15914366
119	0xbd088d97	-0.033338156
120	0x3e161d30	0.14659572
121	0x3c83ed11	0.016104253
122	0xbe617efb	-0.22021095
123	0x3c19bb21	0.009382994
124	0xbd923d7c	-0.071406335
125	0x3ebc353d	0.36759368
126	0xbe00ef9b	-0.12591402
127	0xbde5e69b	-0.11225625
128	0xbdfef4de	-0.124490485
129	0xbe4ddff6	-0.20104966
130	0xbe5a4d3e	-0.21318528
131	0xbe2ed412	-0.17073086
132	0x3dac804f	0.084229104
133	0x3b040d3b	0.0020149488
134	0x3db01055	0.08596865
135	0xbde499c4	-0.11162141
136	0xbe41da64	-0.18930966
137	0x3d4211c9	0.047380242
138	0xbd369b82	-0.044581898
139	0xbd67dd33	-0.056607436
140	0xbec6e531	-0.38846734
141	0xbe2587ff	-0.1616516
142	0xbd2086f5	-0.039191205
143	0x3d995a4c	0.07487926
144	0xbdcb6818	-0.09931964
145	0x3ec91d06	0.39279956
146	0xbe949f37	-0.2902772
147	0xbe08e3d3	-0.13368158
148	0xbeddd3a9	-0.43325546
149	0xbd334b7c	-0.04377316
150	0x3e1498aa	0.14511362
151	0x3d9da160	0.076967955
152	0x3dac242a	0.08405335
153	0xbbfffe5e	-0.0078123054
154	0x3d2221c0	0.039582968
155	0xbe76b6ee	-0.2409322
156	0x3d6cb944	0.05779387
157	0x3df7779f	0.12083363
158	0xbdaf2269	-0.08551485
159	0xbd21d3d4	-0.039508656
160	0xbecab96b	-0.39594588
161	0xbe5cb510	-0.21553445
162	0x3d3bf33c	0.045886263
163	0x3c2d72ea	0.01058648
164	0xbdf3fd39	-0.11913533
165	0x3ea2d5f6	0.31803864
166	0xbdd0225a	-0.10162802
167	0xbe4594e6	-0.19295081
168	0xbf0ba739	-0.54552037
169	0xbe258ddd	-0.16167398
170	0x3e11f877	0.14254938
171	0x3cd7ca2c	0.02634152
172	0xbdf94f54	-0.12173334
173	0xbc607ef4	-0.013702143
174	0xbde83690	-0.11338532
175	0xbe6f62f7	-0.23377596
176	0x3da4760a	0.08030327
177	0xbe0eef95	-0.13958581
178	0x3e1440fc	0.14477915
179	0x3d07fa53	0.033197712
180	0xbe9c9ba2	-0.30587488
181	0xbcb38088	-0.021911874
182	0x3e54a234	0.20765
183	0x3e00c7b0	0.12576175
184	0x3ea62f73	0.32458076
185	0x3e447254	0.19184238
186	0xbd8eec85	-0.06978706
187	0x3dbc75a1	0.092021234
188	0xbe2421af	-0.16028474
189	0x3dca219e	0.09869693
190	0x3ddec48e	0.108773336
191	0x3e30cf60	0.17266607
192	0x3e082645	0.13295849
193	0xbd6361c8	-0.055513173
194	0xbcb318c4	-0.021862395
195	0xbe3014c6	-0.17195424
196	0xbe05c73b	-0.13064282
197	0x3e756ed6	0.23968062
198	0x3e068691	0.1313727
199	0x3e62c978	0.22147167

bias f4 [10]
0	0x3e284bfe	0.16435239
1	0xbe5b3d75	-0.21410163
2	0x3eb55892	0.35419136
3	0x3dc86229	0.097843476
4	0x3e254b62	0.16142038
5	0x3e43c9a9	0.19119896
6	0x3e4b83db	0.19874518
7	0x3eb199b1	0.3468757
8	0x3e9023b6	0.28152245
9	0xbdc913a0	-0.09818196

weight f4 [10, 10]
0	0xbd120ecd	-0.035658646
1	0xbc73d385	-0.014881973
2	0xbdc9f536	-0.098612234
3	0x3ea98215	0.33107057
4	0x3d8787e8	0.06617719
5	0x3e04f95a	0.12985745
6	0x3e41aaf3	0.18912868
7	0x3e232c32	0.15934828
8	0x3cbbdf4e	0.022933628
9	0xbd0667bf	-0.032813784
10	0xbdb7b06f	-0.08969199
11	0x3de4f0ae	0.111787185
12	0xbe9bf4a2	-0.30460078
13	0x3ea20d44	0.31650746
14	0x3e2ba95b	0.16763823
15	0xbe94df27	-0.29076502
16	0xbe0438a9	-0.12912239
17	0xbe7a2ad4	-0.244304
18	0xbb8e81bd	-0.004348962
19	0xbe94ec34	-0.2908646
20	0x3cc632c7	0.024194134
21	0xbe96b220	-0.29432774
22	0xbe5a3513	-0.21309309
23	0xbe9211a4	-0.28529084
24	0x3e5b637a	0.21424666
25	0xbe594161	-0.21216346
26	0xbe956198	-0.2917602
27	0x3e5814d2	0.21101692
28	0xbdf1151c	-0.117716044
29	0xbd44dbf4	-0.048061326
30	0x3e102f47	0.14080535
31	0x3be7af09	0.0070704264
32	0x3db1a943	0.08674862
33	0xbe81334b	-0.25234446
34	0xbdd6ba7e	-0.10484789
35	0xbc3372ef	-0.010952695
36	0x3ecdae21	0.40171912
37	0x3ee7a6f3	0.4524456
38	0x3dac1e2a	0.08404191
39	0xbe3309ae	-0.17484161
40	0xbd6d95d0	-0.0580042
41	0x3e841633	0.25798187
42	0xbeb77d54	-0.35837805
43	0x3de03697	0.10947912
44	0x3d929b76	0.07158558
45	0xbe197198	-0.14984739
46	0x3e374772	0.17898348
47	0xbe8f4df5	-0.27989164
48	0xbe506824	-0.20352226
49	0x3b04d3b5	0.0020267789
50	0x3e575939	0.2103013
51	0x3c6738a1	0.0141126225
52	0xbdd75238	-0.10513729
53	0xbdedb4c2	-0.116067424
54	0xbe3c7ea0	-0.18407679
55	0x3e889f65	0.26684108
56	0x3ebaf706	0.3651659
57	0x3ed7b28a	0.42128402
58	0x3cc1a0f9	0.023636328
59	0x3edb2d92	0.42808205
60	0xbe622cf6	-0.22087464
61	0xbe92da4a	-0.28682166
62	0x3ecb6072	0.3972202
63	0xbd654793	-0.05597646
64	0xbed3ee43	-0.41392717
65	0x3e926221	0.2859049
66	0xbcdf4010	-0.027252227
67	0x3ef25bdf	0.47335717
68	0x3eb5ab49	0.35482243
69	0x3def1ee3	0.11675813
70	0xbdc75690	-0.09733307
71	0x3eb3ca97	0.351155
72	0xbcab02b3	-0.02087531
73	0x3eade377	0.33962604
74	0x3d907305	0.07053188
75	0x3dee9b0a	0.11650665
76	0xbe88d861	-0.26727584
77	0xbc558883	-0.013033035
78	0x3dfe95ab	0.12430891
79	0xbe1e9667	-0.15487061
80	0x3ea0c3db	0.31399426
81	0x3eab5c2c	0.3346876
82	0xbe742116	-0.23840746
83	0x3d6dbd59	0.058041904
84	0x3e87b541	0.26505473
85	0xbe85ebc9	-0.26156452
86	0xbea01e99	-0.31273344
87	0x3d5f8e31	0.054578964
88	0xbebc50cd	-0.36780396
89	0xbd3cc9a0	-0.046090722
90	0xbda83c33	-0.08214607
91	0xbd8981ed	-0.067142345
92	0xbe6442a2	-0.22291043
93	0x3f16ac42	0.58856595
94	0x3e99f8c2	0.300726
95	0xbe28a49e	-0.16469046
96	0xbc0d0598	-0.008607291
97	0xbe4d3b7c	-0.20042223
98	0x3dcfd4f7	0.10148042
99	0xbdcc1839	-0.099655576

bias f4 [10]
0	0xbdbcfbea	-0.09227736
1	0x3eccebfe	0.40023798
2	0x3dec1577	0.115275316
3	0x3dc861e0	0.09784293
4	0x3e8d2cca	0.27573234
5	0x3e6fe4a8	0.23427069
6	0x3ef0aff6	0.47009248
7	0x3e0d0e93	0.13775091
8	0x3e9fd4ce	0.31217045
9	0x3e9c96bd	0.30583754

weight f4 [1, 10]
0	0xbdba82ea	-0.09107001
1	0xbecde512	-0.4021383
2	0xbd5ea2ee	-0.0543546
3	0x3edfa650	0.43681574
4	0xbe89a6f7	-0.26885197
5	0x3eba2433	0.36355743
6	0x3e9b32a2	0.30312067
7	0xbe61bde3	-0.22045092
8	0xbedf722f	-0.43641803
9	0xbe681a0e	-0.22666189
