twig/TWIG-I/checkpoints/chkpt-ID_9843362776998354_e5.pt (torch, 6298 bytes, 5 tensors)

weight f4 [10, 21]
00000000: ca6a 09bd 4887 afbd 8a43 b43d 7775 e6be
00000010: 6b54 c7be 8374 9e3c 804c 0ebe 9603 06bc
00000020: f8ae 2a3d aee2 cabd bbd2 b9bd bf05 6b3d
00000030: 8275 c63c 8cba 06be f3ad ec3a 9416 de3b
00000040: 5ec2 693e 0301 0e3d ac73 e8bb d54f 043d
00000050: fd88 aebc 0900 113c c4d8 9e3e 97a8 27bf
00000060: cd30 263d 3a18 d73e 9420 203e c1e7 283d
00000070: 3d19 62bc 3833 5d3e 12bf 9bbe a457 babd
00000080: 061d a7be 6f02 293d 84e2 153e f8a7 173e
00000090: 14dc 943d df00 b3be f4b6 bfbe ad24 1dbe
000000a0: 632f b8be 1c80 d13c c4ad a7bd 5195 66be
000000b0: ae50 a0bd cf8f fc3d ab79 bf3e 3f33 57be
000000c0: c08d 8abe 0a04 9cbd 3211 6dbd 159e 2f3e
000000d0: aadf e5ba 05d5 10be 8676 83be dffc 9bbd
000000e0: 002b 9e3d 28d4 44be 13d3 6abc 9a99 93be
000000f0: ba49 0e3e c473 2ebe 59a7 cb3c 3007 e0be
00000100: 72ac 81be 395e 47be 7102 f5be 95e7 96be
00000110: 8642 643d 649f 33bd fe12 103e 6f61 53be
00000120: 4265 e7bd a423 0bbe df9b 6ebd de74 253d
00000130: 9c5d 3a3e 41f7 783d a3c4 ccbc 5e2c 403d
00000140: b889 f8bc 7727 433e 0def 3b3d 1e06 f33d
00000150: 763c ad3d ab07 e9bd 0904 803b c645 3e3d
00000160: 778d 01bf 1b89 2cbc 9615 e3bd 6680 e1bc
00000170: b784 babd c7aa d63d e697 a1bc 245e 763d
00000180: e14e 34bd 2c14 21bd c6d1 a0bd fcac 7a3d
00000190: 5d5b 1e3d 9ced 0e3d 8c7a adbd 7eb0 0cbe
000001a0: 11f4 b73b cb30 0c3e ad0b ca3d 1311 073e
000001b0: b8c4 f4be 6eb8 57be 106c 95bd 74c8 78be
000001c0: 8c91 0fbc 9a70 91bd 3ff5 69be bf3c cd3d
000001d0: 22f5 023e 3bdd 18bc b114 1a3d 2e6a 3cbe
000001e0: c454 3c3e 015e df3e a6ef b33d 103c febd
000001f0: 23d4 f33d 63c5 e83d d72a a3bd fb06 7dbe
00000200: fe07 9bbd d1ec a4be 5cbc b4be 90a9 0ebc
00000210: c49c f73d d4f5 b3bd e50a 1e3e a5b1 f03c
00000220: b03e b0bd 44a2 0e3e 8cdf 393d b2e5 283d
00000230: 2848 aebd a739 953a eeb8 a23e 230f b93c
00000240: 75b1 5fbd 2b0a 543d 00be e5bd 1945 a3be
00000250: e0a4 8abe 5a71 8c3c f990 433e 8e93 8d3e
00000260: 0951 9b3d 68d7 91be f8fb 16be 1610 a9be
00000270: 5055 513e ac5f d63d 80a9 2bbd f4ef adbd
00000280: e448 85bd 2435 8dbe ba2d 063e 0762 ef3c
00000290: 2c7f d2bd ec08 013e 3fea 003d 2e6f bdbe
000002a0: 6508 19be f44d 89be 71dd 533e d0bf a03d
000002b0: 5372 b3be 7ff6 b5bd 2914 68bd 1d11 b3bd
000002c0: 5825 4a3e 0271 3abe 9380 e23d 316b 1dbd
000002d0: ad2b 2bbe ff3a 83be abd5 d03d d1fb 4ebd
000002e0: ab91 b23e 3336 933a 13db 7abe 3de7 cbbd
000002f0: b814 adbd ffb2 f1bd 7f15 17be d76c 653c
00000300: 5c3e e03d 5e54 80be b7f1 f13b 4885 623b
00000310: 3d1b 96bd 9856 1c3c 120f e93d ab07 1dbd
00000320: 4889 2a3d cfe4 86be 34fb fc3d f8ac fd3d
00000330: 7134 1a3e cf6f 173d 3156 9d3d ca10 b53c
00000340: 7c54 bc3d 38d5 e5bd
-0.033549108 -0.08570725 0.088019446 -0.45011494 -0.38931593 0.019342666 -0.1389637 -0.008179566
0.04167077 -0.09906517 -0.09073397 0.057378527 0.024225954 -0.131571 0.0018057212 0.006777594
0.22828051 0.034668934 -0.0070938673 0.032302696 -0.021305555 0.008850106 0.31024754 -0.6549162
0.040573884 0.4201067 0.15637428 0.041236643 -0.013799963 0.2160157 -0.30419213 -0.090987474
-0.3263933 0.041262086 0.1463719 0.14810169 0.07268539 -0.34961602 -0.3744427 -0.15346022
-0.35973653 0.025573783 -0.0818744 -0.22517897 -0.078278884 0.12332117 0.37397513 -0.21015643
-0.27061272 -0.07617958 -0.057877727 0.17150147 -0.001753797 -0.1414376 -0.25676364 -0.07616591
0.07723045 -0.19221556 -0.014332551 -0.28828126 0.13895312 -0.17036349 0.024860071 -0.43755484
-0.25326878 -0.19469537 -0.47853425 -0.29473558 0.055727504 -0.04385318 0.14069745 -0.20642637
-0.1129861 -0.13587815 -0.05825412 0.040394656 0.18199772 0.060782675 -0.024996107 0.04691731
-0.030339107 0.19058023 0.045882273 0.11866401 0.08458798 -0.11378416 0.003906731 0.04645326
-0.50606483 -0.010530735 -0.110881016 -0.027527045 -0.091073446 0.10481792 -0.019725751 0.060148373
-0.044020537 -0.039325878 -0.07852511 0.061200127 0.03866135 0.03489457 -0.084706396 -0.13739201
0.005613812 0.13690488 0.09865508 0.13190107 -0.47806334 -0.21066448 -0.07296002 -0.24295217
-0.008762728 -0.07101555 -0.2284746 0.10021352 0.12788823 -0.009330089 0.03761739 -0.1839988
0.1839171 0.43626407 0.08785944 -0.124138 0.11905696 0.113657735 -0.079671554 -0.24709694
-0.07569884 -0.32211927 -0.35299957 -0.008707419 0.120904475 -0.08787122 0.15433843 0.029381583
-0.08605707 0.13929087 0.045379207 0.04123468 -0.085098565 0.001138498 0.31781715 0.022590226
-0.054612596 0.05176751 -0.1121788 -0.31888655 -0.27078915 0.017143894 0.19098271 0.27651638
0.075838156 -0.28484654 -0.14744556 -0.33020085 0.204427 0.10467467 -0.041909695 -0.08493033
-0.065080434 -0.27579606 0.13103381 0.029221548 -0.10278162 0.1260106 0.031473394 -0.36998886
-0.14944609 -0.26817286 0.20689942 0.07849085 -0.3504816 -0.08884906 -0.05665985 -0.087434985
0.19740808 -0.18207172 0.1105968 -0.038432304 -0.1671588 -0.25630948 0.10197004 -0.05053312
0.3487676 0.0011231363 -0.24497633 -0.099562146 -0.084512174 -0.11801719 -0.14754294 0.014003
0.10949394 -0.25064367 0.007383551 0.0034564305 -0.07329414 0.00954213 0.113798276 -0.03833739
0.041634828 -0.26346442 0.12352601 0.12386507 0.15059067 0.036971863 0.07682455 0.022102732
0.091958016 -0.11222309

bias f4 [10]
00000000: 5c69 72be bd84 0a3e b1fe 1f3e 7a4a 563e
00000010: d351 bfbd 00ee 103d 6f38 2c3e bfcc b23e
00000020: 07e8 6a3e 5f42 e33d
-0.23673004 0.13527198 0.15624501 0.20926848 -0.093417786 0.035383224 0.16818403 0.34921834
0.22940074 0.11096644

weight f4 [10, 10]
00000000: 48bf 5abe 7574 a2bd 931a 65be 1b21 913d
00000010: 597a 8dbd 590d b3be 5122 abbd c4ef 15be
00000020: 0606 533d c07b b3be 29af 003f efbb 77be
00000030: c722 a2bd 91dc 9b3e 5035 fa3e 65f6 1d3c
00000040: 3454 643e 0791 723e fb74 783e 6a31 7d3e
00000050: 9443 46bc 38f6 5dbd 1be9 983d 870b 80be
00000060: cb00 c7be be29 bdbd 31e0 6e3e 0a3b ec3e
00000070: d7bf 0dbb f263 72be 125e 9a3d 1336 7cbe
00000080: f5b4 82be 8cdf 453d 6f85 14bd 4495 f93c
00000090: 1d99 b53e 9570 88be e07a 9d3b 3cce 7b3d
000000a0: f514 bc3e 1a75 a43c 8299 c0be 34a5 3e3e
000000b0: 46a9 d53d c01b b83e 5a5c ce3e 83a3 ed3d
000000c0: 678b cd3c 03d1 a43e 455e cfbe 94a6 b0bd
000000d0: 8a3a a53e 6059 053e 4f71 9abe 292d 8dbb
000000e0: fb12 71be 2637 e03e 9ec0 413d 8479 2f3d
000000f0: 6661 c1be ae11 983e 4df4 733e a723 d63d
00000100: a9d5 70be 38e9 633c b994 48be 4b0f 863e
00000110: f893 f73d 5357 0b3d 38e4 783d 6db2 863e
00000120: 5f7e 8abc c871 c0bd 4751 0cbd 60e0 ad3b
00000130: 357f 26be 12f5 ab3e 5184 95be a880 183e
00000140: 931a 273d 14c3 82be 2e80 d2bd b0c5 da3e
00000150: 8980 e83d a9f9 25bc 1cef bd3e 71a3 1abe
00000160: 123c cb3e 51f8 fb3d 7b26 e63d f996 fe3d
00000170: 8436 8e3d bf1c d63d 25bd c13e 2789 9a3e
00000180: e240 ca3e e8f2 d6bd 07db e13e e7f9 a13e
-0.2136203 -0.07932369 -0.22373419 0.070863925 -0.069081016 -0.3497112 -0.08356155 -0.14642245
0.051519416 -0.3505535 0.50267273 -0.24192785 -0.079167895 0.30441716 0.488688 0.009641265
0.22297746 0.23688136 0.24263375 0.24725881 -0.012101073 -0.05418989 0.07466336 -0.25008795
-0.38867792 -0.09236477 0.2332771 0.46138793 -0.0021629238 -0.23670939 0.07537474 -0.24630003
-0.25528684 0.048308894 -0.036260065 0.030466683 0.3546838 -0.26648393 0.0048059076 0.061475977
0.3673474 0.02007537 -0.37617117 0.18617707 0.10432677 0.35958672 0.40304834 0.11603453
0.025090886 0.32190713 -0.4050161 -0.08625522 0.32271224 0.13022375 -0.30164573 -0.004308362
-0.23542397 0.43792075 0.047302835 0.042840496 -0.37769622 0.2970099 0.23823662 0.10456019
-0.23519005 0.013910584 -0.19587983 0.26183543 0.1208877 0.034018826 0.06076452 0.26308003
-0.016905962 -0.09396702 -0.0342572 0.0053062886 -0.16259463 0.3358541 -0.29202512 0.14892828
0.040796828 -0.25539458 -0.102783546 0.4272895 0.11352641 -0.010130324 0.37096488 -0.1510141
0.39694268 0.12303222 0.11237808 0.124311395 0.06943992 0.10454702 0.37839618 0.30182764
0.39502627 -0.104955494 0.44112417 0.31635973

bias f4 [10]
00000000: bacd 42be 9e0b 80be a8bf 0e3e 054e 383e
00000010: 7c73 07be b818 cd3e 1e64 993e 1511 c03d
00000020: 13b0 37be d28d 3cbe
-0.19023791 -0.25008863 0.13940299 0.17998512 -0.13227648 0.4005792 0.29959196 0.09378258
-0.1793826 -0.18413475

weight f4 [1, 10]
00000000: b4d8 ef3d 4635 29bf 31ed f43d d7fb 94be
00000010: 79b2 7abe 0fe6 413e 8620 833e 5042 963e
00000020: 2d49 62be 2f0d 70be
0.11711255 -0.66096914 0.11959303 -0.2909839 -0.24482144 0.18935417 0.2561075 0.29347467
-0.22098227 -0.23442529
