twig/TWIG-I/checkpoints/chkpt-ID_6212862368470730_e15.pt (torch, 6244 bytes, 5 tensors)

weight f4 [10, 20]
000000 5f 6e 48 3d 6d c5 69 be cd 0d f9 3d be 4c 2f be
       0.048933383 -0.22829218 0.121608354 -0.17119119
000010 b9 85 9e be a7 8e ac 3c 54 b4 7a 3d 7a ac 4b 3e
       -0.30961397 0.021064116 0.06120713 0.19890013
000020 73 75 9b 3d f3 72 3b be 3e 82 29 be 92 5f ea bc
       0.07590761 -0.18305568 -0.1655359 -0.028610025
000030 2d 23 33 3e b7 9b d6 bc e7 33 3f 3d 1a 34 57 be
       0.17493887 -0.026197297 0.046680357 -0.21015969
000040 91 5f 95 be d0 bb 56 be 4a 31 8b 3d 0c 2b 1b be
       -0.29174474 -0.20970082 0.067965105 -0.1515314
000050 09 62 5d be d9 fe 85 bf e8 d6 0d 3d d2 9c 88 bf
       -0.21619429 -1.0468398 0.03462878 -1.0672858
000060 7f bf 4c be 7c 1a f2 3c 0d 0a 00 be 6f d4 cf 3c
       -0.19994925 0.029553644 -0.12503834 0.02536985
000070 a9 3b 4a bd b6 06 1f bd c0 6e 11 bd 9c 30 d7 3d
       -0.049373303 -0.03882476 -0.03550601 0.105073184
000080 5c 1a 88 3d 51 02 44 bc e5 10 08 3e d1 16 98 3f
       0.06645653 -0.011963443 0.13287695 1.1881963
000090 73 d1 36 bc be 2e 70 bd 20 24 8d bc ff 17 09 3e
       -0.011158335 -0.058638327 -0.01722914 0.1338806
0000a0 01 b4 8f 3e b1 2c 2f 3f 7f 5b f0 3d f3 b5 cb bd
       0.2806702 0.6842757 0.117362015 -0.099468134
0000b0 3c 02 78 3f f4 53 6e 3e a2 cd d7 3d ed f3 4e bc
       0.9687841 0.23274213 0.10537268 -0.012631399
0000c0 0b 78 f3 be 5e f8 d6 bc c9 f7 b3 bc 8b 6a 1b 3d
       -0.47552523 -0.026241478 -0.02196874 0.037943404
0000d0 48 25 db bc b0 fb 08 3d 25 a8 a5 bc 9a 0d d6 bf
       -0.026751176 0.033443153 -0.02022178 -1.6722901
0000e0 b0 5e 4b 3d 9d 5d ad bd f7 a2 21 3c bd 3f 06 be
       0.049650848 -0.08465121 0.009865514 -0.13110252
0000f0 76 a7 c5 3d da 6b 8e be 15 90 a9 3d d2 1a 01 bf
       0.09651081 -0.2781666 0.082794346 -0.5043155
000100 d7 96 31 be 3c 52 15 bf eb 48 d6 3b f6 29 43 3d
       -0.17342697 -0.58328605 0.006539454 0.04764744
000110 75 56 3e 3d 79 f7 c9 bd ea 6d eb bc 3c fe ce 3c
       0.04646917 -0.09861655 -0.028738935 0.025267713
000120 af 2c ac bd 4e f5 8e be a7 de 71 3d 3e 4a 9a 3e
       -0.0840696 -0.27921528 0.05905023 0.30134767
000130 ec d6 20 3e a0 bd 03 3d 25 ba 81 bd 18 bd 0d be
       0.15706986 0.032163262 -0.063343324 -0.13841665
000140 a8 11 fc bc 62 f0 a4 be d5 17 51 3a d3 9d 00 3e
       -0.030770138 -0.32214648 0.00079762685 0.12560205
000150 e2 e4 e8 bd 82 0e 23 bf 12 6e 8b bd 58 b2 01 bd
       -0.11371781 -0.6369401 -0.068081036 -0.031664222
000160 9e 8f 34 3d 14 c0 93 3c 71 7a 4c be 3a 8d 50 bd
       0.044082277 0.018035926 -0.19968583 -0.050915934
000170 1a 39 bf bc 31 ad 9f bc 0c e3 88 3d 01 49 c2 3e
       -0.023342658 -0.019491764 0.06683931 0.37946323
000180 02 4e 20 3e c8 88 9f bd 0a d3 b4 3d b8 c6 e1 bd
       0.15654758 -0.07789761 0.08829315 -0.11024231
000190 8e 7b 01 3e 68 07 94 3d 2b 34 e9 be 3a f7 0b 3d
       0.12644789 0.07227975 -0.45547614 0.03417132
0001a0 1b cb 6f 3d ce e6 9f 3e 93 69 1f 3e 88 2e 06 bd
       0.058543306 0.31230778 0.15567617 -0.03275922
0001b0 49 92 b4 bb 5c ba 58 3b 47 35 e9 bd 4b e6 38 be
       -0.0055106026 0.0033070063 -0.11387115 -0.180566
0001c0 29 f2 1e bd af bf 1d 3e 64 8a d4 bc 80 bc ea bd
       -0.03880516 0.15405153 -0.025944896 -0.11461735
0001d0 1f b3 38 bc 76 1c c9 3c 1d 91 5e be 0d d0 db bc
       -0.011273175 0.024549704 -0.21735044 -0.026832605
0001e0 98 35 8b 3d 7c 8c bb 3d 07 b1 a3 be 64 fe 14 3e
       0.067973316 0.09157655 -0.31971 0.14550167
0001f0 1f 49 d8 bd 37 f5 a9 3e 6a 6c f5 3b 6d 26 0f be
       -0.10560822 0.33194897 0.0074897306 -0.13979502
000200 f5 e3 75 be 1b f2 4c be 7d bd 8e be 67 01 56 be
       -0.2401274 -0.20014231 -0.27878943 -0.20898972
000210 2b a8 dc bc 92 c3 ec 3b 96 50 98 3c a5 f6 7a be
       -0.026935657 0.0072254622 0.018593114 -0.2450815
000220 3a be 71 be 1e 6b ce 3d 4c 4e 14 bd b9 40 b4 bd
       -0.23607722 0.10079025 -0.036207482 -0.08801407
000230 c6 9f cf bd 4b 1f 9a be 13 e2 2b be 92 b7 2e 3e
       -0.10137896 -0.30102 -0.16785459 0.17062214
000240 ff c8 3d be 6b f7 ae 3e 5b a4 9f be 59 d2 92 be
       -0.18533705 0.3417314 -0.3118008 -0.28676108
000250 39 de 18 be f3 5c 07 bd fc 67 8d 3c fc 99 42 3c
       -0.14928521 -0.033047628 0.017261498 0.011877533
000260 19 99 cb 3d 60 db b7 bd f7 32 02 3d 5c 4c d3 be
       0.099413104 -0.08977389 0.031786885 -0.41269195
000270 4a e8 99 3d 61 71 c2 3d 3a f4 49 bc 2e b2 a8 be
       0.07515009 0.094942816 -0.012326295 -0.3294844
000280 7e fd c4 be 4c b0 80 be 54 4a e1 3d 8c 87 96 3d
       -0.3847465 -0.25134504 0.11000505 0.07350072
000290 54 fe 02 be ac 1f d1 3e e8 dd 8b 3d b9 4f 3f be
       -0.12792331 0.40844476 0.06829435 -0.18682756
0002a0 0c bb 0b bf ba 2a 7f bd 4f 8a 09 3e d5 9a 94 3d
       -0.54582286 -0.062296607 0.13431667 0.07256094
0002b0 84 8b 74 be e2 ec 24 3d 3b 7f 06 bd cd c0 c7 be
       -0.23881346 0.04026497 -0.03283618 -0.39014283
0002c0 9e f7 bd bc a5 de 02 be 49 21 f5 3d bb e1 0e bd
       -0.023189362 -0.12780245 0.11969239 -0.034883242
0002d0 0e d9 a3 be aa 11 9d 3e 4a 12 e9 3d 74 4d 43 3b
       -0.32001537 0.3067754 0.113804415 0.0029800804
0002e0 41 cc 98 3e d9 c2 6c 3e 47 43 28 3e ab 70 51 3e
       0.29843333 0.23121203 0.16431914 0.20453136
0002f0 cb bd a9 be f7 0d ce 3d 79 86 da 3d a0 a5 4d 3e
       -0.33152613 0.10061257 0.1067018 0.20082712
000300 0d aa 3a 3e c8 c8 37 be e7 4e 59 bd 7b 81 a5 be
       0.18228932 -0.17947686 -0.053053763 -0.32325348
000310 e2 cc 6c be cb ab 75 3e 3c d7 f3 bb 31 92 13 3f
       -0.23125032 0.23991315 -0.0074414294 0.57644945

bias f4 [10]
000000 7e 81 38 3e db d3 f3 bd 91 03 5c 3e 89 47 78 bd
       0.18018147 -0.119056426 0.21485735 -0.060615096
000010 6e b1 fa 3c 36 37 76 3e c6 9d 8c 3e cf 31 c4 3e
       0.030602183 0.24044499 0.27464122 0.3831925
000020 5d 21 44 3e 30 17 da bd
       0.19153352 -0.10648954

weight f4 [10, 10]
000000 9e 72 8e bd 92 ad dc 3e 9c cb 81 be 0e 31 af 3e
       -0.06955455 0.43101174 -0.25350654 0.34217113
000010 35 bf 3e 3e ee 4e 12 3e 0e 88 30 3e 1f 75 0f 3e
       0.18627627 0.14287922 0.172394 0.14009522
000020 6d 28 c6 3d 52 ce 0e 3e 13 eb 21 be 4d 42 27 3e
       0.09675679 0.13945892 -0.1581233 0.16333885
000030 48 df e3 be 7e cc a0 3e 46 8c 81 3e 58 21 c3 be
       -0.44506288 0.31406015 0.25302333 -0.38111377
000040 e1 e1 c3 bd 1e ae 6f be 96 59 dc 3d 35 ad 7a be
       -0.09564567 -0.23406264 0.10759275 -0.24480136
000050 d2 ad c3 be 0a a4 c0 bf 35 e7 98 3f 27 96 e3 be
       -0.38218552 -1.5050061 1.1945559 -0.44450495
000060 37 5c 9c be 07 04 44 bc a2 71 90 3e f2 ed ef 3e
       -0.30539104 -0.011963851 0.28211695 0.46861225
000070 d3 a4 ad bb 97 2d 26 3e 8a 1c 22 3e 6c 58 f8 bd
       -0.0052991896 0.16228329 0.158312 -0.1212624
000080 53 7b f6 3e b5 1e 76 be ab e2 ab bd 4c b8 b6 bd
       0.48140964 -0.24035151 -0.08392843 -0.089218706
000090 93 d8 d5 3e 81 60 e9 3e df 93 9f 3c b3 cb 7e bd
       0.41766796 0.4558144 0.01947969 -0.06220598
0000a0 5b 5b 09 be 2d 66 ed 3e 6d 6d 80 bf e7 43 1f 3e
       -0.13413756 0.46367016 -1.0033394 0.15553246
0000b0 f1 df b3 3e 49 ee 30 be 84 47 fa 3d 4d b1 b8 bd
       0.3513179 -0.17278399 0.12220672 -0.090181924
0000c0 97 ad 47 be 10 76 09 3c 78 6e 32 3e f0 dc da bd
       -0.19499813 0.008389965 0.17424953 -0.10686672
0000d0 0b c9 02 3d 5f 2a fe bd 32 89 8c be b9 33 30 3e
       0.03193001 -0.124104254 -0.27448422 0.1720723
0000e0 6c ea b3 3e b0 ce d8 3e e1 2b 87 bd 3f 3a af 3e
       0.35139787 0.4234519 -0.06600166 0.34224126
0000f0 50 05 ba be b8 dc 13 bf c5 43 15 3f a6 e6 84 bd
       -0.36332178 -0.57758665 0.58306533 -0.06489305
000100 2b 8d 04 bf ed 5c 33 3e 44 61 a8 bc 0a de e9 3e
       -0.51777905 0.17515917 -0.020554192 0.45677215
000110 28 7c 6d 3e fd 2f 78 3c dc f8 73 be cb 09 13 3f
       0.23191893 0.01514816 -0.23825401 0.5743682
000120 73 08 57 be cd 72 a0 3e f6 42 75 3e f3 30 ee bd
       -0.20999317 0.31337586 0.23951325 -0.1163043
000130 52 8f 83 be 15 da bc bc 7e 95 64 3e e6 e4 6c 3d
       -0.25695282 -0.023053208 0.22322652 0.057835482
000140 f8 51 87 3e 68 92 f5 3e c6 18 be be 2b 3a a0 3d
       0.26429725 0.47963262 -0.37128276 0.07823595
000150 08 93 a6 3e 9c 99 2b be 1a c4 a8 be 05 05 88 3d
       0.3253405 -0.16757816 -0.32962114 0.066415824
000160 6a 15 d5 be 37 d3 11 bd 2e bd 80 bd 63 76 43 3f
       -0.416179 -0.03560182 -0.06286083 0.7635252
000170 e0 24 1e bf 57 b7 1b 3f 8f 34 b7 3e d4 85 77 be
       -0.61775017 0.6082663 0.35782287 -0.24172145
000180 35 61 7c bd 0c 50 90 be 37 9f 55 3e e5 82 54 3d
       -0.06161614 -0.2818607 0.20861517 0.051882643

bias f4 [10]
000000 52 88 1c 3e de b9 d6 3e d9 05 e0 3e 25 97 eb 3d
       0.15286377 0.4193868 0.4375446 0.11503438
000010 6f a5 b7 3e c6 5e 44 3e 77 24 11 3f 40 4f 5d 3e
       0.35868403 0.19176778 0.56696266 0.21612263
000020 f0 5c 88 3e d1 ff d0 3e
       0.26633406 0.40820172

weight f4 [1, 10]
000000 b1 85 4b be 05 27 e8 be 03 96 14 3f 28 30 f5 3e
       -0.19875218 -0.4534227 0.580414 0.47888303
000010 6d d9 3d bf e1 d0 8a 3e ac 36 9f 3e 9a 2d ae be
       -0.7415989 0.27112487 0.310964 -0.34019166
000020 0c 03 00 bf ac 9e a3 be
       -0.5000465 -0.31956995
