twig/TWIG-I/checkpoints/chkpt-ID_9764679446152334_e5.pt (torch, 6362 bytes, 5 tensors)

weight f4 [10, 22]
000000 6e 5a 00 be 83 4c 1c be 6f dd 60 3e b1 41 95 be
       -0.12534496 -0.15263562 0.2195947 -0.2915168
000010 cb 8a b3 be 68 52 8c 3d 45 b4 89 be d1 5a 41 bd
       -0.35066828 0.06851655 -0.26895347 -0.04720575
000020 2e a3 ea bd 60 07 a7 be 1e ed b0 be 69 7b 34 3a
       -0.11456905 -0.32622814 -0.34555906 0.00068848446
000030 87 08 14 be 34 1c e7 3d 88 28 90 bd b1 ce 8a be
       -0.14456378 0.11284676 -0.07038981 -0.27110818
000040 43 14 b3 be 86 fd a8 be 67 3e 45 3e a2 8e 56 3d
       -0.34976396 -0.33005923 0.19262086 0.05238212
000050 f0 ed 0e bd d6 36 a7 be c2 74 36 bd cc f9 8f be
       -0.034894884 -0.32659024 -0.044544943 -0.28120267
000060 07 be 6c bd 04 f7 8a 3d e1 f7 28 bd bd 31 10 bd
       -0.05779841 0.06785396 -0.04125202 -0.035203684
000070 3b cb 81 be 97 d2 6f 3d a3 55 93 be ff ee cc 3d
       -0.25350365 0.058550444 -0.28776273 0.100065224
000080 5c 5f 24 bd a8 a2 91 3d fa e5 8a 3e 36 d0 1b 3e
       -0.040130004 0.07111102 0.27128583 0.15216145
000090 ca 2c 52 3d b6 1e 0b 3e fc ad 2d bd 04 c4 38 be
       0.051312245 0.13585934 -0.042402253 -0.18043524
0000a0 82 e9 53 bd ad 59 2f bd f0 52 3b 3e 09 6f 5c be
       -0.051736362 -0.04281013 0.18293357 -0.21526732
0000b0 67 b1 4e bd c1 30 81 bd bb 85 39 3d f5 59 1e be
       -0.050462153 -0.06308127 0.04529355 -0.15464003
0000c0 04 96 c9 be 4c fb 0b bf f1 b5 b9 3c 75 e4 19 be
       -0.39372265 -0.54680324 0.022669764 -0.15028556
0000d0 a1 68 1f 3c 8f 15 4f bd 24 40 81 bc bc 87 9e bd
       0.009729535 -0.05055767 -0.015777655 -0.07740733
0000e0 3c 19 58 3e a0 18 20 be 48 80 b4 bb 90 90 a2 be
       0.21103376 -0.15634394 -0.0055084564 -0.31750917
0000f0 87 1c ba be 0b 32 7f 3f b6 9b b4 3d 45 fe 36 be
       -0.3634989 0.99685735 0.08818762 -0.17870434
000100 ea 20 09 be 66 b4 55 be ca 67 61 be 61 73 44 3d
       -0.13391462 -0.20869598 -0.22012249 0.047961596
000110 10 d0 6d bd 06 66 1e be 52 a8 79 3e f5 5e bd 3c
       -0.058059752 -0.15468606 0.24380615 0.023116568
000120 0b f3 68 be 6c 0c d2 bd af 2a 23 3d 8b c2 51 be
       -0.22748964 -0.102562755 0.039835628 -0.20484369
000130 01 4b 0f 3e 5d 06 e7 bd 7f 49 09 be 66 97 5b be
       0.13993455 -0.112805106 -0.13406943 -0.21444473
000140 e9 23 7d be b0 8a ed 3d 94 de 06 be 23 6f 81 3e
       -0.2472073 0.11598718 -0.13170844 0.25280103
000150 5f fa ba 3d 63 d8 13 be e7 3c 56 3c 5a 76 d0 3e
       0.09129786 -0.14438014 0.013076044 0.40715295
000160 b8 cb 8b be d5 93 98 3e 37 be 7c bc ec 54 52 bd
       -0.27303863 0.29800287 -0.01542621 -0.05135052
000170 38 18 58 3d 9f 15 ab 3d 19 22 14 bb b4 39 da 3d
       0.05275747 0.08353733 -0.0022603332 0.10655537
000180 b8 58 6d 3e 57 ab 4b be d7 39 f5 3c 62 cb 8f be
       0.23178375 -0.1988958 0.029934807 -0.28084856
000190 c2 92 fa bd 92 55 fe be 17 c7 9f be c5 8e a9 bd
       -0.12235023 -0.4967466 -0.3120658 -0.08279184
0001a0 aa 9d 09 3e 15 89 87 be d8 d2 41 3e 70 43 cf 3e
       0.1343905 -0.26471773 0.18928087 0.40481138
0001b0 90 33 65 bd e7 27 33 3f 34 57 8e be c1 ae a4 be
       -0.055957377 0.6998276 -0.27800906 -0.32164577
0001c0 83 4c 74 be 7f 29 69 be b0 9f b7 be 5c e5 c0 3d
       -0.23857312 -0.22769736 -0.3586402 0.09418747
0001d0 61 0a 0b 3e f6 d1 2f be e7 a6 36 be d0 f4 b5 be
       0.13578178 -0.17169937 -0.17837106 -0.3553834
0001e0 29 6a 7e 3e 63 81 7c 3e 8c bd be 3d a3 23 a0 be
       0.24845184 0.24658732 0.09313497 -0.3127719
0001f0 80 a7 5f bd 9f 2a c7 3d 8a ad 5f bd 1f 25 ad be
       -0.0546031 0.09724926 -0.05460886 -0.33817384
000200 82 a2 a9 be ab 34 09 3d bc 32 cb be e5 6b 17 3e
       -0.33131796 0.033497494 -0.39687145 0.14787252
000210 b8 83 43 3e f9 9d 3d be da 94 b2 bc 37 4a 23 3e
       0.19093215 -0.18517293 -0.021799494 0.1594628
000220 d3 13 b8 bd 9f f3 27 3e 73 11 82 bd 8f 4b d6 3d
       -0.08988156 0.16401528 -0.063509844 0.104636304
000230 63 83 19 be 8b 75 46 3c dc 7b 1f be 4d 62 42 bd
       -0.14991526 0.012112985 -0.15574592 -0.04745703
000240 b6 38 1e be e1 04 ab 3e c4 fc b4 bd bc 68 87 3c
       -0.15451321 0.3340216 -0.08837274 0.016529433
000250 51 c2 03 3d 80 9e 9c 3b b3 85 23 3e 68 07 0f bd
       0.032167736 0.004779637 0.15968971 -0.034919173
000260 1d 04 c3 3d 89 7c f0 be a6 63 c4 bd 5c b5 7b be
       0.09522269 -0.46970013 -0.09589319 -0.24580902
000270 b9 1e b6 3e f9 1c 06 be ad bd 17 be b9 a0 91 3d
       0.35570315 -0.1309699 -0.1481845 0.071107335
000280 38 85 32 be 62 1c a7 be 08 8a d7 3a b7 24 df 3d
       -0.17433631 -0.32638842 0.0016444335 0.10895675
000290 5e 82 ec 3a ba 75 77 3e 26 fa c8 3d e8 2c 70 be
       0.0018044224 0.24166003 0.09813337 -0.2345463
0002a0 be 0d 51 be ec 99 90 be 2c c2 de 3c eb bf 07 be
       -0.20415398 -0.28242433 0.027192198 -0.13256805
0002b0 dd 5b 80 bd 00 d8 06 bc 5d 65 ca bb 9c 2c 46 be
       -0.062675215 -0.008230209 -0.006176634 -0.19352955
0002c0 58 c7 f5 3d ea bb 05 be ae 2c d7 3d 9c 23 81 bc
       0.120009124 -0.13059965 0.10506569 -0.01576405
0002d0 1a e5 2b be f0 c5 9e be b0 4f 8c 3c 07 8e bb bd
       -0.16786614 -0.3101039 0.017127842 -0.09157949
0002e0 f6 3e 8f 3d 63 fa 3f 3d 29 11 20 bc e7 44 8d 3b
       0.06994431 0.046869647 -0.009769716 0.0043111923
0002f0 97 a9 d1 3d 2c 23 b2 3d 15 35 c0 bb bb 05 af bd
       0.10237425 0.08698115 -0.005865703 -0.08546015
000300 61 8f 01 3e 54 80 99 bc a1 da 9f 3d 91 09 db 3c
       0.12652351 -0.01873795 0.07805372 0.02673796
000310 c5 27 8c bd 6e 87 b4 3e 61 10 ec 3d 1d 9b 38 3e
       -0.06843523 0.35259575 0.115265615 0.18027921
000320 69 8e a4 3e da 0a cd be a1 6a 43 3e 19 1c 47 3e
       0.321399 -0.40047342 0.19083644 0.19444312
000330 5a d9 5a 3d 39 db 86 3c c3 1c 61 3d af 8c e1 3d
       0.05342994 0.016461955 0.05495907 0.110131614
000340 ff 22 6d 3e 3c b8 23 3e 4d 68 bd 3d 36 a3 db bd
       0.23157881 0.15988249 0.092484094 -0.107244894
000350 c4 c3 70 be 9f 98 99 3d 19 d7 74 be bd 17 9d bd
       -0.23512179 0.07499813 -0.23910178 -0.07670543
000360 cb 21 7b 3e 40 c0 cb 3e 35 e9 2d 3e eb 7c 97 3e
       0.2452461 0.39795113 0.16983493 0.29587492

bias f4 [10]
000000 47 0f 3e 3d b2 2b 16 3d e1 1a ab be 33 f1 fc 3d
       0.04640129 0.036662765 -0.33418944 0.123506926
000010 d4 55 c9 3d 1e 67 08 bd b7 3b 05 bc 01 d3 3e 3d
       0.098308235 -0.033301465 -0.008131913 0.046587948
000020 06 61 41 3d 8f 12 86 bc
       0.04721167 -0.016366271

weight f4 [10, 10]
000000 b9 6d 57 be b8 1a a0 be ca 9b 6c be 76 30 a3 be
       -0.2103795 -0.31270385 -0.23106304 -0.3187291
000010 3b ec 33 3e c1 5f a5 be 57 4b a9 be 02 83 ec 3d
       0.17570584 -0.32299617 -0.33065292 0.11548425
000020 a8 3a ea bd 08 03 e5 bd 40 b4 6f 3d 88 8e d3 be
       -0.11436969 -0.11182219 0.05852151 -0.4131968
000030 6b 57 04 3e 82 d2 a7 be ee fa a0 be fe cd 2a be
       0.12923972 -0.32777792 -0.31441444 -0.16680142
000040 8b d5 67 3c dc 4c 96 3e 81 3e 92 be 80 76 b6 be
       0.014150034 0.29355514 -0.28563312 -0.35637283
000050 13 50 1a be 32 dd 26 be 64 cc 35 be a1 e4 22 be
       -0.15069608 -0.16295317 -0.1775375 -0.15907528
000060 ce 09 87 be 46 e8 0a be 9e 9c de 3d 97 23 48 be
       -0.26374668 -0.13565168 0.10869716 -0.19544826
000070 7c 8d ad be 94 eb 11 bd 52 62 c2 3e 71 70 8b 3d
       -0.33897007 -0.035625055 0.37965637 0.06808556
000080 8c d0 89 be d6 99 4b 3e 50 f5 6e 3e cf ab f7 3e
       -0.2691692 0.19882903 0.23335767 0.48373267
000090 df 37 f0 3e 5c 89 e1 3e b0 73 b5 bd 2f b9 e0 3e
       0.46917626 0.4405011 -0.08859956 0.43891284
0000a0 59 1e 96 be b8 f6 c5 bd 5b 32 38 3f 60 ae b1 3e
       -0.29320028 -0.096661985 0.71951836 0.3470335
0000b0 c8 07 36 bf 3a ed 27 be 57 81 5d bd 6d 20 50 3e
       -0.71105623 -0.16399089 -0.054078426 0.2032487
0000c0 85 83 b3 3e 7f cb 31 be ff c3 24 be 38 d6 d6 3d
       0.3506128 -0.17362784 -0.16090392 0.10490078
0000d0 6d db 2d be ff f9 72 3e 3e ba 66 3d c4 a3 47 3e
       -0.16978236 0.23728178 0.05632996 0.19496065
0000e0 cd 01 56 bd 89 b5 16 3e 77 d5 15 3e 50 df 9c 3d
       -0.05224781 0.14717688 0.14632212 0.07659781
0000f0 ea 9c 1a 3e ac 38 8f 3e 06 85 f4 bd 63 68 49 be
       0.1509892 0.27972925 -0.11939435 -0.19668727
000100 fe 0b 3d 3c db 7e 42 be b9 f8 b4 be f5 22 18 3e
       0.011538504 -0.18993704 -0.3534601 0.14857085
000110 d5 28 b0 be 54 7e 59 bb 43 7b 8e be 3e bc a0 bd
       -0.34406152 -0.003318687 -0.27828416 -0.07848404
000120 32 4d 8c 3e db 0b 3a 3e 61 12 8f be 42 db c9 be
       0.27402645 0.18168585 -0.2794371 -0.39425093
000130 5b 33 10 3d c0 c7 b6 bd a0 70 b5 3e 09 bb a2 bd
       0.035205226 -0.08924818 0.3543749 -0.079458304
000140 f0 db 68 be d0 93 bc 3e 5b e4 f4 3e 9b 68 0e be
       -0.2274015 0.36831522 0.4783047 -0.13907091
000150 91 01 9c bc 6f 42 3d be e4 7c 72 3c e1 ee e5 bd
       -0.019043716 -0.18482374 0.014800284 -0.11227203
000160 26 81 c0 3e 76 9f 38 3e a4 ef 4a be 6c 06 92 be
       0.37598532 0.1802958 -0.19817978 -0.28520525
000170 48 5b 5c 3e f5 c3 85 3e c6 61 86 be 0f 1f 21 3e
       0.21519196 0.26126066 -0.2624647 0.15734504
000180 f5 a0 ab 3d f8 e4 11 be 32 a8 ae be ad 2d c6 bd
       0.083803095 -0.14247501 -0.34112698 -0.09676681

bias f4 [10]
000000 ed 31 ba 3d fe c9 ae be 69 de 0f 3b a3 b3 fd bc
       0.09091554 -0.34138483 0.0021952635 -0.030969447
000010 87 d9 e7 3b 6a e4 ab bd b0 77 2c 3d 47 bc ee 3e
       0.007075492 -0.08393176 0.04210633 0.4662802
000020 7a 28 9c 3d b0 a2 1e be
       0.07624908 -0.15491748

weight f4 [1, 10]
000000 fb 16 85 ba 92 54 8d 3d d0 b0 17 be ab 73 e9 3e
       -0.0010153943 0.06900896 -0.14813542 0.4559606
000010 ef 7d 1d be b2 88 cd 3d b4 ca cc bd 87 7f 87 be
       -0.15380071 0.10035838 -0.099996 -0.26464483
000020 40 19 27 be 89 4b 63 be
       -0.16318226 -0.22196783
