twig/TWIG-I/checkpoints/chkpt-ID_2324076475146788_e5.pt (torch, 6362 bytes, 5 tensors)

weight f4 [10, 22]
0	0x3efa6ba7	0.48910257
1	0x3f3264a2	0.69684803
2	0x3e0aa706	0.13540277
3	0xbe35003a	-0.17675868
4	0x3f3fb39e	0.7488345
5	0x3d9866b5	0.07441465
6	0x3de1d944	0.11027768
7	0x3d417566	0.0472311
8	0x3d2f94ef	0.042866644
9	0xbf28a931	-0.65883166
10	0x3b913735	0.00443163
11	0xbe0f7290	-0.14008546
12	0xba736041	-0.00092840573
13	0xbd384888	-0.044991046
14	0x3c5b32d0	0.013378814
15	0xbdbae2fe	-0.091253266
16	0xbd90df18	-0.07073802
17	0xbfb41b55	-1.4070841
18	0x3dbfb955	0.09361521
19	0xbcf3bfc7	-0.029754533
20	0xbe0ec91d	-0.13943906
21	0xbe38b7bd	-0.1803884
22	0xbc3b6c62	-0.011439415
23	0xbdd4930e	-0.10379611
24	0xbdf0834f	-0.11743795
25	0x3e37a329	0.17933334
26	0x3e12b6c0	0.14327526
27	0xbce5cd5e	-0.028052028
28	0x3d98913b	0.074495755
29	0x3cdf4e4e	0.027259018
30	0x3e2e8b6e	0.17045376
31	0x3eaf2bf3	0.34213218
32	0xbd81a644	-0.06330541
33	0x3db8937e	0.09012507
34	0x3eb799f5	0.35859647
35	0x3d93be40	0.07214022
36	0xbd773854	-0.060356453
37	0xbd62db3c	-0.05538486
38	0xbdfd175a	-0.123579696
39	0x3da255a9	0.07926495
40	0xbd3873ee	-0.045032434
41	0xbdf7b35f	-0.12094759
42	0x3e7f2338	0.24915779
43	0xbe39474c	-0.18093604
44	0x3dfa6525	0.12226323
45	0x3f56df7a	0.8393475
46	0x3d9a4036	0.075317785
47	0xbcea08e6	-0.028568696
48	0xbf4bdfa4	-0.79638124
49	0x3f3c5617	0.7356886
50	0xbc03d0cd	-0.008045387
51	0xbdfd2614	-0.123607785
52	0xbe1a47cc	-0.15066451
53	0xbd6581fd	-0.05603217
54	0xbe3db975	-0.18527777
55	0xbe34237c	-0.17591661
56	0xbe599f02	-0.21252063
57	0xbe072849	-0.13198961
58	0x3e94c5c1	0.29057124
59	0xbe58bb96	-0.21165308
60	0x3df76e1b	0.12081548
61	0x3d0227dd	0.031776298
62	0x3dad08c0	0.084489346
63	0xbe45c5d3	-0.19313745
64	0xbc6edd59	-0.014579141
65	0xbe646feb	-0.22308318
66	0xbe7e1c27	-0.24815427
67	0xbfa4bd0f	-1.2870196
68	0x3e0dd2b7	0.13849913
69	0xbe201892	-0.15634373
70	0xbea9fb50	-0.3319955
71	0xbef13ac8	-0.4711516
72	0xbd3576f5	-0.0443029
73	0xbc673774	-0.014112342
74	0xbdad64c6	-0.08466487
75	0x3e489ea2	0.19591764
76	0x3d3eae47	0.046552923
77	0x3cf37a02	0.029721264
78	0xbdc24be0	-0.09487128
79	0xbd4b6df5	-0.04966541
80	0xbe104183	-0.1408749
81	0x3dce0e85	0.10061363
82	0x3e061f6b	0.13097923
83	0x3f9e941e	1.2388952
84	0xbd4e1a0b	-0.050317805
85	0xbd0ff7b6	-0.035148345
86	0xbc1bc4cb	-0.009507368
87	0x3dfd0461	0.12354351
88	0xbee17517	-0.44034645
89	0xbf246fa9	-0.6423288
90	0xbda35d4d	-0.0797678
91	0xbe15b127	-0.1461836
92	0xbebf7c93	-0.3739973
93	0xbea33aad	-0.31880704
94	0x3d143658	0.03618464
95	0x3d6f8b3a	0.058482386
96	0x3ddb1c52	0.10698761
97	0x3ee52a75	0.44758955
98	0x3d5fd5a1	0.05464709
99	0x3e9bc1b1	0.30421212
100	0x3e015193	0.12628774
101	0xbe0b57a6	-0.13607654
102	0xbde10b3c	-0.10988471
103	0xbd2f4d9c	-0.042798623
104	0xbcabf8dd	-0.02099269
105	0x3f8aa078	1.0830221
106	0x3e5e2258	0.21692789
107	0x3dfba1b7	0.12286704
108	0xbdcfbf73	-0.10143938
109	0xbe2d01bc	-0.16895193
110	0xbe8021e6	-0.25025862
111	0x3d416cc5	0.04722287
112	0xbf063d91	-0.5243769
113	0x3daa5c38	0.083183706
114	0x3e5bd3f5	0.21467574
115	0x3e852ff0	0.26013136
116	0x3e27f422	0.16401723
117	0x3d40e40b	0.04709248
118	0x3cc80bbd	0.02441966
119	0xbf7df00d	-0.99194413
120	0xbc463a7a	-0.012098903
121	0x3d2df25f	0.04246747
122	0x3c1f9ae7	0.009741521
123	0xbe48fdde	-0.19628093
124	0xba02c0f0	-0.00049878564
125	0x3e3f32d5	0.18671735
126	0x3e8523d4	0.26003897
127	0xbf51c365	-0.81938773
128	0xbe75f544	-0.24019343
129	0x3d4d3c5e	0.0501064
130	0xbe8bcbaf	-0.27303836
131	0x3d4f825d	0.050661433
132	0xbc4b9866	-0.012426471
133	0x3e2d775b	0.16940062
134	0x3ed2a183	0.4113885
135	0xbe74d921	-0.23910953
136	0x3f0eebd0	0.5582857
137	0x3dc7cba1	0.09755636
138	0x3dab25b0	0.08356798
139	0x3e014ffb	0.12628166
140	0xbbcbda72	-0.006221109
141	0xbf2af262	-0.66776097
142	0x3d1ef15f	0.03880441
143	0xbe1e9630	-0.1548698
144	0x3de3b5f3	0.111186884
145	0xbc87b550	-0.016565949
146	0xbd213f75	-0.039367158
147	0x3d5469f7	0.05185887
148	0x3d8e2aa8	0.0694173
149	0xbf741315	-0.95341617
150	0xbbd3f933	-0.006468916
151	0x3d276f90	0.04087788
152	0x3c0f16a3	0.008733424
153	0xbed62ffe	-0.4183349
154	0x3f07eea2	0.530985
155	0x3e6f0dac	0.23345059
156	0x3e1c001e	0.1523442
157	0x3ec1bded	0.37840214
158	0x3f1a5920	0.60292244
159	0x3eaad81d	0.33368006
160	0x390ce29e	0.00013435862
161	0xbe23b69a	-0.15987626
162	0x3e7f2cf3	0.2491949
163	0x3e3d85aa	0.1850802
164	0xbd93c07d	-0.072144486
165	0xbb8317fb	-0.0040006614
166	0xbdc7475a	-0.09730406
167	0x3ba23b8b	0.0049509457
168	0xbdcf6755	-0.10127131
169	0xbdb520a3	-0.088441156
170	0x3ecd2e63	0.40074453
171	0xbf98d706	-1.194062
172	0xbe002c30	-0.12516856
173	0xbe2d2b11	-0.1691096
174	0xbd6e1425	-0.05812468
175	0xbebbfcf7	-0.36716434
176	0xbe5084a5	-0.203631
177	0xbf379e46	-0.7172588
178	0x3ed39168	0.41321874
179	0xbe2ba2ec	-0.16761369
180	0xbeef3b86	-0.467251
181	0xbeeaecd4	-0.4588381
182	0xbdbecaf8	-0.09316057
183	0x3db46a49	0.08809335
184	0x3df1403e	0.11779831
185	0x3e14ef2b	0.1454436
186	0xbc9e0bd7	-0.019292755
187	0xbd87e23a	-0.06634946
188	0x3c4cec97	0.012507579
189	0x3e16defc	0.147335
190	0x3e0bbc69	0.13646092
191	0x3e33ca6d	0.17557688
192	0x3e81e519	0.253701
193	0x3f616834	0.88049626
194	0xbc8bc29a	-0.017060567
195	0xbc2604fd	-0.010133025
196	0xbdd19960	-0.10234332
197	0x3cf201b0	0.02954182
198	0x3efcb720	0.49358463
199	0x3f4fad37	0.8112368
200	0xbd11eddb	-0.035627227
201	0xbd3fa46c	-0.046787664
202	0x3f765988	0.96230364
203	0x3e152d9a	0.14568177
204	0x3cfa4a22	0.030552927
205	0xbcc004bb	-0.023439756
206	0x3d220d1b	0.03956328
207	0xbf2a7040	-0.6657753
208	0x3d80d1be	0.06290005
209	0x3e0b1939	0.1358384
210	0xbcef6a1d	-0.029225403
211	0xbcb42bbb	-0.021993509
212	0x3e19cb04	0.1501885
213	0x3d03cec2	0.0321796
214	0x3de4b547	0.111673884
215	0xbfe17819	-1.7614776
216	0x3d5a8b56	0.053355537
217	0x3cae2629	0.02125843
218	0xbdc91553	-0.098185204
219	0x3c8d6d88	0.017264143

bias f4 [10]
0	0x3c19e62c	0.009393256
1	0xbeed9afe	-0.46407312
2	0xbe9b8b95	-0.3037993
3	0x3e2dce5a	0.16973248
4	0x3e84aee3	0.25914678
5	0xbe69cb39	-0.2283143
6	0xbde4747a	-0.11155029
7	0x3e34d7c1	0.17660429
8	0x3e8da0d4	0.27661765
9	0x3ed6ffd0	0.41992044

weight f4 [10, 10]
0	0xbf151406	-0.5823368
1	0xbe4aaf0f	-0.19793342
2	0xbee226b8	-0.44170165
3	0x3f499e05	0.78756744
4	0x3f0d5701	0.5521088
5	0xbea4f032	-0.32214504
6	0xbe64f139	-0.22357644
7	0xbd2fcded	-0.042920996
8	0x3e1cc080	0.15307808
9	0xbf7018e0	-0.93787956
10	0xbdaf5687	-0.08561426
11	0x3e04ba64	0.12961727
12	0x3e01ed4e	0.12688181
13	0xbe002c16	-0.12516817
14	0xbecd8783	-0.4014245
15	0xbe7e91b0	-0.24860263
16	0x3eafbd41	0.34324077
17	0xbce57d7e	-0.02801394
18	0x3c3680ea	0.011139134
19	0xbe9e6ee0	-0.30943966
20	0xbe0b27e4	-0.13589436
21	0xbb8e6241	-0.004345209
22	0xbe3ffaeb	-0.18748061
23	0xbe099ec7	-0.13439475
24	0xbe87521b	-0.2642983
25	0xbdde69e1	-0.108600385
26	0x3e28025f	0.16407155
27	0xbdd13d95	-0.10216824
28	0xbe0a6bdf	-0.13517712
29	0xbd4576af	-0.04820889
30	0x3f512ef5	0.81712276
31	0x3d349864	0.044090644
32	0xbf0a2eda	-0.5397774
33	0xbf0d13ee	-0.55108535
34	0xbeacc6cc	-0.3374542
35	0x3ee31059	0.4434841
36	0x3edf4f2c	0.4361509
37	0x3f2222a4	0.6333411
38	0xbeee8ff8	-0.46594214
39	0x3f8a37f4	1.0798326
40	0xbed03faf	-0.40673587
41	0xbe7352d0	-0.23762059
42	0x3e831ddc	0.25608718
43	0x3f3955e6	0.72396696
44	0x3e1d0ffd	0.1533813
45	0x3d92186f	0.071335666
46	0xbcea944d	-0.028635168
47	0xbd29d6d2	-0.041464634
48	0x3ece5a7e	0.40303415
49	0xbf012842	-0.50452054
50	0xbe5eac5e	-0.2174544
51	0x3e019d0e	0.12657568
52	0x3e8a4d5e	0.2701215
53	0xbc656938	-0.014002137
54	0xbdd5c089	-0.10437114
55	0x3e4a20fb	0.19739144
56	0xbee12879	-0.4397619
57	0x3ecfc5a3	0.40580472
58	0x3e020e81	0.12700845
59	0x3ee3f2d8	0.44521213
60	0x3e11990e	0.14218542
61	0x3e64797c	0.22311968
62	0xbe350ebb	-0.176814
63	0xbdbe398e	-0.092883214
64	0x3def49a3	0.11683967
65	0xbe569101	-0.20953752
66	0xbea45e5b	-0.32103238
67	0x3cb75014	0.022377051
68	0xbdfefb89	-0.1245032
69	0xbe70728c	-0.23481196
70	0xbea66042	-0.32495314
71	0xbd87a510	-0.0662328
72	0xbe128b16	-0.1431087
73	0x3f2e45c7	0.6807522
74	0x3e67e7b8	0.22646987
75	0xbe9cf998	-0.30659175
76	0xbc7d2e07	-0.015452868
77	0xbe3d5924	-0.18491036
78	0x3ec61717	0.3868949
79	0xbf380a37	-0.71890587
80	0xbecb4f9f	-0.39709184
81	0x3e855e96	0.26048726
82	0xbd281df1	-0.04104418
83	0x3ed1e9c6	0.40998667
84	0x3ee1e34b	0.44118723
85	0xbbbd75a9	-0.0057818484
86	0x3ce98cd6	0.028509539
87	0xbf14b1c0	-0.58083725
88	0x3ed709b0	0.41999578
89	0xbe8a8183	-0.27051935
90	0xbeb9eb7b	-0.3631247
91	0xbe68d418	-0.22737157
92	0xbe5025bf	-0.20326899
93	0x3f2e976a	0.6819979
94	0x3c4d059f	0.012513547
95	0x3d304419	0.043033693
96	0x3e2d75da	0.16939488
97	0xbd8d42ba	-0.06897493
98	0x3d53e015	0.051727373
99	0xbf020f80	-0.508049

bias f4 [10]
0	0x3ebed47d	0.3727149
1	0xbee2d663	-0.4430419
2	0x3ae0f8b1	0.001716396
3	0x3e509a41	0.20371343
4	0x3db24851	0.087051995
5	0x3dbe926f	0.09305274
6	0xbd6479c1	-0.055780176
7	0x3f02c26d	0.5107792
8	0xbe21aab3	-0.15787773
9	0x3d853719	0.0650465

weight f4 [1, 10]
0	0xbf03d435	-0.5149568
1	0x3e064ccd	0.13115235
2	0xbe1d1167	-0.1533867
3	0x3f6c5d5c	0.92329955
4	0xbe18d551	-0.14925124
5	0x3e0188c7	0.12649833
6	0x3daff589	0.08591754
7	0xbeb91ad7	-0.3615329
8	0xbe4ea549	-0.20180239
9	0xbf02ba77	-0.5106577
