twig/TWIG-I/checkpoints/chkpt-ID_7167104065890587_e15.pt (torch, 6244 bytes, 5 tensors)

weight f4 [10, 20]
-0.0044722725 -0.23807982 0.18805102 -0.15482569 -0.37487158 -0.3808882 -0.0005729577 0.24120155
0.12346314 -0.033325326 -0.09506268 -0.018350754 -0.0016248364 0.109821334 -0.11351062 0.11545549
-0.14782824 -0.21599634 0.11561318 -0.10224539 -0.46385664 -0.8471197 0.0026761063 -1.1716396
-0.09963631 0.19558272 0.050922886 -0.35791922 -0.061816115 -0.13095324 -0.0051607313 -0.00889459
0.034009073 0.056533497 -0.0066069374 -0.015042512 1.1999735 -0.027373713 0.016559405 0.06163191
-0.15818876 -0.013616575 0.012846988 0.02123425 0.1386957 0.4622146 0.093898885 0.059202112
-0.059207484 -0.16399035 0.053934127 0.022087375 0.064089164 -0.050837837 -0.007091876 0.09544017
-0.5913405 -0.022803424 0.14154147 -0.2534182 0.14534144 -0.5071919 0.014373287 -0.3559806
-0.20535567 -0.64971447 0.0072050076 -0.068054125 0.12606765 0.053729653 0.037014343 -0.03366431
0.02720547 -0.080553696 -0.101715446 0.13527712 0.7011107 -0.03405757 0.16089134 -0.13116786
-0.31947172 -0.33423164 0.019853007 0.07109645 -0.14117083 -0.49346974 0.039295856 0.10112266
-0.1400454 0.08890474 -0.021545488 0.12416609 0.11029616 -0.023756871 0.0008214507 0.016070768
0.55177736 -0.16581756 0.11708984 -0.14063694 0.080980375 0.06657846 -0.29725623 -0.059188228
0.017498055 0.35628337 0.052372422 0.23685482 -0.1199673 -0.04001541 -0.17330782 -0.14374259
-0.12169948 -0.5284437 0.09662371 0.047997188 -0.16492884 0.15290421 -0.1957006 -0.050828468
0.15774347 -0.020371065 -0.23568226 0.017902633 -0.07734273 0.35585576 -0.091672756 -0.20311515
-0.100825004 -0.25296047 -0.24292621 -0.19133075 0.17436555 -0.050199933 0.11169762 0.017536359
-0.2898722 0.0015366426 -0.16818483 -0.1531325 -0.40820435 -0.2543194 -0.006547412 0.08893594
-0.12925217 0.36034214 -0.25154752 -0.020038474 -0.10402152 -0.34837973 0.13278109 0.04159836
0.07000671 -0.021235384 -0.036912456 0.027631346 -0.097742505 0.15345117 0.006374747 -0.23285948
-0.3770349 -0.006523183 0.10052858 -0.0040183403 -0.11540855 0.28093633 0.18193921 -0.107771076
-0.0043785605 -0.5937892 0.1446292 -0.019326229 -0.11923978 -0.10522841 -0.07403736 -0.22024152
-0.079156205 -0.09546154 0.067675665 0.15805426 -0.5040898 0.18620133 -0.1101809 -0.1493399
0.36199746 0.17459682 0.015670568 -0.001968387 0.07857601 -0.3399255 0.018057683 0.0735054
0.2082523 -0.09096147 0.023514602 -0.008511237 -0.5647219 0.1542574 -0.012569703 0.2613199
00000000: 248c 92bb 32cb 73be 7290 403e a08a 1ebe
00000010: 2bef bfbe c703 c3be 8a32 16ba 8afd 763e
00000020: 3eda fc3d 2380 08bd 39b0 c2bd 5254 96bc
00000030: 76f8 d4ba 02ea e03d 4278 e8bd ee73 ec3d
00000040: 4960 17be 252e 5dbe 9ac6 ec3d 0866 d1bd
00000050: 9e7e edbe d6dc 58bf 9d61 2f3b 49f8 95bf
00000060: 1f0e ccbd d646 483e 8494 503d 3041 b7be
00000070: e532 7dbd 9b18 06be 5a1b a9bb 9dba 11bc
00000080: 194d 0b3d ab8f 673d 027f d8bb de74 76bc
00000090: bb98 993f d63e e0bc 97a7 873c be71 7c3d
000000a0: 3cfc 21be 0e18 5fbc 2c7c 523c 73f3 ad3c
000000b0: 3f06 0e3e 64a7 ec3e 0f4e c03d ea7d 723d
000000c0: 8c83 72bd 16ed 27be 08ea 5c3d 95f0 b43c
000000d0: 2e41 833d 563b 50bd f862 e8bb 2376 c33d
000000e0: 1762 17bf 3fce babc 3ff0 103e 08c0 81be
000000f0: 63d4 143e 54d7 01bf ef7d 6b3c 1743 b6be
00000100: c248 52be b053 26bf fc17 ec3b f65f 8bbd
00000110: e117 013e a013 5c3d 5a9c 173d 96e3 09bd
00000120: 01de de3c 56f9 a4bd 3050 d0bd 1686 0a3e
00000130: fe7b 333f f37f 0bbd b3c0 243e de50 06be
00000140: cc91 a3be 6920 abbe c6a2 a23c 049b 913d
00000150: 168f 10be 11a8 fcbe b1f4 203d 6619 cf3d
00000160: 1068 0fbe b013 b63d 2a80 b0bc ca4a fe3d
00000170: f4e2 e13d c59d c2bc a056 573a d8a6 833c
00000180: 4841 0d3f 14cc 29be cccc ef3d 2103 10be
00000190: 0ad9 a53d 4a5a 883d f831 98be 5b6f 72bd
000001a0: 1558 8f3c c66a b63e 7784 563d 128a 723e
000001b0: 6ab1 f5bd 33e7 23bd 9b77 31be 4231 13be
000001c0: 943d f9bd 1648 07bf a7e2 c53d b398 443d
000001d0: 1be3 28be ec92 1c3e bd65 48be 8331 50bd
000001e0: 8187 213e 38e1 a6bc b156 71be 8ba8 923c
000001f0: dd65 9ebd ba32 b63e edbe bbbd 6bfd 4fbe
00000200: 577d cebd 0984 81be a6c1 78be 35ec 43be
00000210: e28c 323e 729e 4dbd b9c1 e43d 69a8 8f3c
00000220: 216a 94be 2b69 c93a a538 2cbe c4ce 1cbe
00000230: 2900 d1be 2736 82be ac8b d6bb 0c24 b63d
00000240: ae5a 04be c47e b83e d6ca 80be ba27 a4bc
00000250: 3c09 d5bd d45e b2be c4f7 073e 0b63 2a3d
00000260: ae5f 8f3d d4f5 adbc 8431 17bd 225b e23c
00000270: 392d c8bd 4e22 1d3e 41e3 d03b b772 6ebe
00000280: b80a c1be 6dc0 d5bb eee1 cd3d 48ac 83bb
00000290: 515b ecbd e3d6 8f3e 464e 3a3e 15b7 dcbd
000002a0: 077a 8fbb 9202 18bf ad19 143e 0a52 9ebc
000002b0: fc33 f4bd fe81 d7bd e6a0 97bd fe86 61be
000002c0: a61c a2bd 5781 c3bd 8a99 8a3d fad8 213e
000002d0: 070c 01bf 90ab 3e3e 86a6 e1bd 8fec 18be
000002e0: bb57 b93e 82c9 323e 905f 803c 0e00 01bb
000002f0: 76ec a03d b70a aebe b5ed 933c 008a 963d
00000300: 1740 553e 024a babd b2a1 c03c b772 0bbc
00000310: 9d91 10bf a7f5 1d3e 28f1 4dbc b9cb 853e

bias f4 [10]
0.11759718 -0.28980255 0.6178385 -0.13796653 -0.0871591 0.21453655 0.22674541 0.32829228
0.28480056 0.16124879
00000000: cad6 f03d 0061 94be aa2a 1e3f 1947 0dbe
00000010: 7880 b2bd 78af 5b3e f32f 683e ed15 a83e
00000020: 61d1 913e 671e 253e

weight f4 [10, 10]
-0.027520495 0.351565 -0.10413064 0.34356257 0.26497918 0.11147231 0.20337719 0.18408354
0.038069524 0.036001 -0.018511064 0.35010913 -0.39045635 0.34173536 0.3017527 -0.3815737
-0.1290264 -0.32766113 -0.026196564 -0.35559812 -0.2917877 -3.4983456 0.7946714 -0.92969316
-0.63935214 0.010164844 -0.08295263 0.18676335 0.083450675 0.45500678 0.1474443 -0.033827826
0.11019585 -0.26632166 -0.275511 -0.033437096 0.39365345 0.40742272 0.074938335 -0.24763742
0.059789617 0.5457512 -0.34313676 0.14108035 0.33812648 -0.2565064 0.15973504 -0.27394652
-0.19836326 -0.123119205 0.13190463 -0.45456645 -0.10947986 -0.14496528 -0.37832814 0.23820192
0.3587273 0.3738705 -0.03894055 0.43234438 -0.302133 -0.75384086 0.38998362 -0.049761876
-0.47605968 0.3125383 -0.06062743 0.413145 0.3124484 0.12658568 -0.065334596 1.2257819
-0.036710158 0.392394 0.33132255 0.02041464 -0.27550325 0.048211824 0.14164785 -0.13623808
0.28842723 0.6862584 -0.2315948 0.0981358 0.4075543 -0.25639483 -0.3365296 0.06409807
-0.34332663 -0.07683515 0.15207942 1.4036582 -0.35061252 0.61239105 0.5294728 -0.31615067
0.15018597 -0.24792163 0.14999132 -0.18380912
00000000: a972 e1bc 5400 b43e 7242 d5bd 6fe7 af3e
00000010: 5aab 873e 984b e43d 1c42 503e 6580 3c3e
00000020: caee 1b3d c975 133d 84a4 97bc 8141 b33e
00000030: e5e9 c7be f0f7 ae3e 547f 9a3e a15d c3be
00000040: 7f1f 04be 33c3 a7be 2d9a d6bc f510 b6be
00000050: 3365 95be e5e4 5fc0 966f 4b3f 5f00 6ebf
00000060: 95ac 23bf 728a 263c 12e3 a9bd e43e 3f3e
00000070: 30e8 aa3d a6f6 e83e a3fb 163e 0c8f 0abd
00000080: 5dae e13d 505b 88be c70f 8dbe 56f5 08bd
00000090: f28c c93e b699 d03e 4579 993d aa94 7dbe
000000a0: f5e5 743d 5ab6 0b3f 9faf afbe 5e77 103e
000000b0: ea1e ad3e cf54 83be 9591 233e b842 8cbe
000000c0: bd1f 4bbe ec25 fcbd 0212 073e efbc e8be
000000d0: fa36 e0bd c771 14be 3ab4 c1be 34eb 733e
000000e0: 1bab b73e f46b bf3e 2080 1fbd 3e5c dd3e
000000f0: 2db1 9abe b7fb 40bf efab c73e 1cd3 4bbd
00000100: 18be f3be 0505 a03e 7854 78bd be87 d33e
00000110: 3df9 9f3e ad9f 013e 25ce 85bd 6ce6 9c3f
00000120: 645d 16bd dee7 c83e 1ca3 a93e 9a3c a73c
00000130: c30e 8dbe c379 453d 220c 113e ff81 0bbe
00000140: bcac 933e a1ae 2f3f 3027 6dbe 6cfb c83d
00000150: f5aa d03e 2f46 83be 9c4d acbe d945 833d
00000160: 82c8 afbe bf5b 9dbd b5ba 1b3e 12ab b33f
00000170: 7c83 b3be a9c5 1c3f 888b 073f 80de a1be
00000180: 5aca 193e 2bdf 7dbe 5397 193e 7538 3cbe

bias f4 [10]
-0.06046928 0.3944088 0.5306753 0.09867798 0.31219697 0.16428901 0.61990756 0.10536723
0.31780756 0.15949644
00000000: a3ae 77bd f3ef c93e 56da 073f ae17 ca3d
00000010: 48d8 9f3e 613b 283e 43b2 1e3f c6ca d73d
00000020: acb7 a23e 0953 233e

weight f4 [1, 10]
-0.13079104 -0.45031607 0.7424011 0.42448863 -0.5249667 0.38699302 0.33324897 -0.3844685
-0.48135987 -0.365471
00000000: 16ee 05be d48f e6be 000e 3e3f 9356 d93e
00000010: 3864 06bf f323 c63e 9c9f aa3e 0ed9 c4be
00000020: cd74 f6be 041f bbbe
